models/model191.pkl (torch, 23622 bytes, 9 tensors)

hidden1.weight f4 [80, 8]
0	0xbdf147ae	-0.1178125
1	0x40374b63	2.8639762
2	0x3def5cda	0.11687632
3	0xbd8caaf1	-0.06868542
4	0x3fe4e523	1.7882427
5	0x3dd0b4d6	0.10190742
6	0x3d863927	0.0655387
7	0xbd00bc16	-0.031429373
8	0xbe52ebf9	-0.20597829
9	0x40515e06	3.2713637
10	0xbf18d7b4	-0.59704137
11	0x3d78def2	0.060759492
12	0x401d9187	2.4620073
13	0xbe6ed4c7	-0.23323356
14	0xbce81c53	-0.028333819
15	0x3e7864e6	0.2425724
16	0x40385327	2.8800752
17	0xbf84ba68	-1.0369387
18	0xbea9d2b7	-0.33168575
19	0xbf440676	-0.7657236
20	0x4005f89f	2.0932996
21	0x3f65e683	0.8980486
22	0x3effb644	0.49943745
23	0xbe6df8b0	-0.23239398
24	0x4004407f	2.0664365
25	0xc087a334	-4.2386723
26	0xbf2403ba	-0.64068186
27	0xbf875454	-1.057261
28	0x4019b188	2.4014606
29	0x3ed07072	0.4071079
30	0xbe7c2944	-0.24625117
31	0xc00d7023	-2.2099693
32	0x3fb3b5c1	1.4039842
33	0xbd7f024f	-0.06225806
34	0x3f6e47f4	0.9307854
35	0xbf976b59	-1.1829635
36	0x3e7c23c3	0.24623017
37	0x3def889a	0.116959766
38	0xbfc579b3	-1.5427765
39	0xbfac45b8	-1.3458776
40	0x3ef4fee7	0.47850725
41	0x40319fc8	2.7753773
42	0xbe278b86	-0.16361818
43	0xbc472e03	-0.012156966
44	0x4015d906	2.341371
45	0x3f7da394	0.99077725
46	0xbd090941	-0.03345609
47	0xbf4d2980	-0.8014145
48	0xbeb53dac	-0.35398614
49	0x403625bb	2.846053
50	0xbd08ead9	-0.033427093
51	0xbe0eebcf	-0.13957141
52	0x4000bb86	2.0114455
53	0x3d7fbe47	0.062437322
54	0x3eb75192	0.3580442
55	0x3ef0d827	0.4703991
56	0x401de838	2.4672985
57	0xbf4ea92d	-0.8072689
58	0x3fe699d3	1.8015693
59	0xbf2427dd	-0.64123327
60	0x400dba5b	2.2144992
61	0xbfa2b041	-1.2710038
62	0xbfe65b8c	-1.7996688
63	0xbfe2052d	-1.765783
64	0x4003df58	2.0605068
65	0xbf9ef7ba	-1.241935
66	0x3d989b77	0.074515276
67	0xbdc0647c	-0.09394166
68	0x3fca2baa	1.5794575
69	0x3eb2916f	0.34876582
70	0x3dcf09dd	0.10109303
71	0x3e19ff8d	0.15038891
72	0x3ec47b7e	0.38375467
73	0x3e5b8afe	0.2143974
74	0x3f162e62	0.58664525
75	0xbd71afef	-0.059005674
76	0x3ea50a0c	0.32234228
77	0xbf44a3d2	-0.7681247
78	0xbeb3aa17	-0.35090706
79	0xbf84a048	-1.0361414
80	0x3fcb20e9	1.5869418
81	0xbf373120	-0.71559334
82	0x3f7e940b	0.99444646
83	0x3db666e0	0.089063406
84	0x3ff66185	1.9248511
85	0xbf23476c	-0.63780856
86	0x3d01c261	0.031679515
87	0xbc43dae2	-0.011954041
88	0x3f47f822	0.78112996
89	0xbf880cb5	-1.0628878
90	0x3f5d3ed7	0.8642401
91	0xbfa41b1c	-1.2820773
92	0x3f240348	0.64067507
93	0xbf85cd85	-1.0453345
94	0xbf7b6d17	-0.9821333
95	0xbfa673a0	-1.3004036
96	0xbed4d9a0	-0.41572285
97	0x403cd147	2.9502733
98	0x4013d0b8	2.3096142
99	0xbec5d84b	-0.3864158
100	0x3d85fe45	0.06542639
101	0xbeee3b34	-0.46529543
102	0x3ca5251c	0.020159297
103	0xbe1a3099	-0.15057601
104	0x3f8e832e	1.1133783
105	0xbef28784	-0.47369015
106	0x3f7a49d2	0.9776889
107	0x3d9d668c	0.07685575
108	0x3fee4996	1.8616207
109	0xbf2e4e37	-0.68088096
110	0xbe30e75e	-0.1727576
111	0xbdbe1da5	-0.09282998
112	0x4043a79b	3.0571048
113	0xbf714352	-0.9424335
114	0xbde61502	-0.11234476
115	0x3e80efa1	0.25182822
116	0x400324f2	2.04913
117	0xbd4fd4bd	-0.050739992
118	0x3ec97a8a	0.39351302
119	0x3ed20bd7	0.41024658
120	0x3fb8dc3c	1.444221
121	0xbfaf75c4	-1.3707814
122	0x3f9e9e0f	1.2391986
123	0xbef13985	-0.47114196
124	0x3fe099fb	1.7546991
125	0x3e270e36	0.16314015
126	0x3f852811	1.0402852
127	0xbe7d90a7	-0.24762212
128	0xbede79c9	-0.4345229
129	0xbf829a22	-1.0203288
130	0xbe8a6fcb	-0.27038416
131	0xbf93f36e	-1.1558664
132	0x3f9607cc	1.172113
133	0xbf6319e6	-0.8871139
134	0x3ea1ecce	0.3162598
135	0xc00b965a	-2.1810517
136	0x3ef23b46	0.47310847
137	0xbf89107a	-1.0708153
138	0x3f03570d	0.51304704
139	0x3c6be4ec	0.014397841
140	0x3f9f6edc	1.2455707
141	0xbf184564	-0.5948088
142	0x3ce20dca	0.027594466
143	0xbda7704d	-0.081757165
144	0xbe96e8bf	-0.29474446
145	0xbe2fdec5	-0.17174824
146	0xbe98847c	-0.29788578
147	0xbe79c5b8	-0.2439183
148	0xbdab9bcc	-0.08379325
149	0xbd2ea288	-0.04263547
150	0xbe2b3d57	-0.16722618
151	0xbd64a200	-0.055818558
152	0xbee458e8	-0.4459908
153	0x4057b677	3.3705118
154	0xbda2588e	-0.07927047
155	0xbe38b521	-0.18037845
156	0x401f94a2	2.4934468
157	0x3d9ead16	0.07747857
158	0x3ed292c1	0.4112759
159	0x3f3f5d18	0.74751425
160	0x3e011f9b	0.12609713
161	0x4039f17c	2.905364
162	0xbddcddaf	-0.1078447
163	0x3c54b13a	0.012981707
164	0x3fe2ef64	1.7729306
165	0xbe5ec364	-0.21754223
166	0xbe36e180	-0.17859459
167	0xbe85cdf5	-0.26133695
168	0x3f84c3d9	1.0372268
169	0xbf8b47d1	-1.0881292
170	0x3f00652e	0.5015439
171	0x3de3f33e	0.11130379
172	0x3fa605bf	1.2970504
173	0xbeeb67c7	-0.45977613
174	0x3e0993f3	0.13435344
175	0xbd4236a9	-0.04741541
176	0x3f7c3ece	0.9853333
177	0xc0b5cf42	-5.68155
178	0x4002f577	2.046232
179	0x3dc2e336	0.09515993
180	0x4003960a	2.0560327
181	0xbe457777	-0.19283853
182	0xbf9de4bf	-1.2335433
183	0xbd874c90	-0.066064
184	0x3fb8dd2a	1.4442494
185	0xbfa77d46	-1.3085105
186	0x3f2a59a9	0.6654306
187	0xbebce360	-0.36892223
188	0x3fbf4573	1.4943069
189	0xbdafc572	-0.085825816
190	0x3f12561b	0.57162637
191	0xbed7f438	-0.42178512
192	0x3e733ad5	0.23752911
193	0x40005157	2.0049646
194	0x3efd057d	0.4941825
195	0x3f24178e	0.6409844
196	0x3ffa55c4	1.9557424
197	0x3f45df5d	0.7729395
198	0xbf29a23e	-0.66263187
199	0xbf1caa73	-0.61197585
200	0x3f97b665	1.1852537
201	0xbf48b77b	-0.7840497
202	0x3ea75240	0.3267994
203	0xbf2a3d9c	-0.6650026
204	0x3f563f49	0.83690315
205	0xbf38a107	-0.7212071
206	0xbf063c7d	-0.5243605
207	0xbe21c071	-0.15796067
208	0x3f966a75	1.1751238
209	0xbf0435f0	-0.516448
210	0x3f9cf407	1.2261971
211	0x3de7556e	0.11295591
212	0x3fef423b	1.8692087
213	0xbf134a89	-0.57535607
214	0x3cfbb3de	0.030725416
215	0xbe39ccd4	-0.18144542
216	0xbe94fd83	-0.29099664
217	0x403eee02	2.9832768
218	0xbf0dce65	-0.5539306
219	0x3dd4d485	0.103920974
220	0x400ebda7	2.2303255
221	0xbe6f202f	-0.23352121
222	0xbdded730	-0.108808875
223	0x3de19c32	0.1101612
224	0xbe66381f	-0.22482346
225	0xbe3b9e8c	-0.183222
226	0x3d612ea8	0.054976135
227	0xbeab4282	-0.3344918
228	0xbe503114	-0.20331222
229	0xbdf85f9e	-0.121276125
230	0xbc8a43f0	-0.016878098
231	0x3d20b688	0.039236575
232	0xbd54b920	-0.05193436
233	0xbe4dc418	-0.20094335
234	0x3df252f0	0.11832225
235	0xbe19405c	-0.14965957
236	0xbeb31cd3	-0.3498293
237	0xbc0d7ac0	-0.008635223
238	0x3e130384	0.1435681
239	0x3c24c4a0	0.010056645
240	0xbd786ba6	-0.060649537
241	0x4028e464	2.6389399
242	0xbe36480a	-0.17800918
243	0x3c68fd98	0.014220618
244	0x3fe97b70	1.8240795
245	0xbdc79e6e	-0.09747015
246	0xbdaa9f42	-0.08331157
247	0xbe2fd6bf	-0.17171763
248	0x4054ea3c	3.3267965
249	0xbefbd0a2	-0.49182612
250	0xbf1cae75	-0.612037
251	0xbf588663	-0.8458006
252	0x3fc618d9	1.5476333
253	0x3f877bb9	1.0584632
254	0x3f14298d	0.578759
255	0x3f1a55ba	0.6028706

hidden1.bias f4 [80]
0	0xc02be87f	-2.6860654
1	0xc03df0e9	-2.967829
2	0xbf86f4b3	-1.0543426
3	0xbf7d04f6	-0.98835695
4	0xbf6e1eec	-0.93015933
5	0xc020ff23	-2.5155723
6	0xc02cf3e2	-2.7023854
7	0x3e7087b1	0.23489262
8	0xbf6af4bf	-0.917797
9	0xbfa9d7bb	-1.3268961
10	0x3f6e7679	0.93149525
11	0x3ed7b4bc	0.42130077
12	0xbfebe455	-1.8429056
13	0x3f610739	0.87901646
14	0xbf9129ed	-1.134092
15	0x3f614995	0.880029
16	0x3f997771	1.1989576
17	0x3f143bee	0.57903945
18	0xbe8093f8	-0.2511289
19	0xc050af93	-3.2607162
20	0xc0225e8d	-2.537021
21	0x3f652280	0.8950577
22	0x3f2d39a7	0.67666095
23	0x3f6cc51c	0.92488265
24	0xc0039507	-2.055971
25	0x3ee7db0b	0.45284304
26	0x3f826084	1.0185704
27	0xc0285cc3	-2.6306617
28	0xbd5b6d00	-0.053570747
29	0xbe86e433	-0.26345977
30	0xc01f4caf	-2.4890554
31	0xbfb862d5	-1.4405161
32	0xc02cc4e9	-2.6995184
33	0x3f8febef	1.1243876
34	0xc00fce5a	-2.2469697
35	0xc016a530	-2.3538322
36	0xbeeaea2c	-0.45881784
37	0xbfc3adfd	-1.5287472
38	0xc01c2031	-2.4394648
39	0xc016871a	-2.351996
40	0x3f1c0233	0.60940856
41	0xc03894a7	-2.884073
42	0xc02bf6da	-2.6869416
43	0xbfc48e41	-1.5355912
44	0x3e032054	0.12805301
45	0xbe7b4461	-0.24537803
46	0x3ed7b91a	0.4213341
47	0xbf18737d	-0.5955122
48	0xc0120fbd	-2.2822106
49	0xc02a9042	-2.6650548
50	0xbe90afe6	-0.282592
51	0x3f4ab339	0.7917972
52	0xbeab3c95	-0.33444658
53	0xbe07fc98	-0.1327995
54	0xbf5b38cd	-0.85633546
55	0x3e82ebb6	0.25570458
56	0x3d69e7fb	0.057106
57	0xc02b4800	-2.6762695
58	0x3dda523b	0.106602155
59	0x3f0c37ce	0.5477265
60	0x3f2b4fad	0.6691845
61	0xbfc04eea	-1.5024083
62	0xbe087a85	-0.13327987
63	0x3ea74c5a	0.3267544
64	0xbf6b5517	-0.9192671
65	0xbfa737c2	-1.3063891
66	0x3cb324af	0.021868078
67	0x3f56dd3f	0.83931345
68	0xc00f1ffa	-2.2363267
69	0x3f00e021	0.50341994
70	0xbfeb2498	-1.8370543
71	0xbe9fc715	-0.31206575
72	0x3f0e642a	0.5562159
73	0xbebd6040	-0.36987495
74	0x3c34f5d7	0.011044941
75	0xc025cdff	-2.590698
76	0xbe9d8352	-0.30764252
77	0x3f274843	0.6534464
78	0xc03a6195	-2.912206
79	0xc035696c	-2.8345594

hidden2.weight f4 [40, 80]
0	0x3cf78610	0.030215293
1	0x3d859f96	0.06524579
2	0xbd3b6256	-0.045748077
3	0xbeb6f8aa	-0.3573659
4	0xbea329be	-0.31867784
5	0xb7b60000	-2.169609e-05
6	0xbc505c90	-0.012717381
7	0xbe9d791b	-0.3075646
8	0xbebdbfee	-0.37060493
9	0xbe8706aa	-0.26372272
10	0xbe76325a	-0.24042645
11	0xbe633d80	-0.22191429
12	0xbec5c97d	-0.38630286
13	0xbe77449a	-0.24147263
14	0xbd91c775	-0.071181215
15	0xbeb6a375	-0.35671583
16	0xbebce4ee	-0.3689341
17	0xbeb6e7d1	-0.35723737
18	0x3cdbae38	0.026816472
19	0xbc4c1648	-0.012456484
20	0xbdbe1ef4	-0.092832476
21	0xbea403d7	-0.3203418
22	0xbe455b83	-0.1927319
23	0xbe8443c1	-0.25832942
24	0xbe91735b	-0.28408322
25	0xbea2b69a	-0.3177994
26	0xbe918d00	-0.28427887
27	0x3d672c08	0.056438476
28	0xbdac5ea4	-0.08416489
29	0xbd34c818	-0.044136137
30	0xbd65dd1e	-0.056119077
31	0xbea80e91	-0.32823613
32	0x3c657960	0.014005989
33	0xbe9f8a46	-0.31160182
34	0xbdc7744e	-0.0973898
35	0xbeaa257c	-0.33231723
36	0xbced51e8	-0.02896972
37	0x3d3d611c	0.04623519
38	0xbd72bc78	-0.05926177
39	0xbdb44401	-0.08802033
40	0xbeb49efb	-0.35277542
41	0xbb833d20	-0.0040050894
42	0xbb699080	-0.0035639107
43	0x3dd9175e	0.1060016
44	0xbe93a63d	-0.28837767
45	0x3dc5e346	0.096624896
46	0xbe7f5be8	-0.24937403
47	0xbeaa3c54	-0.33249152
48	0xbddff9fb	-0.10936352
49	0x3d9a6694	0.075390965
50	0x3d20cbb8	0.03925678
51	0xbe4d70ed	-0.20062609
52	0xbe8ee800	-0.27911377
53	0xbe8e3858	-0.27777362
54	0xbd8dd9e2	-0.069263235
55	0xbe41d253	-0.18927889
56	0xbbb90dd0	-0.0056473985
57	0xbd475686	-0.0486665
58	0xbd6dbdfb	-0.058042508
59	0xbe580778	-0.21096599
60	0xbe4eca76	-0.2019442
61	0xbea50173	-0.32227668
62	0xbe6e14e4	-0.23250157
63	0xbe48b197	-0.19598995
64	0xbd8f5b84	-0.06999877
65	0xbe29416e	-0.16528866
66	0xbe48ebf8	-0.19621265
67	0xbe3e1ad4	-0.18564922
68	0xbcbef160	-0.023308456
69	0xbeb5bea0	-0.35496998
70	0x3d92ec9c	0.07174036
71	0xbd9a2b8e	-0.07527839
72	0xbe4cf4e1	-0.20015289
73	0xbec33c2a	-0.3813184
74	0xbe8e559a	-0.27799684
75	0xbc8058f4	-0.015667416
76	0xbe30cd11	-0.17265727
77	0xbe9d541f	-0.30728242
78	0x3c9b6a20	0.018971503
79	0xbd1d7a24	-0.03844656
80	0x3fcf47de	1.6193807
81	0x4038128d	2.8761322
82	0x3f9d66e3	1.2297024
83	0xc08cf0b3	-4.404382
84	0xbec3ef31	-0.38268426
85	0x401472c2	2.3195043
86	0x3fdb653e	1.7140272
87	0x3fcbbe41	1.5917436
88	0x3db8f7ee	0.09031664
89	0x3c3e4bf5	0.011614789
90	0x3f2e2cbc	0.6803701
91	0x3df5ac73	0.11995783
92	0xbf95651a	-1.1671479
93	0x3ed0d994	0.40791
94	0x3f869f82	1.0517428
95	0x3f0e91ec	0.5569141
96	0x3f8a36f9	1.0798026
97	0x3e506143	0.20349602
98	0x3d6dd798	0.058066934
99	0x4091fdf6	4.562251
100	0x3f922734	1.1418214
101	0x3e9fe6df	0.31230828
102	0xc0925910	-4.573372
103	0x3eccbe9c	0.39989173
104	0x3f6ec794	0.9327328
105	0x3d864535	0.06556169
106	0x3f19cd47	0.60078853
107	0x3fdbd7b1	1.7175199
108	0xbd7438dd	-0.05962454
109	0xbdbff700	-0.093732834
110	0x3f8c3442	1.0953448
111	0x3fbbcc50	1.4671726
112	0x405119bd	3.267196
113	0x3f0d8931	0.5528746
114	0x3e8e828a	0.27833968
115	0x400730f5	2.112363
116	0xc021ee29	-2.5301611
117	0x3e0476c0	0.12935925
118	0x3f1de095	0.6167081
119	0x3f1f3be7	0.6220078
120	0x3d36735a	0.0445436
121	0x4016a611	2.353886
122	0x3fd00a5b	1.625316
123	0x3fc39a12	1.5281394
124	0x3e15f6d0	0.14644933
125	0xbdd6d504	-0.10489848
126	0x3ecfac81	0.40561298
127	0x3e991b41	0.29903606
128	0xbdbf0edf	-0.09329008
129	0x400186ea	2.0238595
130	0x3e159f89	0.14611639
131	0x3f005b89	0.5013967
132	0xbd52b209	-0.05143932
133	0xbca97cc7	-0.020689381
134	0x404a3870	3.1596947
135	0x3f023c4f	0.50873274
136	0x3fa29412	1.2701437
137	0x3fd74693	1.6818413
138	0x3e6159a9	0.22006859
139	0x3d9a5389	0.07535464
140	0x3f0681c6	0.5254177
141	0x3f4847b4	0.7823441
142	0x3fc04300	1.5020447
143	0x3d4383eb	0.04773323
144	0x3f2f3f5f	0.6845607
145	0xc07f5e59	-3.9901335
146	0x3fa178f9	1.2615043
147	0x3ed9a393	0.4250761
148	0x3e8b241f	0.27175996
149	0x3ef9da17	0.48799202
150	0x3fe28a6e	1.7698495
151	0x3daa1554	0.08304849
152	0x3d91ae94	0.07113376
153	0x3e11033b	0.14161389
154	0x3f0139c3	0.5047876
155	0x3fce5895	1.6120783
156	0x3e145430	0.1448524
157	0x3e12ea3e	0.14347169
158	0x401f2106	2.4863906
159	0x4035fb2f	2.843456
160	0xbd1f2f6b	-0.03886358
161	0x3da0552c	0.07828745
162	0x3ca3877c	0.019962065
163	0xbddbf469	-0.10739977
164	0xbd8828ac	-0.066483825
165	0xbdd494d2	-0.10379948
166	0xbdcf3005	-0.10116581
167	0xbdc315aa	-0.095256165
168	0xbd4665b8	-0.04843685
169	0xbca6f198	-0.020378873
170	0xbd7159dd	-0.05892359
171	0xbd9a1635	-0.07523767
172	0x3cb973f5	0.0226383
173	0xbd1c910f	-0.038224276
174	0x3d1b9def	0.037992414
175	0x3c44a2ba	0.012001688
176	0xbc546c37	-0.012965254
177	0xbc958cdd	-0.018255645
178	0x3cc0ce30	0.023535818
179	0xbc6fe908	-0.014642961
180	0xbde4a9ff	-0.11165237
181	0xbe263935	-0.1623276
182	0xbd0ea241	-0.034822706
183	0xbddce780	-0.107863426
184	0xbd24c15a	-0.040223457
185	0xbc2aa3d9	-0.010415041
186	0x3d1e045e	0.038578384
187	0xbd0d2517	-0.0344592
188	0x3d9c96d8	0.07645959
189	0xbd761693	-0.060080122
190	0x3cce3f2b	0.025176605
191	0xbd8899a4	-0.066699296
192	0xbe026e09	-0.12737288
193	0x3b8f39fb	0.0043709255
194	0xbe336475	-0.1751879
195	0x39dda0c8	0.00042272196
196	0xbcb3ea67	-0.021962358
197	0xbc9ad748	-0.018901482
198	0xbd9e4702	-0.077283874
199	0xbcd9487d	-0.026523823
200	0xbc4d370e	-0.012525333
201	0xbe15d640	-0.14632511
202	0x3da408ca	0.08009489
203	0xbdd18496	-0.10230367
204	0xbe1ba8e0	-0.1520114
205	0xbc2f3cc8	-0.010695644
206	0xbdacd4bf	-0.084390156
207	0xbd653b92	-0.055965014
208	0x3ca36105	0.019943723
209	0xbdb99dbd	-0.09063289
210	0xbd5f0076	-0.0544438
211	0xbdafec10	-0.08589947
212	0xbdff28e5	-0.12458972
213	0xbe32ff36	-0.17480168
214	0xbd93cceb	-0.072168194
215	0xbc8837e7	-0.016628219
216	0x3cdadbea	0.026716191
217	0x3c8955ed	0.016764605
218	0xbdde60db	-0.108583175
219	0xbe022044	-0.12707621
220	0xbe0784e3	-0.13234286
221	0xbd58c04f	-0.052917775
222	0xbd642613	-0.055700373
223	0xbe326d6f	-0.17424558
224	0xbded4300	-0.11585045
225	0xbe0683df	-0.13136242
226	0xbd6acd33	-0.0573246
227	0xbd80bd3c	-0.062860936
228	0xbe00081a	-0.1250309
229	0xbdf920e4	-0.121644765
230	0xbde04fcc	-0.1095272
231	0xbdb7094e	-0.089373216
232	0xbe060894	-0.1308921
233	0xbc0f41ff	-0.008743762
234	0xbe31dcad	-0.17369337
235	0x3dda0464	0.10645369
236	0xbd24923c	-0.040178522
237	0xbda5a364	-0.08087805
238	0x3c7abc06	0.015303617
239	0x3cf09c31	0.029371353
240	0xbdfe5af5	-0.124196924
241	0xbdc58a33	-0.096455
242	0xbe2668b7	-0.16250883
243	0xbd801cfd	-0.06255529
244	0x3c69c774	0.014268745
245	0xbd25d0c1	-0.040482286
246	0xbdde9ebb	-0.10870119
247	0x3cec5641	0.028849723
248	0xbb6b7fe2	-0.0035934378
249	0x3d5d9b08	0.054102927
250	0xbd734699	-0.0593935
251	0xbe10e8bb	-0.1415128
252	0x3c9d01fa	0.019165982
253	0xbdd7081e	-0.10499595
254	0xbbf3118d	-0.0074178637
255	0xbde1135e	-0.10990022

hidden2.bias f4 [40]
0	0xbeb4806c	-0.35254228
1	0x40164866	2.3481688
2	0xbd1e66a6	-0.038672112
3	0xbda73ac9	-0.08165509
4	0xbee8371d	-0.45354548
5	0x401564d9	2.3342803
6	0x40199c1b	2.400153
7	0xbd3f94e2	-0.046772845
8	0xbebcdc41	-0.3688679
9	0xbd3d8032	-0.046264835
10	0x402331b3	2.5499084
11	0x4017da97	2.3727167
12	0x401801fd	2.3751214
13	0xbd018530	-0.031621158
14	0xbe0080d5	-0.12549146
15	0x40148f8f	2.3212621
16	0xbcbcaa23	-0.023030346
17	0xbd808d00	-0.062768936
18	0xbed10297	-0.40822288
19	0xbe040838	-0.1289376
20	0x400d54b0	2.208294
21	0x401f036d	2.484584
22	0x401f7d93	2.4920394
23	0xbe232daa	-0.15935388
24	0xbde1e80e	-0.11030589
25	0x40190e84	2.391511
26	0x40146b35	2.3190434
27	0xbf0ab818	-0.54187155
28	0x401be610	2.435917
29	0x401bf1f1	2.436642
30	0x4020831a	2.5080018
31	0xbe116f26	-0.14202556
32	0x3b8105b5	0.003937448
33	0x4006a833	2.104016
34	0xbda74f19	-0.081693836
35	0xbe26dd40	-0.16295338
36	0x40191cd1	2.3923838
37	0x3ce7e97a	0.028309572
38	0xbe0016b8	-0.12508667
39	0xbe2e895a	-0.17044583

hidden3.weight f4 [20, 40]
0	0xbe04aca3	-0.1295648
1	0xbdb70988	-0.08937365
2	0xbd84270b	-0.06452759
3	0x3db98a16	0.09059541
4	0xbe184b09	-0.14872374
5	0xbe0f182e	-0.13974068
6	0x3dcf0c26	0.10109739
7	0xbd8941fc	-0.06702039
8	0xbe0b3330	-0.13593745
9	0x3d754d44	0.05988814
10	0xbe167522	-0.1469312
11	0xbe05ca9c	-0.1306557
12	0x3d4944e4	0.049137965
13	0x3d2abcd4	0.041683987
14	0xbe0c9961	-0.13730384
15	0xbe0b4e22	-0.13604024
16	0x3ded37e2	0.115829244
17	0x3c143370	0.009045467
18	0xbdf8fe89	-0.12157924
19	0x3e0dd19d	0.13849492
20	0x3dab4ece	0.0836464
21	0xbd7bb1fa	-0.06144903
22	0x3d9ee7ba	0.07759042
23	0x3d41b1bc	0.04728864
24	0x3d4940a4	0.04913391
25	0xbdc8a976	-0.09797947
26	0xbe0cc6d5	-0.13747723
27	0x3d4f0984	0.050546184
28	0x3cb934d8	0.022608206
29	0x3e04a997	0.12955318
30	0xbe146c0c	-0.14494342
31	0x3dc1ee8a	0.09469326
32	0xbe185bbf	-0.14878748
33	0xbe01194f	-0.1260731
34	0xbdb3ed25	-0.08785466
35	0x3d7d8ef8	0.061903924
36	0x3c250550	0.010072067
37	0xbd9d7f38	-0.07690281
38	0x3d64bba8	0.055843025
39	0x3b8a3080	0.0042172074
40	0xbd3aeca8	-0.04563585
41	0xbcc78a81	-0.024358036
42	0xbc727700	-0.01479888
43	0xbb2f6e89	-0.0026768765
44	0xbe065748	-0.13119233
45	0x3d95ab96	0.07308118
46	0xbe3dfa98	-0.18552625
47	0xbe163eca	-0.1467239
48	0x3d784c08	0.060619384
49	0xbd59f070	-0.053207815
50	0x3d5b1350	0.053485215
51	0x3dbe95d6	0.09305923
52	0x3b576793	0.0032868132
53	0xbd9d2a82	-0.07674123
54	0xbc2b3710	-0.01045014
55	0x3db74f96	0.08950727
56	0x3decab52	0.11556114
57	0x3d686b84	0.05674316
58	0x3d38b770	0.045096815
59	0xbda70284	-0.08154777
60	0x3d4750b2	0.04866094
61	0x3d5b65f8	0.05356404
62	0xbe57336f	-0.21015714
63	0xbcac1198	-0.021004483
64	0x3e104203	0.14087681
65	0x3c01b793	0.007917303
66	0xbe50ef45	-0.20403774
67	0xbcffddc0	-0.031233668
68	0x3d6b499e	0.057443254
69	0x3d2f5f8c	0.04281573
70	0xbe2fb535	-0.17158969
71	0x3da4cbac	0.0804666
72	0x3d833602	0.064067855
73	0x3e1cf9c7	0.15329657
74	0xbd2bb89e	-0.04192411
75	0x3d5d12ec	0.053973123
76	0xbd7d38b4	-0.061821654
77	0x3c97ccc2	0.018530253
78	0x3e0992f3	0.13434963
79	0xbd82bb19	-0.06383342
80	0x3ce270c8	0.027641669
81	0x3daf1fa8	0.0855096
82	0xbd641862	-0.055687316
83	0xbcfafbb8	-0.030637607
84	0x3dbd32fe	0.092382416
85	0xbc980600	-0.018557549
86	0xbe0c48fb	-0.13699715
87	0x3d9a0222	0.07519938
88	0x3d3789dc	0.044809207
89	0xbdc0afc7	-0.09408527
90	0xbdd70360	-0.104986906
91	0xbb750ec0	-0.0037392825
92	0xbdab154c	-0.083536714
93	0x3c7cabc0	0.015421808
94	0x3cb45188	0.022011533
95	0x3dea718e	0.1144744
96	0x3da32540	0.07966089
97	0x3dd5bb2e	0.10436092
98	0xbcc549f8	-0.024083123
99	0xbe03531c	-0.12824672
100	0xbdf37762	-0.11888005
101	0x3d424f38	0.04743883
102	0xbe13ecde	-0.14445826
103	0xbde76c37	-0.11299937
104	0xbc2a6f20	-0.010402471
105	0xbddf9e30	-0.10918844
106	0x3d1880f4	0.037232354
107	0x3d0539b8	0.032525748
108	0x3ccb7910	0.024838
109	0xbdf37432	-0.11887397
110	0x3e0d479f	0.13796853
111	0x3dc25d86	0.094904944
112	0xbd5ef3bc	-0.054431662
113	0xbddba2a2	-0.10724379
114	0x3dcc1cd2	0.099664345
115	0xbd9a9ca1	-0.07549406
116	0x3c318420	0.010834724
117	0x3da7652e	0.08173595
118	0x3d8f79b0	0.07005632
119	0xbb4deac0	-0.003142044
120	0x3dce1dd6	0.100642845
121	0xbe10a20d	-0.14124317
122	0x3cce7df9	0.025206553
123	0xbe4d73fe	-0.20063779
124	0xbdd159db	-0.10222217
125	0x3da0f48c	0.078591436
126	0xbd0f4bec	-0.034984514
127	0xbdc1767e	-0.09446429
128	0x3e19d065	0.15020902
129	0x3cbd5a68	0.023114398
130	0xbd9e7977	-0.07738011
131	0xbe627241	-0.22113897
132	0x3db149f1	0.08656681
133	0xbd7ccb47	-0.061717298
134	0xbe0bb8c8	-0.13644707
135	0xbde5fd4d	-0.11229954
136	0xbc16d2ce	-0.009205533
137	0xbe15956b	-0.1460778
138	0xbe47bc1a	-0.19505349
139	0xbe43d70b	-0.19125001
140	0x3d8b3350	0.067968965
141	0xbe04d90d	-0.12973423
142	0xbe3cf04f	-0.18451045
143	0x3d752104	0.05984594
144	0xbd62af3a	-0.05534289
145	0xbce82e5a	-0.028342415
146	0xbd9dde47	-0.07708412
147	0x3abf8200	0.0014610887
148	0xbe0d6473	-0.1380785
149	0xbe0a8c14	-0.13529998
150	0xbdfb3bfe	-0.12267302
151	0xbd90bac9	-0.070668764
152	0x3d2d7cf7	0.042355504
153	0x3d4a5f3c	0.04940723
154	0x3d025399	0.031818006
155	0x3c2e8d60	0.010653824
156	0xbe163e26	-0.14672145
157	0xbd8a6bd5	-0.067588486
158	0xbd150de9	-0.03639022
159	0xbc3c03a8	-0.011475481
160	0xbece30dd	-0.40271655
161	0x3f7cbc1e	0.98724544
162	0xbc8acfbb	-0.016944757
163	0x3e0f3572	0.13985232
164	0x3e4dd032	0.20098951
165	0x3f83bb02	1.0291445
166	0x3f8d7259	1.1050521
167	0xbceeab95	-0.029134551
168	0xbea6ca97	-0.3257644
169	0xbd3f0794	-0.046638086
170	0x3f83cfba	1.0297768
171	0x3f8bf6d4	1.0934701
172	0x3f679923	0.90468043
173	0x3de472ea	0.111547306
174	0xbd7e7563	-0.062123667
175	0x3f86e091	1.0537282
176	0xbdbbef59	-0.09176511
177	0xbcfec716	-0.031100791
178	0xbe5943f7	-0.21217333
179	0x3db629a2	0.088946596
180	0x3f2a6edd	0.66575414
181	0x3f85f56c	1.0465522
182	0x3f816be8	1.0111055
183	0x3d999f0f	0.07501041
184	0xbb46c943	-0.0030332364
185	0x3f54bd7a	0.8310162
186	0x3f4cb533	0.7996399
187	0x3de2ac8c	0.11068067
188	0x3f677f96	0.90429056
189	0x3f88f4c4	1.0699697
190	0x3f85df50	1.0458775
191	0xbd5907fa	-0.052986123
192	0xbcb4cc6c	-0.022070132
193	0xc10c6466	-8.774511
194	0x3e369f13	0.1783412
195	0xbd4bacbc	-0.04972528
196	0x3f87ce0d	1.0609757
197	0xbc139f2a	-0.009010116
198	0xbd0e2363	-0.034701716
199	0x3dab6628	0.08369094
200	0xbea11ef2	-0.31468922
201	0x3f8faca0	1.1224556
202	0xbcd3d800	-0.025859833
203	0x3d8b45b6	0.06800406
204	0x3e522afa	0.20524207
205	0x3f857dc9	1.0429012
206	0x3f8121dc	1.0088458
207	0x3b9f5318	0.0048622005
208	0xbeb0760c	-0.34465063
209	0x3bd0aac0	0.0063680112
210	0x3f8c40e3	1.0957302
211	0x3f550559	0.83211285
212	0x3f91c35f	1.1387748
213	0x3e502191	0.20325305
214	0x3e2c1e91	0.16808535
215	0x3f8a4f93	1.0805534
216	0x3c56bea4	0.013106976
217	0xbd8e41d8	-0.069461524
218	0xbea1b29c	-0.3158158
219	0x3c9aa54d	0.01887765
220	0x3f467602	0.77523816
221	0x3f879274	1.0591569
222	0x3f8785bb	1.0587686
223	0x3ce58f60	0.028022468
224	0x3e34dd64	0.17662579
225	0x3f880b65	1.0628477
226	0x3f8937b8	1.0720129
227	0x3e9b603b	0.30346856
228	0x3f936420	1.1514931
229	0x3f8f2c1e	1.1185338
230	0x3f760d39	0.96113926
231	0xbb99a666	-0.0046890257
232	0x3e044a77	0.12919031
233	0xc10d16dc	-8.818081
234	0xbd3713e8	-0.04469672
235	0x3e3ea911	0.18619181
236	0x3f754ab3	0.95817107
237	0x3c8081ea	0.015686948
238	0xba112783	-0.0005537199
239	0xbc0aee21	-0.008479626
240	0xbd5e8a18	-0.054330915
241	0xbd2f1881	-0.042747978
242	0x3dbddfd3	0.09271207
243	0x3d9fa26d	0.07794652
244	0x3e5b12f4	0.21393949
245	0xbdb296ae	-0.08720146
246	0xbaacb443	-0.0013176281
247	0x3e415572	0.18880251
248	0x3c9a2fa8	0.018821552
249	0xbdd3337f	-0.103125565
250	0xbdc95073	-0.098297976
251	0xbd87b770	-0.06626785
252	0xbdb52c86	-0.08846383
253	0x3d7d438c	0.061831996
254	0x3e029ca3	0.12755065
255	0xbd0775de	-0.03307139

hidden3.bias f4 [20]
0	0xbdaf0eda	-0.085477546
1	0xbe459867	-0.19296418
2	0xbd3d100a	-0.046157874
3	0x3d22067e	0.039556973
4	0x404f7d80	3.242035
5	0x404eebf7	3.2331522
6	0xbe540007	-0.20703135
7	0x3ac1268c	0.0014736219
8	0xbcfa1830	-0.030529112
9	0x3c2a30df	0.010387628
10	0x3c8e43a0	0.01736623
11	0xbdb63e1f	-0.088985674
12	0xbe359f47	-0.1773654
13	0xbdf8f629	-0.12156326
14	0x4042277a	3.0336595
15	0x40400518	3.000311
16	0x40446668	3.0687504
17	0x4044c09c	3.074256
18	0x40412b75	3.0182774
19	0xbe6ac308	-0.22925961

hidden4.weight f4 [10, 20]
0	0x3d96e4b4	0.073678404
1	0xbdc269da	-0.09492846
2	0xbdeeab70	-0.11653793
3	0x3e52c192	0.20581654
4	0xbd7e81d8	-0.062135547
5	0x3ca24140	0.019806504
6	0xbdacc912	-0.084367886
7	0xbd1526e0	-0.036414027
8	0x3db53a4c	0.0884901
9	0x3dedf384	0.116187125
10	0x3d1fa798	0.03897819
11	0x3d3b93c8	0.045795232
12	0x3e2d7732	0.1694
13	0xbe395709	-0.18099608
14	0xbbe12140	-0.006870419
15	0xbe423ec7	-0.1896926
16	0xbe41e1c5	-0.1893378
17	0xbe5ce923	-0.2157331
18	0x3e465eea	0.19372144
19	0x3dfb1ba4	0.122611314
20	0x3dee44bc	0.11634204
21	0xbe206c6c	-0.1566636
22	0xbd246918	-0.040139288
23	0x3e31ff92	0.17382649
24	0x3c5b7c80	0.013396382
25	0xbe14c158	-0.1452688
26	0xbc0b00e0	-0.008484095
27	0x3e2cc13a	0.16870585
28	0x3c6c1840	0.0144100785
29	0xbdff04e9	-0.124521084
30	0x3db2b3b4	0.08725682
31	0xbe1f91d1	-0.15582968
32	0xbe0f3b4b	-0.13987462
33	0x3e1769c6	0.14786443
34	0xbdb19cee	-0.0867251
35	0xbd077da8	-0.03307882
36	0xbe08af8e	-0.13348219
37	0x3cf8a570	0.030352324
38	0x3e1fb356	0.15595755
39	0xbdb903e4	-0.09033945
40	0xbd98acf2	-0.07454862
41	0xbd7b9c24	-0.061428204
42	0x3d9661b8	0.07342857
43	0xbcbb6c28	-0.022878721
44	0x3f6e561b	0.93100137
45	0x3f800ac9	1.0003291
46	0x3c3040f9	0.010757678
47	0xbe624a73	-0.22098713
48	0xbd98a36a	-0.07453044
49	0x3e31ac6a	0.17350927
50	0xbe4004ee	-0.1875188
51	0xbc8646f8	-0.016391262
52	0x3db98c9c	0.09060022
53	0xbe25dca8	-0.16197455
54	0x3f958c39	1.1683418
55	0x3f6bb0f7	0.920669
56	0x3f8dd2cb	1.1079954
57	0x3f8c0ada	1.0940812
58	0x3f986497	1.1905698
59	0x3e46431c	0.19361538
60	0x3e48f6e0	0.19625425
61	0xbde107fa	-0.109878495
62	0xbe3f3d85	-0.18675812
63	0x3dcc10c3	0.099641345
64	0x3f6e25c9	0.93026406
65	0x3f960e40	1.1723099
66	0xbd1a59a8	-0.03768316
67	0xbde8525c	-0.11343834
68	0x3ca49557	0.020090742
69	0xbdb8fd86	-0.09032731
70	0x3e174418	0.1477207
71	0x3db64269	0.088993855
72	0x3e39f594	0.18160087
73	0x3e3565fb	0.17714684
74	0x3f565821	0.83728224
75	0x3f63e205	0.89016753
76	0x3f441a2e	0.7660245
77	0x3f94f0a5	1.1635939
78	0x3f4215a2	0.7581426
79	0x3c17d2c9	0.009266564
80	0x3e5237b6	0.20529065
81	0x3dfc035c	0.12305328
82	0x3e342de8	0.17595637
83	0xbe5fd000	-0.2185669
84	0xbe309e60	-0.17247915
85	0xbe5b10cb	-0.21393125
86	0x3e56d3ac	0.20979184
87	0x3c555100	0.0130198
88	0xbd5fc458	-0.054630607
89	0x3e1215d8	0.14266145
90	0xbe48fe96	-0.19628367
91	0x3dc9eaf0	0.09859264
92	0x3dbf0c90	0.09328568
93	0xbdec230d	-0.11530123
94	0xbd858196	-0.06518857
95	0x3e2c4df2	0.16826609
96	0x3d15a5f8	0.036535233
97	0x3dc5dd80	0.096613884
98	0xbe550be4	-0.20805317
99	0xbe3e238a	-0.18568245
100	0x3dae09e8	0.08497983
101	0xbe1f0cf6	-0.15532288
102	0x3e199d16	0.1500133
103	0xbc550720	-0.013002187
104	0x3f65f544	0.8982737
105	0x3f2397df	0.6390361
106	0x3c969bc0	0.018384814
107	0x3e34206e	0.17590496
108	0xbd40d7e8	-0.047080904
109	0x3da84590	0.08216393
110	0x3e375d56	0.17906699
111	0xbdd1eefc	-0.10250661
112	0xbe193298	-0.14960706
113	0x3e71e3b1	0.23622014
114	0x3f41f031	0.7575713
115	0x3f6b321a	0.91873324
116	0x3f6663fb	0.8999631
117	0x3f8295df	1.0201987
118	0x3f4b4854	0.7940724
119	0xbdfc80b3	-0.12329235
120	0x3d83cbac	0.06435332
121	0x3df8eb84	0.12154296
122	0x3c5aab60	0.013346523
123	0xbe042589	-0.12904944
124	0xbca9ad40	-0.020712495
125	0xbda6ad0e	-0.08138476
126	0x3dca6d18	0.09884089
127	0x3cf4d5e0	0.02988714
128	0x3e5c182e	0.21493599
129	0xbd973f60	-0.07385135
130	0xbdb6ca40	-0.08925295
131	0xbcb93f78	-0.022613272
132	0xbe389040	-0.18023777
133	0x3dc133e0	0.094337225
134	0x3e3162ba	0.17322817
135	0x3cfdec90	0.03099659
136	0x3cd3ee18	0.025870368
137	0xbdfb9fe4	-0.12286356
138	0xbe2dcee0	-0.16973448
139	0x3e555638	0.20833671
140	0xbd827cd4	-0.06371465
141	0x3e5fd528	0.21858656
142	0xbdac0a56	-0.08400409
143	0xbe0fd3f6	-0.140457
144	0xbde359ea	-0.11101134
145	0xbe29bd08	-0.16576016
146	0x3ae2f500	0.0017315447
147	0x3e44228e	0.19153807
148	0x3e40ec4c	0.1884014
149	0x3e1a619e	0.150763
150	0xbe2448c7	-0.16043387
151	0xbc2f9550	-0.010716751
152	0xbe06920d	-0.13141651
153	0xbe50cb67	-0.20390092
154	0x3d42aae0	0.04752624
155	0x3dbe94f4	0.09305754
156	0x3e3f2f54	0.18670398
157	0xbd334088	-0.043762714
158	0xbe1bfb4a	-0.15232578
159	0x3d3a71f8	0.045518845
160	0xbce66178	-0.028122649
161	0x3ddfae9c	0.10921976
162	0xbe0647a2	-0.13113263
163	0xbd668b3f	-0.05628514
164	0xbe857972	-0.26069218
165	0xbe4f67ba	-0.20254412
166	0xbe642c75	-0.22282584
167	0x3de72e74	0.11288157
168	0x3e1d2db2	0.15349463
169	0xbd5de352	-0.054171868
170	0x3e120082	0.14258006
171	0xbc324b3b	-0.010882194
172	0x3e457b50	0.19285321
173	0xbe264cf2	-0.1624029
174	0x3e43a46e	0.19105694
175	0x3d6ad25e	0.057329528
176	0xbd965896	-0.07341115
177	0x3e500994	0.20316154
178	0xbdca18a0	-0.09867978
179	0xbdb8fc7e	-0.09032534
180	0xbe5ec5ad	-0.21755095
181	0xbdfafc0e	-0.12255107
182	0xbdd96d56	-0.10616557
183	0xbc54cc1e	-0.012988118
184	0x3fa04e77	1.2523946
185	0x3facc0bc	1.3496318
186	0x3d74ed5f	0.059796687
187	0xbc804428	-0.0156575
188	0x3e5d8b5a	0.2163519
189	0x3d4d5f70	0.050139844
190	0xbce998f8	-0.028515324
191	0xbd92b772	-0.07163896
192	0xbcb33322	-0.021874968
193	0xbe0783b4	-0.13233835
194	0x3fa5840b	1.2930921
195	0x3f86d201	1.0532838
196	0x3f91b3c6	1.1382987
197	0x3f999aec	1.2000403
198	0x3f943ac7	1.1580437
199	0x3b8712ee	0.0041221296

hidden4.bias f4 [10]
0	0xbe467fc8	-0.19384682
1	0xbe0a37e0	-0.13497877
2	0x406b3adb	3.6754673
3	0x4077bf46	3.8710494
4	0xbe49335f	-0.19648503
5	0x405ec632	3.480847
6	0xbe34168b	-0.17586724
7	0xbcaed220	-0.02134043
8	0x3cdb11bc	0.026741855
9	0x4076166e	3.845119

regression.weight f4 [1, 10]
0	0xbe795575	-0.24349006
1	0x3e77de12	0.24205807
2	0x3f8d0629	1.1017505
3	0x3f73b228	0.9519372
4	0xbddeb764	-0.10874823
5	0x3f58391c	0.8446214
6	0xbe0cc942	-0.13748649
7	0x3de85b88	0.11345583
8	0x3d07571f	0.03304207
9	0x3faa345d	1.329723
