models/model246.pkl (torch, 23622 bytes, 9 tensors)

hidden1.weight f4 [80, 8]
00000000: 8c9f 0d3e eb73 8340 3ce4 ab3d 64bc 1dbe
00000010: 61ee c83f 8d11 253e 8f58 3e3d 2f40 cb3d
00000020: 7c29 a4be ad3d 6540 6363 20bf afd0 703e
00000030: bc72 2240 a612 b4be 471c d6bd f28d e73e
00000040: a9a5 5140 4c1e 9ebf fe0f 35bf 02ce 93bf
00000050: 69d7 d73f 6418 893f 677b 293f 1dca ccbe
00000060: 771d 0e40 1495 70c0 53cb 40be 8f49 c0bf
00000070: 199d 2640 2cf3 bd3e 60ff b63d a3c4 21c0
00000080: 2eba 1b40 0911 313e 6997 983f aa17 18c0
00000090: 8933 f33e 670d d0bd 36c4 fabf ba18 14c0
000000a0: 8df7 163f fc94 5140 c528 e4bd adaa 923c
000000b0: 5c4d 1740 f394 373f c42d bdbc ee7a 62bf
000000c0: 3dd1 a73d 3412 6840 3667 313d 117f 9cbd
000000d0: 96cb e13f 0961 be3d 2615 5e3e 36a3 ae3d
000000e0: 47f3 2c40 c3cc a6bf 23df 1840 341a 18bf
000000f0: 954d 2040 e4be afbf 4dd4 e2bf 64cc dfbf
00000100: d150 0b40 1e7f b2bf df65 0bbe fdd7 a7be
00000110: 02a0 aa3f 4edd bcbd 82eb 1b3e 59cb afbe
00000120: 7e7b c43e fe8a 5b3e 622e 163f efaf 71bd
00000130: 0c0a a53e d2a3 44bf 17aa b3be 48a0 84bf
00000140: 1213 bc3f b311 12bf 7e23 af3f fd58 923d
00000150: 7a99 1140 04cf 1dbf db01 ddbe 3f9a b33e
00000160: bf0b c23f 491b afbf c46d bb3f 9373 19c0
00000170: d76c e83e e879 21c0 b080 e3bf 2dbd eebf
00000180: 4e06 a5bf 3f9b 5240 d5dc 2d40 a4e0 b5bd
00000190: f376 9dbe 3abc 1abf 516d 3cbe 71b0 24bf
000001a0: aadb 5e3f a708 b0be 57cb 9a3f 1343 a63d
000001b0: 184f 0340 06df 16bf 6e69 28bf f324 063e
000001c0: e6e6 5240 b145 5cbf cfc1 32be 3204 533e
000001d0: 2b6f 0840 c5d2 4cbe 7177 9e3e d753 d53e
000001e0: 0e3d 893f c63d bcbf 6f57 e83f f5cc 09bf
000001f0: 6e9c 0740 24fe 593d ee98 773f baa0 123d
00000200: 1586 4fbd 6955 b7bf e63d 393c 027e a7bf
00000210: 66ec d73f 830d b0bf acec 4a3d 7190 00c0
00000220: 33ed a9bf 0e63 cebf fd4d 703d a7f5 203e
00000230: 8bd4 903f 870b 16be 7ec5 0abf 993e 663c
00000240: bfe8 96be c5de 2fbe 7c84 98be b8c5 79be
00000250: cc9b abbd 88a2 2ebd 573d 2bbe 00a2 64bd
00000260: 6a89 c9be 5d72 7340 b1ac 84be fd50 f9bc
00000270: ed46 1f40 ff53 fc3d fabb 0a3f 9d9e 753f
00000280: ee8a d63b 54e0 8340 e5b5 3d3d 574a 05be
00000290: 2e7e c73f 6d50 303d f22c 45bd 477e 12bd
000002a0: f73c 05be 43b5 99bf fc15 603f ea60 003e
000002b0: b315 9e3f f983 bcbe 5309 afbe 049f 85be
000002c0: acf5 263f 257a b6c0 d836 1240 74eb 9d3e
000002d0: c424 0a40 4f80 1ebf 9c90 91bf c675 52be
000002e0: 6888 593f 612d adbf 6c4f a63f c89d eabe
000002f0: 2c8d d73f 2cba 163d c934 f83e 7cd4 09be
00000300: 2007 a03d 48f2 1f40 903b 293f c48c 1e3f
00000310: 2a71 fa3f d843 2d3f f46f 5fbf 977a 3abf
00000320: c1eb 4e3f d6fe e1bf b97e eb3c adb1 13bf
00000330: cdd1 4b3e 6694 1ebf c793 02bf b4e1 03bf
00000340: 604a 703f 9101 dabe c348 a73f 4631 cd3d
00000350: 0d40 0240 d340 30bf 495d 92be 8929 b23d
00000360: 81bd 6fbd 0bea 5940 9283 a5be 1891 e33d
00000370: 5aa8 0340 df01 2dbe c057 0fbe f1c1 2dbe
00000380: 1f38 66be 8c9e 3bbe a82e 613d 8242 abbe
00000390: 1431 50be 9e5f f8bd f043 8abc 88b6 203d
000003a0: 20b9 54bd 18c4 4dbe f052 f23d 5c40 19be
000003b0: d31c b3be c07a 0dbc 8403 133e a0c4 243c
000003c0: 0fa4 c53d e5d7 7640 4d04 213d b7b4 fcbd
000003d0: 147e c33f e860 d73d c30c 923c 458f 56bc
000003e0: 3236 6d40 cdf0 39bf 1ab0 0dbf bfe9 84bf
000003f0: 4b9a cc3f e436 783f 1d65 f83e bb8f 313f
0.13830394 4.1079 0.083931416 -0.15403897 1.5697747 0.16119976 0.046471175 0.099243514
-0.320629 3.5818894 -0.6265165 0.23517106 2.5382528 -0.35170478 -0.10454612 0.45225483
3.275736 -1.2352996 -0.7072753 -1.1547244 1.6862613 1.0710568 0.6620392 -0.3999795
2.2205484 -3.759099 -0.18827562 -1.5022448 2.6033385 0.37099588 0.08935428 -2.5276268
2.4332385 0.17291655 1.1921207 -2.3764443 0.47500256 -0.10158806 -1.9591129 -2.3140092
0.5897148 3.2747183 -0.11140589 0.01790365 2.3640966 0.71711653 -0.023093112 -0.88468826
0.08194206 3.626111 0.04331132 -0.076414235 1.7640254 0.09295852 0.21687755 0.08527224
2.7023485 -1.3031238 2.3886192 -0.5941498 2.5047352 -1.373013 -1.7721039 -1.748425
2.1768076 -1.3945043 -0.1361308 -0.32781973 1.333008 -0.09221898 0.15226558 -0.3433483
0.38375467 0.2143974 0.58664525 -0.059005674 0.32234228 -0.7681247 -0.35090706 -1.0361414
1.469332 -0.57058257 1.3682706 0.071458794 2.2749925 -0.61644006 -0.43165478 0.35078618
1.5159835 -1.3680202 1.4642873 -2.397679 0.45395538 -2.5230656 -1.7773647 -1.8651482
-1.2892549 3.2907255 2.7166035 -0.088807374 -0.30754814 -0.6044346 -0.18401076 -0.6433173
0.8705393 -0.343816 1.2093304 0.08118262 2.0517025 -0.58934057 -0.6578587 0.13100033
3.295343 -0.8604384 -0.17456745 0.20607069 2.1317852 -0.20002277 0.30950502 0.41665527
1.0721757 -1.4706352 1.8151683 -0.53828365 2.1189227 0.053220883 0.9671773 0.035797812
-0.05066498 -1.432294 0.011306262 -1.308533 1.6869018 -1.3754123 0.049542114 -2.008816
-1.3275512 -1.6123979 0.058668125 0.15718709 1.1314863 -0.14652835 -0.542076 0.01405301
-0.29474446 -0.17174824 -0.29788578 -0.2439183 -0.08379325 -0.04263547 -0.16722618 -0.055818558
-0.3936265 3.8038552 -0.25913003 -0.030434126 2.488704 0.123207085 0.5419308 0.9594515
0.0065473234 4.121134 0.046316046 -0.1301664 1.5585382 0.04304545 -0.048138566 -0.03576496
-0.13011537 -1.2008442 0.87533545 0.1253697 1.2350372 -0.36819437 -0.341868 -0.26097882
0.65218616 -5.70241 2.2845974 0.308437 2.158494 -0.61914533 -1.1372256 -0.2055274
0.84973764 -1.3529474 1.2992988 -0.45823503 1.6839957 0.03679864 0.48477772 -0.13459963
0.07813859 2.4991627 0.6610651 0.6193354 1.9565785 0.67681646 -0.872802 -0.7284331
0.8082848 -1.7655895 0.02874695 -0.57692987 0.19904251 -0.6194519 -0.5100674 -0.5151627
0.9386349 -0.4257932 1.306908 0.10019164 2.0351593 -0.68848914 -0.28586796 0.086993285
-0.058530334 3.4049098 -0.32326943 0.11111659 2.0571504 -0.16895245 -0.13998318 -0.16968514
-0.22482346 -0.183222 0.054976135 -0.3344918 -0.20331222 -0.121276125 -0.016878098 0.039236575
-0.05193436 -0.20094335 0.11832225 -0.14965957 -0.3498293 -0.008635223 0.1435681 0.010056645
0.09650432 3.8569272 0.039310742 -0.12339156 1.5272851 0.1051653 0.01782835 -0.013095682
3.7064328 -0.7263306 -0.55346835 -1.0383834 1.5984586 0.96958756 0.48514643 0.6935994

hidden1.bias f4 [80]
00000000: 8fa0 42c0 6dc1 49c0 cf42 7abf f043 9bbf
00000010: ac2b bfbf 0433 29c0 77ac 47c0 1802 4e3e
00000020: 5bfc 97bf bbd7 a9bf 59d2 6d3f 6829 da3e
00000030: ea2c 02c0 ba7a 4e3f eaf3 97bf d734 5d3f
00000040: d686 b73f 051a 003f f893 80be 9835 63c0
00000050: 3f54 3cc0 e8e6 373f a82c 323f 6cce 523f
00000060: f6d3 00c0 e988 0abe 66d5 643f d0be 3fc0
00000070: 006d 5bbd 33e4 86be 72ab 37c0 8a49 b6bf
00000080: 2a3f 38c0 39e6 743f 49c5 21c0 95ee 2bc0
00000090: c2c1 4bbf e711 f3bf c734 33c0 5be2 34c0
000000a0: 46ef 233f c410 55c0 6535 48c0 c1b4 c9bf
000000b0: cc1b 903e 6144 7bbe 9d75 a13e 22f5 13bf
000000c0: a7ac 33c0 82a8 35c0 e6af 90be fa6e 463f
000000d0: 953c abbe 98fc 07be 946e 8fbf e104 4d3e
000000e0: 8326 edbd 0d3e 3dc0 655a 873e 394f a43e
000000f0: b391 d03e 9d7e d7bf 4bf1 bebe 7af2 103f
00000100: c9d1 14bf 1bbc abbf efe2 03be 742c 3b3f
00000110: 4adc 39c0 0196 803e 5b81 06c0 15c7 9fbe
00000120: e5e8 1f3f 828f bdbe 02e0 f6bd 9bf1 3dc0
00000130: 5283 9dbe 116b 1d3f 4908 4ec0 2e7d 42c0
-3.0410497 -3.1524308 -0.9775819 -1.2130108 -1.4935203 -2.6437387 -3.1199014 0.20117986
-1.1873888 -1.3268961 0.9289909 0.42609715 -2.0339913 0.80656016 -1.1871312 0.8640875
1.4338024 0.500397 -0.2511289 -3.550146 -2.942642 0.7183671 0.6959939 0.82346225
-2.012937 -0.1352879 0.8938812 -2.9960213 -0.053570747 -0.26345977 -2.8698392 -1.4241192
-2.8788552 0.9566379 -2.5276663 -2.686437 -0.79592526 -1.8989838 -2.8000963 -2.8263156
0.6403698 -3.3291483 -3.128259 -1.5758287 0.28146207 -0.24537803 0.31535044 -0.5779592
-2.8074129 -2.83841 -0.282592 0.77513087 -0.33444658 -0.1327995 -1.1205621 0.20021392
-0.11579611 -2.9569123 0.26436153 0.32091692 0.4073616 -1.6835514 -0.37293467 0.5661999
-0.58132607 -1.341678 -0.12879537 0.73114705 -2.9040704 0.25114444 -2.1016452 -0.31206575
0.62464744 -0.3702355 -0.12054445 -2.9678714 -0.30764252 0.61491495 -3.2192557 -3.0388904

hidden2.weight f4 [40, 80]
00000000: 1086 f73c 969f 853d 5662 3bbd aaf8 b6be
00000010: be29 a3be 0000 b6b7 905c 50bc 1b79 9dbe
00000020: eebf bdbe aa06 87be 5a32 76be 803d 63be
00000030: 7dc9 c5be 9a44 77be 75c7 91bd 75a3 b6be
00000040: eee4 bcbe d1e7 b6be 38ae db3c 4816 4cbc
00000050: f41e bebd d703 a4be 835b 45be c143 84be
00000060: 5b73 91be 9ab6 a2be 008d 91be 082c 673d
00000070: a45e acbd 18c8 34bd 1edd 65bd 910e a8be
00000080: 6079 653c 468a 9fbe 4e74 c7bd 7c25 aabe
00000090: e851 edbc 1c61 3d3d 78bc 72bd 0144 b4bd
000000a0: fb9e b4be 203d 83bb 8090 69bb 5e17 d93d
000000b0: 3da6 93be 46e3 c53d e85b 7fbe 543c aabe
000000c0: fbf9 dfbd 9466 9a3d b8cb 203d ed70 4dbe
000000d0: 00e8 8ebe 5838 8ebe e2d9 8dbd 53d2 41be
000000e0: d00d b9bb 8656 47bd fbbd 6dbd 7807 58be
000000f0: 76ca 4ebe 7301 a5be e414 6ebe 97b1 48be
00000100: 845b 8fbd 6e41 29be f8eb 48be d41a 3ebe
00000110: 60f1 bebc a0be b5be 9cec 923d 8e2b 9abd
00000120: e1f4 4cbe 2a3c c3be 9a55 8ebe f458 80bc
00000130: 11cd 30be 1f54 9dbe 206a 9b3c 247a 1dbd
00000140: e298 2740 f122 3d40 0097 9f3f 470a 71c0
00000150: 23ae cfbf ce5f 0f40 9778 0840 5afc e83f
00000160: 1a6c ae3d f54b 3e3c a6f6 153f b896 953e
00000170: e604 f8bf 3674 7f3e 5919 703f 210f c13e
00000180: 4368 b13f cb31 b1bd 98d7 6d3d ac7d a040
00000190: 8ead 0440 c8d5 373d 5336 74c0 684f 0f3e
000001a0: 6e69 1e3f 8b4c 503e fe89 e83e 7b76 df3f
000001b0: dd38 74bd 00f7 bfbd b216 f23f 36bf c63f
000001c0: 7f67 5040 7a3f ef3e 1c9f 9d3f ba7e 0640
000001d0: 0e64 80c0 7652 a93d 5e44 c73f 170c d43f
000001e0: 94c9 28bc e6bc 2b40 7186 1440 1c9a b93f
000001f0: f3bb 4f3f 04d5 d6bd fdbf 633e c329 ab3e
00000200: ba96 11c0 69df 0140 899f 153e 0f22 783e
00000210: 09b2 52bd c77c a9bc 1624 5f40 78f7 df3e
00000220: d247 b93f 6ca9 fa3f 97be 803e 9437 be3e
00000230: 059c da3e 3d0f 453f 8ebe fc3f c5fa 253c
00000240: d61c 2e3f 1e79 95c0 00e6 b73f 21d9 433e
00000250: baf5 c83f 60fe fe3e 947e e43f 5415 aa3d
00000260: 9d50 de3c 2716 2f3e 368a e83e f064 1c40
00000270: 3054 143e 5e9d cebd 8e26 3440 57ed 3840
00000280: 6b2f 1fbd 2c55 a03d 7c87 a33c 69f4 dbbd
00000290: ac28 88bd d294 d4bd 0530 cfbd aa15 c3bd
000002a0: b865 46bd 98f1 a6bc dd59 71bd 3516 9abd
000002b0: f573 b93c 0f91 1cbd ef9d 1b3d baa2 443c
000002c0: 376c 54bc dd8c 95bc 30ce c03c 08e9 6fbc
000002d0: ffa9 e4bd 3539 26be 41a2 0ebd 80e7 dcbd
000002e0: 5ac1 24bd d9a3 2abc 5e04 1e3d 1725 0dbd
000002f0: d896 9c3d 9316 76bd 2b3f ce3c a499 88bd
00000300: 096e 02be fb39 8f3b 7564 33be c8a0 dd39
00000310: 67ea b3bc 48d7 9abc 0247 9ebd 7d48 d9bc
00000320: 0e37 4dbc 40d6 15be ca08 a43d 9684 d1bd
00000330: e0a8 1bbe c83c 2fbc bfd4 acbd 923b 65bd
00000340: 0561 a33c bd9d b9bd 7600 5fbd 10ec afbd
00000350: e528 ffbd 36ff 32be ebcc 93bd e737 88bc
00000360: eadb da3c ed55 893c db60 debd 4420 02be
00000370: e384 07be 4fc0 58bd 1326 64bd 6f6d 32be
00000380: 0043 edbd df83 06be 33cd 6abd 3cbd 80bd
00000390: 1a08 00be e420 f9bd cc4f e0bd 4e09 b7bd
000003a0: 9408 06be ff41 0fbc addc 31be 6404 da3d
000003b0: 3c92 24bd 64a3 a5bd 06bc 7a3c 319c f03c
000003c0: f55a febd 338a c5bd b768 26be fd1c 80bd
000003d0: 74c7 693c c1d0 25bd bb9e debd 4156 ec3c
000003e0: e27f 6bbb 089b 5d3d 9946 73bd bbe8 10be
000003f0: fa01 9d3c 1e08 d7bd 8d11 f3bb 5e13 e1bd
0.030215293 0.06524579 -0.045748077 -0.3573659 -0.31867784 -2.169609e-05 -0.012717381 -0.3075646
-0.37060493 -0.26372272 -0.24042645 -0.22191429 -0.38630286 -0.24147263 -0.071181215 -0.35671583
-0.3689341 -0.35723737 0.026816472 -0.012456484 -0.092832476 -0.3203418 -0.1927319 -0.25832942
-0.28408322 -0.3177994 -0.28427887 0.056438476 -0.08416489 -0.044136137 -0.056119077 -0.32823613
0.014005989 -0.31160182 -0.0973898 -0.33231723 -0.02896972 0.04623519 -0.05926177 -0.08802033
-0.35277542 -0.0040050894 -0.0035639107 0.1060016 -0.28837767 0.096624896 -0.24937403 -0.33249152
-0.10936352 0.075390965 0.03925678 -0.20062609 -0.27911377 -0.27777362 -0.069263235 -0.18927889
-0.0056473985 -0.0486665 -0.058042508 -0.21096599 -0.2019442 -0.32227668 -0.23250157 -0.19598995
-0.06999877 -0.16528866 -0.19621265 -0.18564922 -0.023308456 -0.35496998 0.07174036 -0.07527839
-0.20015289 -0.3813184 -0.27799684 -0.015667416 -0.17265727 -0.30728242 0.018971503 -0.03844656
2.6187062 2.9552577 1.2467957 -3.7662523 -1.6225017 2.2402225 2.1323602 1.8202012
0.085167125 0.011614789 0.5857948 0.29216552 -1.9376495 0.24946675 0.9378868 0.37706855
1.3859943 -0.086520754 0.058066934 5.015341 2.073093 0.044881612 -3.8158157 0.13995135
0.6187962 0.20341699 0.4541778 1.7458032 -0.05962454 -0.093732834 1.8913176 1.5527103
3.256317 0.46728116 1.2314181 2.1014848 -4.0122137 0.08267681 1.5567739 1.656619
-0.010301966 2.6834044 2.3207057 1.4500155 0.8114616 -0.10489848 0.22241206 0.334303
-2.2748246 2.0292609 0.14611639 0.24231742 -0.05143932 -0.020689381 3.4865775 0.4374349
1.4475043 1.9582953 0.2514541 0.37151778 0.42697158 0.76976377 1.9745653 0.010130589
0.6801275 -4.671035 1.4367065 0.19125797 1.569999 0.49803448 1.7851129 0.08304849
0.027138049 0.17098294 0.45417947 2.4436607 0.1448524 -0.10088609 2.8148532 2.889486
-0.03886358 0.07828745 0.019962065 -0.10739977 -0.066483825 -0.10379948 -0.10116581 -0.095256165
-0.04843685 -0.020378873 -0.05892359 -0.07523767 0.0226383 -0.038224276 0.037992414 0.012001688
-0.012965254 -0.018255645 0.023535818 -0.014642961 -0.11165237 -0.1623276 -0.034822706 -0.107863426
-0.040223457 -0.010415041 0.038578384 -0.0344592 0.07645959 -0.060080122 0.025176605 -0.066699296
-0.12737288 0.0043709255 -0.1751879 0.00042272196 -0.021962358 -0.018901482 -0.077283874 -0.026523823
-0.012525333 -0.14632511 0.08009489 -0.10230367 -0.1520114 -0.010695644 -0.084390156 -0.055965014
0.019943723 -0.09063289 -0.0544438 -0.08589947 -0.12458972 -0.17480168 -0.072168194 -0.016628219
0.026716191 0.016764605 -0.108583175 -0.12707621 -0.13234286 -0.052917775 -0.055700373 -0.17424558
-0.11585045 -0.13136242 -0.0573246 -0.062860936 -0.1250309 -0.121644765 -0.1095272 -0.089373216
-0.1308921 -0.008743762 -0.17369337 0.10645369 -0.040178522 -0.08087805 0.015303617 0.029371353
-0.124196924 -0.096455 -0.16250883 -0.06255529 0.014268745 -0.040482286 -0.10870119 0.028849723
-0.0035934378 0.054102927 -0.0593935 -0.1415128 0.019165982 -0.10499595 -0.0074178637 -0.10990022

hidden2.bias f4 [40]
00000000: 6c80 b4be d8f5 2b40 a666 1ebd c93a a7bd
00000010: 1d37 e8be 6dcb 2a40 a729 2f40 e294 3fbd
00000020: 41dc bcbe 3280 3dbd d295 3940 c18e 2c40
00000030: 1cf4 2c40 3085 01bd d580 00be b5cc 2940
00000040: 23aa bcbc 008d 80bd 9702 d1be 3808 04be
00000050: 8b8c 1940 7ee7 3440 33d9 3440 aa2d 23be
00000060: 0ee8 e1bd e1cd 2d40 7d52 2940 18b8 0abf
00000070: e810 3240 4abd 3040 17c6 3540 266f 11be
00000080: b505 813b c2d4 0c40 194f a7bd 40dd 26be
00000090: 3d7b 2e40 7ae9 e73c b816 00be 5a89 2ebe
-0.35254228 2.68688 -0.038672112 -0.08165509 -0.45354548 2.6686661 2.7369173 -0.046772845
-0.3688679 -0.046264835 2.8997693 2.696213 2.7023993 -0.031621158 -0.12549146 2.6531193
-0.023030346 -0.062768936 -0.40822288 -0.1289376 2.399203 2.8266292 2.8257568 -0.15935388
-0.11030589 2.7156909 2.6456597 -0.54187155 2.7822819 2.7615533 2.8402154 -0.14202556
0.003937448 2.2004857 -0.081693836 -0.16295338 2.7262719 0.028309572 -0.12508667 -0.17044583

hidden3.weight f4 [20, 40]
00000000: a3ac 04be 8809 b7bd 0b27 84bd 168a b93d
00000010: 094b 18be 2e18 0fbe 260c cf3d fc41 89bd
00000020: 3033 0bbe 444d 753d 2275 16be 9cca 05be
00000030: e444 493d d4bc 2a3d 6199 0cbe 224e 0bbe
00000040: e237 ed3d 7033 143c 89fe f8bd 9dd1 0d3e
00000050: ce4e ab3d fab1 7bbd bae7 9e3d bcb1 413d
00000060: a440 493d 76a9 c8bd d5c6 0cbe 8409 4f3d
00000070: d834 b93c 97a9 043e 0c6c 14be 8aee c13d
00000080: bf5b 18be 4f19 01be 25ed b3bd f88e 7d3d
00000090: 5005 253c 387f 9dbd a8bb 643d 8030 8a3b
000000a0: a8ec 3abd 818a c7bc 0077 72bc 896e 2fbb
000000b0: 4857 06be 96ab 953d 98fa 3dbe ca3e 16be
000000c0: 084c 783d 70f0 59bd 5013 5b3d d695 be3d
000000d0: 9367 573b 822a 9dbd 1037 2bbc 964f b73d
000000e0: 52ab ec3d 846b 683d 70b7 383d 8402 a7bd
000000f0: b250 473d f865 5b3d 6f33 57be 9811 acbc
00000100: 0342 103e 93b7 013c 45ef 50be c0dd ffbc
00000110: 9e49 6b3d 8c5f 2f3d 35b5 2fbe accb a43d
00000120: 0236 833d c7f9 1c3e 9eb8 2bbd ec12 5d3d
00000130: b438 7dbd c2cc 973c f392 093e 19bb 82bd
00000140: c870 e23c a81f af3d 6218 64bd b8fb fabc
00000150: fe32 bd3d 0006 98bc fb48 0cbe 2202 9a3d
00000160: dc89 373d c7af c0bd 6003 d7bd c00e 75bb
00000170: 4c15 abbd c0ab 7c3c 8851 b43c 8e71 ea3d
00000180: 4025 a33d 2ebb d53d f849 c5bc 1c53 03be
00000190: 6277 f3bd 384f 423d deec 13be 376c e7bd
000001a0: 206f 2abc 309e dfbd f480 183d b839 053d
000001b0: 1079 cb3c 3274 f3bd 9f47 0d3e 865d c23d
000001c0: bcf3 5ebd a2a2 dbbd d21c cc3d a19c 9abd
000001d0: 2084 313c 2e65 a73d b079 8f3d c0ea 4dbb
000001e0: d61d ce3d 0da2 10be f97d ce3c fe73 4dbe
000001f0: db59 d1bd 8cf4 a03d ec4b 0fbd 7e76 c1bd
00000200: 65d0 193e 685a bd3c 7779 9ebd 4172 62be
00000210: f149 b13d 47cb 7cbd c8b8 0bbe 4dfd e5bd
00000220: ced2 16bc 6b95 15be 1abc 47be 0bd7 43be
00000230: 5033 8b3d 0dd9 04be 4ff0 3cbe 0421 753d
00000240: 3aaf 62bd 5a2e e8bc 47de 9dbd 0082 bf3a
00000250: 7364 0dbe 148c 0abe fe3b fbbd c9ba 90bd
00000260: f77c 2d3d 3c5f 4a3d 9953 023d 608d 2e3c
00000270: 263e 16be d56b 8abd e90d 15bd a803 3cbc
00000280: dd30 cebe dbbe 833f bbcf 8abc 7235 0f3e
00000290: 32d0 4d3e 61cf 883f d7da 923f 95ab eebc
000002a0: 97ca a6be 9407 3fbd fcb3 8a3f 0444 8f3f
000002b0: 08fb 703f ea72 e43d 6375 7ebd 82b2 8b3f
000002c0: 59ef bbbd 16c7 febc f743 59be a229 b63d
000002d0: fca8 263f e550 8b3f 017f 863f 0f9f 993d
000002e0: 43c9 46bb 6ad4 5a3f 568f 543f 8cac e23d
000002f0: 1cf6 723f 435f 8d3f 7d7f 8b3f fa07 59bd
00000300: 6ccc b4bc ba27 18c1 139f 363e bcac 4bbd
00000310: 364c 8c3f 2a9f 13bc 6323 0ebd 2866 ab3d
00000320: f21e a1be 05df 963f 00d8 d3bc b645 8b3d
00000330: fa2a 523e 2863 8c3f 365b 883f 1853 9f3b
00000340: 0c76 b0be c0aa d03b ebf9 943f 163e 5f3f
00000350: f544 983f 9121 503e 911e 2c3e b1f1 903f
00000360: a4be 563c d841 8ebd 9cb2 a1be 4da5 9a3c
00000370: 742f 463f 81bf 8e3f b16a 8e3f 608f e53c
00000380: 64dd 343e f2e5 8c3f c1f3 8e3f 3b60 9b3e
00000390: 87f1 9a3f 8666 953f df77 823f 66a6 99bb
000003a0: 774a 043e 918d 18c1 e813 37bd 11a9 3e3e
000003b0: f8f3 803f ea81 803c 8327 11ba 21ee 0abc
000003c0: 188a 5ebd 8118 2fbd d3df bd3d 6da2 9f3d
000003d0: f412 5b3e ae96 b2bd 43b4 acba 7255 413e
000003e0: a82f 9a3c 7f33 d3bd 7350 c9bd 70b7 87bd
000003f0: 862c b5bd 8c43 7d3d a39c 023e de75 07bd
-0.1295648 -0.08937365 -0.06452759 0.09059541 -0.14872374 -0.13974068 0.10109739 -0.06702039
-0.13593745 0.05988814 -0.1469312 -0.1306557 0.049137965 0.041683987 -0.13730384 -0.13604024
0.115829244 0.009045467 -0.12157924 0.13849492 0.0836464 -0.06144903 0.07759042 0.04728864
0.04913391 -0.09797947 -0.13747723 0.050546184 0.022608206 0.12955318 -0.14494342 0.09469326
-0.14878748 -0.1260731 -0.08785466 0.061903924 0.010072067 -0.07690281 0.055843025 0.0042172074
-0.04563585 -0.024358036 -0.01479888 -0.0026768765 -0.13119233 0.07308118 -0.18552625 -0.1467239
0.060619384 -0.053207815 0.053485215 0.09305923 0.0032868132 -0.07674123 -0.01045014 0.08950727
0.11556114 0.05674316 0.045096815 -0.08154777 0.04866094 0.05356404 -0.21015714 -0.021004483
0.14087681 0.007917303 -0.20403774 -0.031233668 0.057443254 0.04281573 -0.17158969 0.0804666
0.064067855 0.15329657 -0.04192411 0.053973123 -0.061821654 0.018530253 0.13434963 -0.06383342
0.027641669 0.0855096 -0.055687316 -0.030637607 0.092382416 -0.018557549 -0.13699715 0.07519938
0.044809207 -0.09408527 -0.104986906 -0.0037392825 -0.083536714 0.015421808 0.022011533 0.1144744
0.07966089 0.10436092 -0.024083123 -0.12824672 -0.11888005 0.04743883 -0.14445826 -0.11299937
-0.010402471 -0.10918844 0.037232354 0.032525748 0.024838 -0.11887397 0.13796853 0.094904944
-0.054431662 -0.10724379 0.099664345 -0.07549406 0.010834724 0.08173595 0.07005632 -0.003142044
0.100642845 -0.14124317 0.025206553 -0.20063779 -0.10222217 0.078591436 -0.034984514 -0.09446429
0.15020902 0.023114398 -0.07738011 -0.22113897 0.08656681 -0.061717298 -0.13644707 -0.11229954
-0.009205533 -0.1460778 -0.19505349 -0.19125001 0.067968965 -0.12973423 -0.18451045 0.05984594
-0.05534289 -0.028342415 -0.07708412 0.0014610887 -0.1380785 -0.13529998 -0.12267302 -0.070668764
0.042355504 0.04940723 0.031818006 0.010653824 -0.14672145 -0.067588486 -0.03639022 -0.011475481
-0.40271655 1.029262 -0.016944757 0.13985232 0.20098951 1.0688287 1.1473035 -0.029134551
-0.3257644 -0.046638086 1.0836177 1.1192632 0.94133043 0.111547306 -0.062123667 1.0913851
-0.09176511 -0.031100791 -0.21217333 0.088946596 0.651016 1.0884062 1.0507509 0.07501041
-0.0030332364 0.8548037 0.83031213 0.11068067 0.94906783 1.1044697 1.0898281 -0.052986123
-0.022070132 -9.509699 0.1783412 -0.04972528 1.0960758 -0.009010116 -0.034701716 0.08369094
-0.31468922 1.178681 -0.025859833 0.06800406 0.20524207 1.096776 1.0652835 0.0048622005
-0.34465063 0.0063680112 1.1638769 0.8720411 1.1896044 0.20325305 0.16808535 1.1323758
0.013106976 -0.069461524 -0.3158158 0.01887765 0.7741616 1.1152192 1.112631 0.028022468
0.17662579 1.1007674 1.1168138 0.30346856 1.2104958 1.1671913 1.0192832 -0.0046890257
0.12919031 -9.534562 -0.04469672 0.18619181 1.0074453 0.015686948 -0.0005537199 -0.008479626
-0.054330915 -0.042747978 0.09271207 0.07794652 0.21393949 -0.08720146 -0.0013176281 0.18880251
0.018821552 -0.103125565 -0.098297976 -0.06626785 -0.08846383 0.061831996 0.12755065 -0.03307139

hidden3.bias f4 [20]
00000000: da0e afbd 6798 45be 0a10 3dbd 7e06 223d
00000010: c6bb 7140 2217 7240 0700 54be 8c26 c13a
00000020: 3018 fabc df30 2a3c a043 8e3c 1f3e b6bd
00000030: 479f 35be 29f6 f8bd c6e3 6440 7ed5 6040
00000040: 612b 6640 4609 6840 4337 6340 08c3 6abe
-0.085477546 -0.19296418 -0.046157874 0.039556973 3.7770858 3.782662 -0.20703135 0.0014736219
-0.030529112 0.010387628 0.01736623 -0.088985674 -0.1773654 -0.12156326 3.5764022 3.5130305
3.5963976 3.625566 3.550248 -0.22925961

hidden4.weight f4 [10, 20]
00000000: b4e4 963d da69 c2bd 70ab eebd 92c1 523e
00000010: d881 7ebd 4041 a23c 12c9 acbd e026 15bd
00000020: 4c3a b53d 84f3 ed3d 98a7 1f3d c893 3b3d
00000030: 3277 2d3e 0957 39be 4021 e1bb c73e 42be
00000040: c5e1 41be 23e9 5cbe ea5e 463e a41b fb3d
00000050: bc44 ee3d 6c6c 20be 1869 24bd 92ff 313e
00000060: 807c 5b3c 58c1 14be e000 0bbc 3ac1 2c3e
00000070: 4018 6c3c e904 ffbd b4b3 b23d d191 1fbe
00000080: 4b3b 0fbe c669 173e ee9c b1bd a87d 07bd
00000090: 8eaf 08be 70a5 f83c 56b3 1f3e e403 b9bd
000000a0: f2ac 98bd 249c 7bbd b861 963d 286c bbbc
000000b0: 0084 7d3f a522 893f f940 303c 734a 62be
000000c0: 6aa3 98bd 6aac 313e ee04 40be f846 86bc
000000d0: 9c8c b93d a8dc 25be 027b 9d3f 432e 743f
000000e0: 7988 933f d2bc 943f b04b 9f3f 1c43 463e
000000f0: e0f6 483e fa07 e1bd 853d 3fbe c310 cc3d
00000100: efb5 743f 97d1 9a3f a859 1abd 5c52 e8bd
00000110: 5795 a43c 86fd b8bd 1844 173e 6942 b63d
00000120: 94f5 393e fb65 353e e693 5d3f 27d7 633f
00000130: 12f1 463f a54e 993f 034b 473f c9d2 173c
00000140: b637 523e 5c03 fc3d e82d 343e 00d0 5fbe
00000150: 609e 30be cb10 5bbe acd3 563e 0051 553c
00000160: 58c4 5fbd d815 123e 96fe 48be f0ea c93d
00000170: 900c bf3d 0d23 ecbd 9681 85bd f24d 2c3e
00000180: f8a5 153d 80dd c53d e40b 55be 8a23 3ebe
00000190: e809 ae3d f60c 1fbe 169d 193e 2007 55bc
000001a0: 532b 643f d3b8 243f c09b 963c 6e20 343e
000001b0: e8d7 40bd 9045 a83d 565d 373e fcee d1bd
000001c0: 9832 19be b1e3 713e 77cd 403f 66e5 623f
000001d0: b9eb 603f 33c1 823f 4129 483f b380 fcbd
000001e0: accb 833d 84eb f83d 60ab 5a3c 8925 04be
000001f0: 40ad a9bc 0ead a6bd 186d ca3d e0d5 f43c
00000200: 2e18 5c3e 603f 97bd 40ca b6bd 783f b9bc
00000210: 4090 38be e033 c13d ba62 313e 90ec fd3c
00000220: 18ee d33c e49f fbbd e0ce 2dbe 3856 553e
00000230: d47c 82bd 28d5 5f3e 560a acbd f6d3 0fbe
00000240: ea59 e3bd 08bd 29be 00f5 e23a 8e22 443e
00000250: 4cec 403e 9e61 1a3e c748 24be 5095 2fbc
00000260: 0d92 06be 67cb 50be e0aa 423d f494 be3d
00000270: 542f 3f3e 8840 33bd 4afb 1bbe f871 3a3d
00000280: 7861 e6bc 9cae df3d a247 06be 3f8b 66bd
00000290: 7279 85be ba67 4fbe 752c 64be 742e e73d
000002a0: b22d 1d3e 52e3 5dbd 8200 123e 3b4b 32bc
000002b0: 507b 453e f24c 26be 6ea4 433e 5ed2 6a3d
000002c0: 9658 96bd 9409 503e a018 cabd 7efc b8bd
000002d0: adc5 5ebe 0efc fabd 566d d9bd 1ecc 54bc
000002e0: a974 ac3f 846c ba3f 5fed 743d 2844 80bc
000002f0: 5a8b 5d3e 705f 4d3d f898 e9bc 72b7 92bd
00000300: 2233 b3bc b483 07be b603 b23f ca95 8f3f
00000310: 67f4 9b3f e9e0 a63f 70ae 9f3f ee12 873b
0.073678404 -0.09492846 -0.11653793 0.20581654 -0.062135547 0.019806504 -0.084367886 -0.036414027
0.0884901 0.116187125 0.03897819 0.045795232 0.1694 -0.18099608 -0.006870419 -0.1896926
-0.1893378 -0.2157331 0.19372144 0.122611314 0.11634204 -0.1566636 -0.040139288 0.17382649
0.013396382 -0.1452688 -0.008484095 0.16870585 0.0144100785 -0.124521084 0.08725682 -0.15582968
-0.13987462 0.14786443 -0.0867251 -0.03307882 -0.13348219 0.030352324 0.15595755 -0.09033945
-0.07454862 -0.061428204 0.07342857 -0.022878721 0.9902954 1.0713698 0.010757678 -0.22098713
-0.07453044 0.17350927 -0.1875188 -0.016391262 0.09060022 -0.16197455 1.2303164 0.9538309
1.1526023 1.1620123 1.2444973 0.19361538 0.19625425 -0.109878495 -0.18675812 0.099641345
0.9559011 1.2095212 -0.03768316 -0.11343834 0.020090742 -0.09032731 0.1477207 0.088993855
0.18160087 0.17714684 0.865538 0.8900017 0.77711594 1.1977125 0.77848834 0.009266564
0.20529065 0.12305328 0.17595637 -0.2185669 -0.17247915 -0.21393125 0.20979184 0.0130198
-0.054630607 0.14266145 -0.19628367 0.09859264 0.09328568 -0.11530123 -0.06518857 0.16826609
0.036535233 0.096613884 -0.20805317 -0.18568245 0.08497983 -0.15532288 0.1500133 -0.013002187
0.8912861 0.6434452 0.018384814 0.17590496 -0.047080904 0.08216393 0.17906699 -0.10250661
-0.14960706 0.23622014 0.75313514 0.88631284 0.87859684 1.021521 0.7818795 -0.12329235
0.06435332 0.12154296 0.013346523 -0.12904944 -0.020712495 -0.08138476 0.09884089 0.02988714
0.21493599 -0.07385135 -0.08925295 -0.022613272 -0.18023777 0.094337225 0.17322817 0.03099659
0.025870368 -0.12286356 -0.16973448 0.20833671 -0.06371465 0.21858656 -0.08400409 -0.140457
-0.11101134 -0.16576016 0.0017315447 0.19153807 0.1884014 0.150763 -0.16043387 -0.010716751
-0.13141651 -0.20390092 0.04752624 0.09305754 0.18670398 -0.043762714 -0.15232578 0.045518845
-0.028122649 0.10921976 -0.13113263 -0.05628514 -0.26069218 -0.20254412 -0.22282584 0.11288157
0.15349463 -0.054171868 0.14258006 -0.010882194 0.19285321 -0.1624029 0.19105694 0.057329528
-0.07341115 0.20316154 -0.09867978 -0.09032534 -0.21755095 -0.12255107 -0.10616557 -0.012988118
1.3473102 1.4564366 0.059796687 -0.0156575 0.2163519 0.050139844 -0.028515324 -0.07163896
-0.021874968 -0.13233835 1.3907382 1.1217587 1.2183961 1.3037387 1.2475109 0.0041221296

hidden4.bias f4 [10]
00000000: c87f 46be e037 0abe 88fb 8c40 ef32 9240
00000010: 5f33 49be 9ea9 8440 8b16 34be 20d2 aebc
00000020: bc11 db3c 1d7a 9340
-0.19384682 -0.13497877 4.4057045 4.5687175 -0.19648503 4.145705 -0.17586724 -0.02134043
0.026741855 4.6086564

regression.weight f4 [1, 10]
00000000: 7555 79be 12de 773e 6287 933f d758 793f
00000010: 64b7 debd c4d6 553f 42c9 0cbe 885b e83d
00000020: 1f57 073d d65f b43f
-0.24349006 0.24205807 1.152569 0.97401184 -0.10874823 0.8353083 -0.13748649 0.11345583
0.03304207 1.4091747
