models/model229.pkl (torch, 23622 bytes, 9 tensors)

hidden1.weight f4 [80, 8]
000000 b4 5d ab 3d 76 55 66 40 bf 17 39 3e 5e e5 c4 bd
       0.08367482 3.5989661 0.18075465 -0.09614061
000010 52 1a d3 3f bc 3f 00 3d 98 3e da 3d ec 25 b5 3d
       1.6492407 0.03131078 0.1065647 0.08845124
000020 40 17 84 be 14 97 63 40 4f 6f 10 bf 25 0a 2d 3e
       -0.25798988 3.556096 -0.56419843 0.16898401
000030 e7 41 22 40 c2 69 aa be 6e 01 32 bd ec bd f2 3e
       2.5352724 -0.33283812 -0.043458395 0.47410524
000040 fe 71 47 40 df 91 99 bf e3 d3 10 bf 85 cc 87 bf
       3.1163325 -1.1997641 -0.56573313 -1.060929
000050 0c 79 ee 3f 80 1b 76 3f 13 42 28 3f a2 89 b5 be
       1.863069 0.9613571 0.6572582 -0.35456568
000060 cc 83 04 40 47 ea 7a c0 7c d5 23 be c9 c3 cd bf
       2.0705442 -3.9205492 -0.15999407 -1.6075374
000070 5c 96 22 40 74 10 c6 3e 14 b9 a6 3d 23 70 0d c0
       2.5404272 0.38684428 0.081407696 -2.2099693
000080 23 de 0c 40 c1 b1 a1 bb 87 2f 8b 3f e0 af 09 c0
       2.2010581 -0.00493452 1.0873879 -2.1513596
000090 ee 73 e4 3e c7 7d d2 bd f4 93 e8 bf ef df ff bf
       0.44619697 -0.102778964 -1.8170152 -1.9990214
0000a0 ee 0a 0c 3f ea 21 49 40 50 ff 00 be a0 f4 fe bc
       0.5470418 3.142695 -0.12597394 -0.031122506
0000b0 3f 36 19 40 3c e5 3f 3f b4 b4 87 3d 00 89 4d bf
       2.393936 0.7495916 0.06626263 -0.8028717
0000c0 97 d5 1d be 45 cc 53 40 0a 31 cb bd fc d9 17 bc
       -0.1541351 3.3093426 -0.09921463 -0.00926828
0000d0 b0 b1 f8 3f 5e 60 4b 3d b9 1e e8 3e f6 b7 4d 3e
       1.9429226 0.04965245 0.4533594 0.20089707
0000e0 f6 89 29 40 d3 d5 9d bf 16 3f 11 40 3c 2c 1e bf
       2.6490455 -1.2330879 2.2694755 -0.61786246
0000f0 05 fc 1b 40 69 be b3 bf 2e fd d8 bf 91 a4 d5 bf
       2.437257 -1.4042484 -1.6952264 -1.6690847
000100 e0 32 03 40 51 2e ca bf b0 e3 e4 bd 45 46 f0 be
       2.0499802 -1.5795385 -0.111762404 -0.4692861
000110 ac bb 9f 3f 32 a3 3a 3d 6b 57 57 3e d2 74 c5 3e
       1.2479148 0.04556579 0.21029441 0.3856569
000120 7e 7b c4 3e fe 8a 5b 3e 62 2e 16 3f ef af 71 bd
       0.38375467 0.2143974 0.58664525 -0.059005674
000130 0c 0a a5 3e d2 a3 44 bf 17 aa b3 be 48 a0 84 bf
       0.32234228 -0.7681247 -0.35090706 -1.0361414
000140 22 23 ba 3f 1d 81 1c bf cb 4e 9f 3f 3d ca eb 3c
       1.4541972 -0.6113451 1.2445921 0.028782958
000150 dc 9c 08 40 ca 9d 32 bf a4 42 8e be c8 7e a3 3e
       2.134574 -0.69772017 -0.27785218 0.31932664
000160 45 00 bf 3f 44 e1 ac bf 0a b4 93 3f ce 93 03 c0
       1.4921957 -1.3506246 1.1539319 -2.0558963
000170 13 fc f6 3e 65 eb 21 c0 d7 5b cc bf d2 7e f7 bf
       0.48239192 -2.5299923 -1.5965527 -1.9335577
000180 57 c9 85 bf 92 6e 53 40 3c 83 29 40 4f 51 33 be
       -1.0452069 3.3036237 2.648635 -0.17511486
000190 40 35 80 be 1f 66 08 bf 5d 18 43 be 4f 4f f8 be
       -0.25040627 -0.53280824 -0.19052263 -0.48498008
0001a0 ba d8 65 3f 1d 40 ca be f1 fe 8f 3f c7 26 c9 3c
       0.89783823 -0.3950204 1.1249677 0.024554623
0001b0 96 46 fb 3f 48 0b 30 bf 7c 5e f8 be b4 48 10 3e
       1.9630916 -0.68767214 -0.48509586 0.14090234
0001c0 77 68 4d 40 73 80 66 bf 95 c6 30 be d9 ac 57 3e
       3.209501 -0.9003975 -0.17263253 0.2106203
0001d0 f8 06 0c 40 c1 a7 19 be 58 87 c0 3e a1 bb fc 3e
       2.1879253 -0.150054 0.3760326 0.493619
0001e0 24 1e 8d 3f cf 78 b7 bf 12 04 ce 3f 41 ee 12 bf
       1.1024823 -1.4333743 1.6094992 -0.57394797
0001f0 ae 20 fd 3f ca 98 38 bd 2f 38 83 3f d6 0e fe 3c
       1.9775598 -0.045067586 1.0251521 0.031012934
000200 d1 bc 2f be 62 2a af bf 45 19 95 bd 91 ca 9e bf
       -0.17161871 -1.3684809 -0.072802104 -1.2405568
000210 f9 ac c3 3f e1 dc 9b bf aa 3b 6b 3e 03 0d 0f c0
       1.5287162 -1.2176782 0.22971979 -2.2351692
000220 7a 68 3f bf 55 12 a6 bf 58 5a bf 3e 9f a3 5e 3e
       -0.74768794 -1.2974344 0.37373614 0.21742104
000230 2b 42 93 3f 27 3f c0 be 17 2e fd be 76 ba 27 be
       1.1504568 -0.3754818 -0.49449226 -0.16379723
000240 bf e8 96 be c5 de 2f be 7c 84 98 be b8 c5 79 be
       -0.29474446 -0.17174824 -0.29788578 -0.2439183
000250 cc 9b ab bd 88 a2 2e bd 57 3d 2b be 00 a2 64 bd
       -0.08379325 -0.04263547 -0.16722618 -0.055818558
000260 b2 bb c9 be 9a 52 6e 40 0d dc 57 be 45 59 09 bd
       -0.39401013 3.7237916 -0.21080036 -0.0335324
000270 a6 cf 20 40 03 7b bb 3d 28 2e 08 3f 73 ff 75 3f
       2.5126739 0.09154322 0.5319543 0.9609291
000280 c0 31 84 3d 40 be 6a 40 9c 5d aa 3d 1f 66 36 bd
       0.064548016 3.667862 0.08318636 -0.044530984
000290 a5 dd cd 3f 58 0a 3d bd 01 e4 70 3c 90 e1 28 bd
       1.6083266 -0.046152443 0.014702798 -0.04123074
0002a0 6f 62 3e 3e b1 2f 8b bf e6 74 41 3f 70 06 9a 3d
       0.18592237 -1.0873929 0.75569 0.07520759
0002b0 43 64 9c 3f 48 2f ee be 7f d6 26 be 07 e9 af 3c
       1.2218097 -0.46520448 -0.16292761 0.02147342
0002c0 a7 1e 31 3f 64 a6 b7 c0 06 dc 14 40 85 ec d8 3d
       0.69187397 -5.7390614 2.3259292 0.105919875
0002d0 cc cb 07 40 66 cf cc be c4 43 97 bf 7a fd 4f be
       2.1218138 -0.40001982 -1.1817555 -0.20311537
0002e0 e1 a2 6f 3f 16 34 a8 bf f4 0a 89 3f 2a 24 e4 be
       0.9360791 -1.3140895 1.0706468 -0.4455884
0002f0 f1 a5 cb 3f cd 50 ed bd a7 53 0c 3f 7c a4 bb bd
       1.5910016 -0.11587677 0.54815143 -0.09162232
000300 ef 30 25 3d 52 62 12 40 f1 66 0a 3f 0b fa 12 3f
       0.04032987 2.287251 0.54063326 0.57412785
000310 52 94 00 40 26 26 21 3f fb a6 44 bf fc 0f 24 bf
       2.0090528 0.62948835 -0.7681729 -0.6408689
000320 85 3c 28 3f 6c 8e aa bf 4f fd 00 3e 72 12 07 bf
       0.65717345 -1.3324714 0.1259663 -0.5276252
000330 3e da f3 3e 4d ed 18 bf 2a 87 0a bf 12 7f e9 be
       0.47627443 -0.5973709 -0.54112494 -0.4560476
000340 77 a3 80 3f c7 6d ea be d6 be a2 3f c0 1c 7d 3d
       1.0049886 -0.45786878 1.2714489 0.061794996
000350 e4 10 fd 3f c8 1e 48 bf fe 41 07 be 8a 76 29 3d
       1.977078 -0.7817197 -0.13208768 0.041372813
000360 5c 92 84 be c0 91 52 40 19 bd fd be 2c e2 3b 3e
       -0.25892913 3.2901459 -0.49558333 0.18347996
000370 64 d5 0e 40 94 6d 9c be 42 ba 51 bd 2a 5e 1e 3e
       2.2317743 -0.3055235 -0.05120302 0.15465608
000380 1f 38 66 be 8c 9e 3b be a8 2e 61 3d 82 42 ab be
       -0.22482346 -0.183222 0.054976135 -0.3344918
000390 14 31 50 be 9e 5f f8 bd f0 43 8a bc 88 b6 20 3d
       -0.20331222 -0.121276125 -0.016878098 0.039236575
0003a0 20 b9 54 bd 18 c4 4d be f0 52 f2 3d 5c 40 19 be
       -0.05193436 -0.20094335 0.11832225 -0.14965957
0003b0 d3 1c b3 be c0 7a 0d bc 84 03 13 3e a0 c4 24 3c
       -0.3498293 -0.008635223 0.1435681 0.010056645
0003c0 d2 7d 79 3c b8 26 56 40 a6 cf 9e 3d 99 80 9e bd
       0.015227752 3.3461132 0.077544495 -0.07739372
0003d0 98 f6 cf 3f 71 a4 7d bc ad 59 05 3d ba 20 1b 3c
       1.624713 -0.0154811 0.032556225 0.009468252
0003e0 01 aa 68 40 c9 af 2f bf db 56 0b bf 82 83 82 bf
       3.6353762 -0.686276 -0.54429406 -1.0196383
0003f0 b3 ac c8 3f 1a a2 6e 3f e6 f7 ff 3e 0d d5 49 3f
       1.5677704 0.932161 0.4999382 0.78840715

hidden1.bias f4 [80]
000000 ba 32 3b c0 cb 01 44 c0 60 e5 7a bf 66 46 8d bf
       -2.924971 -3.0626094 -0.9800625 -1.1037109
000010 4f c7 bd bf 89 c4 26 c0 7e 2c 3b c0 ee 43 42 3e
       -1.4826449 -2.6057456 -2.9245906 0.18971226
000020 23 2b 96 bf bb d7 a9 bf a6 6d 67 3f 71 54 ee 3e
       -1.1731914 -1.3268961 0.90401685 0.465488
000030 fc 0b f5 bf 7c f9 4f 3f ec 38 94 bf 0f 7a 58 3f
       -1.9144282 0.8124006 -1.1579871 0.84561247
000040 9a 3a af 3f a7 f5 07 3f f8 93 80 be 7a 61 5b c0
       1.3689759 0.5310921 -0.2511289 -3.4278245
000050 03 fd 32 c0 3c 24 4a 3f 4f 43 2d 3f f1 68 59 3f
       -2.7966926 0.7896154 0.6768083 0.8492575
000060 46 7c 06 c0 62 9d d1 3c 3d f6 61 3f 95 3e 31 c0
       -2.101335 0.025587741 0.88266355 -2.7694447
000070 00 6d 5b bd 33 e4 86 be 23 45 30 c0 9e 05 b0 bf
       -0.053570747 -0.26345977 -2.7542198 -1.3751714
000080 04 00 33 c0 ed da 7f 3f c8 1c 20 c0 44 6b 22 c0
       -2.796876 0.9994343 -2.5017567 -2.537797
000090 a3 ab 31 bf dd 1a f1 bf a8 6e 2b c0 c7 e0 2a c0
       -0.6940252 -1.8836323 -2.678629 -2.6699693
0000a0 2a 60 18 3f 90 b5 48 c0 48 41 40 c0 d0 5b c9 bf
       0.59521735 -3.1360817 -3.0039845 -1.5731144
0000b0 49 60 89 3e 61 44 7b be 2f eb a8 3e 6e 6a 1e bf
       0.26831272 -0.24537803 0.3299193 -0.6188115
0000c0 df 8d 31 c0 af 44 32 c0 e6 af 90 be 1e 16 39 3f
       -2.7742841 -2.785442 -0.282592 0.72299373
0000d0 95 3c ab be 98 fc 07 be 98 32 90 bf 39 88 73 3e
       -0.33444658 -0.1327995 -1.126544 0.23782434
0000e0 39 c4 07 be 9d 19 36 c0 be c1 8d 3e 12 32 f6 3e
       -0.13258447 -2.8453133 0.27686876 0.48085076
0000f0 23 41 f3 3e ac 44 e0 bf fd 9d bc be 15 61 e2 3e
       0.47510633 -1.7520957 -0.36839285 0.44214693
000100 64 5f 2e bf 2d b0 a6 bf 73 b7 07 be 97 a2 3a 3f
       -0.68114305 -1.3022515 -0.13253574 0.7290434
000110 82 8c 35 c0 cf c5 a8 3e 1d ed 03 c0 15 c7 9f be
       -2.836701 0.32963416 -2.0613472 -0.31206575
000120 c6 a6 30 3f 18 8c 5a be ac 7e f8 bd 04 30 35 c0
       0.69004476 -0.21342504 -0.12133536 -2.8310556
000130 52 83 9d be fb 6f 10 3f af 1b 46 c0 cc 7a 3c c0
       -0.30764252 0.5642087 -3.0954397 -2.944995

hidden2.weight f4 [40, 80]
000000 10 86 f7 3c 96 9f 85 3d 56 62 3b bd aa f8 b6 be
       0.030215293 0.06524579 -0.045748077 -0.3573659
000010 be 29 a3 be 00 00 b6 b7 90 5c 50 bc 1b 79 9d be
       -0.31867784 -2.169609e-05 -0.012717381 -0.3075646
000020 ee bf bd be aa 06 87 be 5a 32 76 be 80 3d 63 be
       -0.37060493 -0.26372272 -0.24042645 -0.22191429
000030 7d c9 c5 be 9a 44 77 be 75 c7 91 bd 75 a3 b6 be
       -0.38630286 -0.24147263 -0.071181215 -0.35671583
000040 ee e4 bc be d1 e7 b6 be 38 ae db 3c 48 16 4c bc
       -0.3689341 -0.35723737 0.026816472 -0.012456484
000050 f4 1e be bd d7 03 a4 be 83 5b 45 be c1 43 84 be
       -0.092832476 -0.3203418 -0.1927319 -0.25832942
000060 5b 73 91 be 9a b6 a2 be 00 8d 91 be 08 2c 67 3d
       -0.28408322 -0.3177994 -0.28427887 0.056438476
000070 a4 5e ac bd 18 c8 34 bd 1e dd 65 bd 91 0e a8 be
       -0.08416489 -0.044136137 -0.056119077 -0.32823613
000080 60 79 65 3c 46 8a 9f be 4e 74 c7 bd 7c 25 aa be
       0.014005989 -0.31160182 -0.0973898 -0.33231723
000090 e8 51 ed bc 1c 61 3d 3d 78 bc 72 bd 01 44 b4 bd
       -0.02896972 0.04623519 -0.05926177 -0.08802033
0000a0 fb 9e b4 be 20 3d 83 bb 80 90 69 bb 5e 17 d9 3d
       -0.35277542 -0.0040050894 -0.0035639107 0.1060016
0000b0 3d a6 93 be 46 e3 c5 3d e8 5b 7f be 54 3c aa be
       -0.28837767 0.096624896 -0.24937403 -0.33249152
0000c0 fb f9 df bd 94 66 9a 3d b8 cb 20 3d ed 70 4d be
       -0.10936352 0.075390965 0.03925678 -0.20062609
0000d0 00 e8 8e be 58 38 8e be e2 d9 8d bd 53 d2 41 be
       -0.27911377 -0.27777362 -0.069263235 -0.18927889
0000e0 d0 0d b9 bb 86 56 47 bd fb bd 6d bd 78 07 58 be
       -0.0056473985 -0.0486665 -0.058042508 -0.21096599
0000f0 76 ca 4e be 73 01 a5 be e4 14 6e be 97 b1 48 be
       -0.2019442 -0.32227668 -0.23250157 -0.19598995
000100 84 5b 8f bd 6e 41 29 be f8 eb 48 be d4 1a 3e be
       -0.06999877 -0.16528866 -0.19621265 -0.18564922
000110 60 f1 be bc a0 be b5 be 9c ec 92 3d 8e 2b 9a bd
       -0.023308456 -0.35496998 0.07174036 -0.07527839
000120 e1 f4 4c be 2a 3c c3 be 9a 55 8e be f4 58 80 bc
       -0.20015289 -0.3813184 -0.27799684 -0.015667416
000130 11 cd 30 be 1f 54 9d be 20 6a 9b 3c 24 7a 1d bd
       -0.17265727 -0.30728242 0.018971503 -0.03844656
000140 97 f8 0c 40 35 14 40 40 f6 42 9b 3f 66 62 7b c0
       2.2026727 3.0012333 1.212981 -3.9278808
000150 96 42 d7 bf 88 be 10 40 77 13 f9 3f 70 23 e1 3f
       -1.6817195 2.261629 1.9459065 1.758894
000160 e7 95 f3 3d f5 4b 3e 3c bb 0b 1c 3f 83 9f 97 3e
       0.11893826 0.011614789 0.609554 0.29613885
000170 45 0c e1 bf 93 ea 94 3e 07 02 82 3f c5 bc df 3e
       -1.7581869 0.29085216 1.0156869 0.43698707
000180 8f 5d a8 3f 93 43 4c bc 98 d7 6d 3d 9d 21 9e 40
       1.3153552 -0.012467283 0.058066934 4.941603
000190 fc 49 d6 3f ad f0 e4 3d 4b ba 84 c0 1b a2 59 3e
       1.6741328 0.11178718 -4.147741 0.21253245
0001a0 e7 1f 37 3f 27 e9 f3 3b be 2d 00 3f 7c 46 e0 3f
       0.71533054 0.0074435654 0.500698 1.752151
0001b0 dd 38 74 bd 00 f7 bf bd b3 ba c4 3f b3 9a c8 3f
       -0.05962454 -0.093732834 1.5369476 1.567221
0001c0 3e bf 54 40 3d ed 00 3f 2b a0 53 3f 3f 47 0b 40
       3.3241725 0.50361997 0.8266627 2.1762235
0001d0 8c 14 70 c0 72 f8 b0 3d 61 f3 91 3f b0 b2 99 3f
       -3.751254 0.08641137 1.1402398 1.2007656
0001e0 f6 ab 07 3e 3e 4b 1c 40 f7 ca 02 40 bb 48 c1 3f
       0.13249192 2.4420924 2.043638 1.510032
0001f0 e7 68 0f 3f 04 d5 d6 bd 31 10 92 3e 58 18 a1 3e
       0.56019443 -0.10489848 0.28527978 0.31463885
000200 d8 9a d4 bf 5a 45 05 40 89 9f 15 3e 1c 55 ab 3e
       -1.6609755 2.082358 0.14611639 0.3346337
000210 09 b2 52 bd c7 7c a9 bc 81 9d 54 40 12 f7 fa 3e
       -0.05143932 -0.020689381 3.3221133 0.49016625
000220 27 b8 a9 3f 70 03 f2 3f f5 86 57 3e d2 67 89 3e
       1.3259324 1.8907299 0.21047576 0.2683702
000230 11 21 ff 3e 10 61 35 3f 6b 9c de 3f b1 cd 49 3c
       0.49829915 0.7085123 1.7391485 0.012317107
000240 54 24 2f 3f e3 a1 95 c0 c6 c8 b1 3f 02 48 86 3e
       0.6841481 -4.6760116 1.3889396 0.26226813
000250 c1 92 87 3f 2f 73 05 3f 98 0b e2 3f 54 15 aa 3d
       1.0591661 0.5212888 1.7659788 0.08304849
000260 c2 8e 53 bc 21 1c 3a 3e 1d 44 f1 3e 9d 18 04 40
       -0.012912454 0.18174793 0.4712228 2.0640023
000270 30 54 14 3e e6 7e 92 bd f4 16 31 40 13 2c 3c 40
       0.1448524 -0.0715311 2.767026 2.94019
000280 6b 2f 1f bd 2c 55 a0 3d 7c 87 a3 3c 69 f4 db bd
       -0.03886358 0.07828745 0.019962065 -0.10739977
000290 ac 28 88 bd d2 94 d4 bd 05 30 cf bd aa 15 c3 bd
       -0.066483825 -0.10379948 -0.10116581 -0.095256165
0002a0 b8 65 46 bd 98 f1 a6 bc dd 59 71 bd 35 16 9a bd
       -0.04843685 -0.020378873 -0.05892359 -0.07523767
0002b0 f5 73 b9 3c 0f 91 1c bd ef 9d 1b 3d ba a2 44 3c
       0.0226383 -0.038224276 0.037992414 0.012001688
0002c0 37 6c 54 bc dd 8c 95 bc 30 ce c0 3c 08 e9 6f bc
       -0.012965254 -0.018255645 0.023535818 -0.014642961
0002d0 ff a9 e4 bd 35 39 26 be 41 a2 0e bd 80 e7 dc bd
       -0.11165237 -0.1623276 -0.034822706 -0.107863426
0002e0 5a c1 24 bd d9 a3 2a bc 5e 04 1e 3d 17 25 0d bd
       -0.040223457 -0.010415041 0.038578384 -0.0344592
0002f0 d8 96 9c 3d 93 16 76 bd 2b 3f ce 3c a4 99 88 bd
       0.07645959 -0.060080122 0.025176605 -0.066699296
000300 09 6e 02 be fb 39 8f 3b 75 64 33 be c8 a0 dd 39
       -0.12737288 0.0043709255 -0.1751879 0.00042272196
000310 67 ea b3 bc 48 d7 9a bc 02 47 9e bd 7d 48 d9 bc
       -0.021962358 -0.018901482 -0.077283874 -0.026523823
000320 0e 37 4d bc 40 d6 15 be ca 08 a4 3d 96 84 d1 bd
       -0.012525333 -0.14632511 0.08009489 -0.10230367
000330 e0 a8 1b be c8 3c 2f bc bf d4 ac bd 92 3b 65 bd
       -0.1520114 -0.010695644 -0.084390156 -0.055965014
000340 05 61 a3 3c bd 9d b9 bd 76 00 5f bd 10 ec af bd
       0.019943723 -0.09063289 -0.0544438 -0.08589947
000350 e5 28 ff bd 36 ff 32 be eb cc 93 bd e7 37 88 bc
       -0.12458972 -0.17480168 -0.072168194 -0.016628219
000360 ea db da 3c ed 55 89 3c db 60 de bd 44 20 02 be
       0.026716191 0.016764605 -0.108583175 -0.12707621
000370 e3 84 07 be 4f c0 58 bd 13 26 64 bd 6f 6d 32 be
       -0.13234286 -0.052917775 -0.055700373 -0.17424558
000380 00 43 ed bd df 83 06 be 33 cd 6a bd 3c bd 80 bd
       -0.11585045 -0.13136242 -0.0573246 -0.062860936
000390 1a 08 00 be e4 20 f9 bd cc 4f e0 bd 4e 09 b7 bd
       -0.1250309 -0.121644765 -0.1095272 -0.089373216
0003a0 94 08 06 be ff 41 0f bc ad dc 31 be 64 04 da 3d
       -0.1308921 -0.008743762 -0.17369337 0.10645369
0003b0 3c 92 24 bd 64 a3 a5 bd 06 bc 7a 3c 31 9c f0 3c
       -0.040178522 -0.08087805 0.015303617 0.029371353
0003c0 f5 5a fe bd 33 8a c5 bd b7 68 26 be fd 1c 80 bd
       -0.124196924 -0.096455 -0.16250883 -0.06255529
0003d0 74 c7 69 3c c1 d0 25 bd bb 9e de bd 41 56 ec 3c
       0.014268745 -0.040482286 -0.10870119 0.028849723
0003e0 e2 7f 6b bb 08 9b 5d 3d 99 46 73 bd bb e8 10 be
       -0.0035934378 0.054102927 -0.0593935 -0.1415128
0003f0 fa 01 9d 3c 1e 08 d7 bd 8d 11 f3 bb 5e 13 e1 bd
       0.019165982 -0.10499595 -0.0074178637 -0.10990022

hidden2.bias f4 [40]
000000 6c 80 b4 be 97 b8 23 40 a6 66 1e bd c9 3a a7 bd
       -0.35254228 2.5581415 -0.038672112 -0.08165509
000010 1d 37 e8 be b5 a4 22 40 13 f7 26 40 e2 94 3f bd
       -0.45354548 2.541303 2.6088302 -0.046772845
000020 41 dc bc be 32 80 3d bd e1 22 31 40 08 9e 24 40
       -0.3688679 -0.046264835 2.7677538 2.5721455
000030 70 ea 24 40 30 85 01 bd d5 80 00 be 93 b2 21 40
       2.576809 -0.031621158 -0.12549146 2.5265243
000040 23 aa bc bc 00 8d 80 bd 97 02 d1 be 38 08 04 be
       -0.023030346 -0.062768936 -0.40822288 -0.1289376
000050 9a f6 15 40 97 9d 2c 40 8c b5 2c 40 aa 2d 23 be
       2.3431764 2.6971185 2.6985807 -0.15935388
000060 0e e8 e1 bd 9d d8 25 40 50 51 21 40 18 b8 0a bf
       -0.11030589 2.591346 2.520588 -0.54187155
000070 f1 b3 29 40 b0 c2 28 40 ca a5 2d 40 26 6f 11 be
       2.6516078 2.6368828 2.713244 -0.14202556
000080 b5 05 81 3b 22 69 0a 40 19 4f a7 bd 40 dd 26 be
       0.003937448 2.1626668 -0.081693836 -0.16295338
000090 f9 55 26 40 7a e9 e7 3c b8 16 00 be 5a 89 2e be
       2.5989974 0.028309572 -0.12508667 -0.17044583

hidden3.weight f4 [20, 40]
000000 a3 ac 04 be 88 09 b7 bd 0b 27 84 bd 16 8a b9 3d
       -0.1295648 -0.08937365 -0.06452759 0.09059541
000010 09 4b 18 be 2e 18 0f be 26 0c cf 3d fc 41 89 bd
       -0.14872374 -0.13974068 0.10109739 -0.06702039
000020 30 33 0b be 44 4d 75 3d 22 75 16 be 9c ca 05 be
       -0.13593745 0.05988814 -0.1469312 -0.1306557
000030 e4 44 49 3d d4 bc 2a 3d 61 99 0c be 22 4e 0b be
       0.049137965 0.041683987 -0.13730384 -0.13604024
000040 e2 37 ed 3d 70 33 14 3c 89 fe f8 bd 9d d1 0d 3e
       0.115829244 0.009045467 -0.12157924 0.13849492
000050 ce 4e ab 3d fa b1 7b bd ba e7 9e 3d bc b1 41 3d
       0.0836464 -0.06144903 0.07759042 0.04728864
000060 a4 40 49 3d 76 a9 c8 bd d5 c6 0c be 84 09 4f 3d
       0.04913391 -0.09797947 -0.13747723 0.050546184
000070 d8 34 b9 3c 97 a9 04 3e 0c 6c 14 be 8a ee c1 3d
       0.022608206 0.12955318 -0.14494342 0.09469326
000080 bf 5b 18 be 4f 19 01 be 25 ed b3 bd f8 8e 7d 3d
       -0.14878748 -0.1260731 -0.08785466 0.061903924
000090 50 05 25 3c 38 7f 9d bd a8 bb 64 3d 80 30 8a 3b
       0.010072067 -0.07690281 0.055843025 0.0042172074
0000a0 a8 ec 3a bd 81 8a c7 bc 00 77 72 bc 89 6e 2f bb
       -0.04563585 -0.024358036 -0.01479888 -0.0026768765
0000b0 48 57 06 be 96 ab 95 3d 98 fa 3d be ca 3e 16 be
       -0.13119233 0.07308118 -0.18552625 -0.1467239
0000c0 08 4c 78 3d 70 f0 59 bd 50 13 5b 3d d6 95 be 3d
       0.060619384 -0.053207815 0.053485215 0.09305923
0000d0 93 67 57 3b 82 2a 9d bd 10 37 2b bc 96 4f b7 3d
       0.0032868132 -0.07674123 -0.01045014 0.08950727
0000e0 52 ab ec 3d 84 6b 68 3d 70 b7 38 3d 84 02 a7 bd
       0.11556114 0.05674316 0.045096815 -0.08154777
0000f0 b2 50 47 3d f8 65 5b 3d 6f 33 57 be 98 11 ac bc
       0.04866094 0.05356404 -0.21015714 -0.021004483
000100 03 42 10 3e 93 b7 01 3c 45 ef 50 be c0 dd ff bc
       0.14087681 0.007917303 -0.20403774 -0.031233668
000110 9e 49 6b 3d 8c 5f 2f 3d 35 b5 2f be ac cb a4 3d
       0.057443254 0.04281573 -0.17158969 0.0804666
000120 02 36 83 3d c7 f9 1c 3e 9e b8 2b bd ec 12 5d 3d
       0.064067855 0.15329657 -0.04192411 0.053973123
000130 b4 38 7d bd c2 cc 97 3c f3 92 09 3e 19 bb 82 bd
       -0.061821654 0.018530253 0.13434963 -0.06383342
000140 c8 70 e2 3c a8 1f af 3d 62 18 64 bd b8 fb fa bc
       0.027641669 0.0855096 -0.055687316 -0.030637607
000150 fe 32 bd 3d 00 06 98 bc fb 48 0c be 22 02 9a 3d
       0.092382416 -0.018557549 -0.13699715 0.07519938
000160 dc 89 37 3d c7 af c0 bd 60 03 d7 bd c0 0e 75 bb
       0.044809207 -0.09408527 -0.104986906 -0.0037392825
000170 4c 15 ab bd c0 ab 7c 3c 88 51 b4 3c 8e 71 ea 3d
       -0.083536714 0.015421808 0.022011533 0.1144744
000180 40 25 a3 3d 2e bb d5 3d f8 49 c5 bc 1c 53 03 be
       0.07966089 0.10436092 -0.024083123 -0.12824672
000190 62 77 f3 bd 38 4f 42 3d de ec 13 be 37 6c e7 bd
       -0.11888005 0.04743883 -0.14445826 -0.11299937
0001a0 20 6f 2a bc 30 9e df bd f4 80 18 3d b8 39 05 3d
       -0.010402471 -0.10918844 0.037232354 0.032525748
0001b0 10 79 cb 3c 32 74 f3 bd 9f 47 0d 3e 86 5d c2 3d
       0.024838 -0.11887397 0.13796853 0.094904944
0001c0 bc f3 5e bd a2 a2 db bd d2 1c cc 3d a1 9c 9a bd
       -0.054431662 -0.10724379 0.099664345 -0.07549406
0001d0 20 84 31 3c 2e 65 a7 3d b0 79 8f 3d c0 ea 4d bb
       0.010834724 0.08173595 0.07005632 -0.003142044
0001e0 d6 1d ce 3d 0d a2 10 be f9 7d ce 3c fe 73 4d be
       0.100642845 -0.14124317 0.025206553 -0.20063779
0001f0 db 59 d1 bd 8c f4 a0 3d ec 4b 0f bd 7e 76 c1 bd
       -0.10222217 0.078591436 -0.034984514 -0.09446429
000200 65 d0 19 3e 68 5a bd 3c 77 79 9e bd 41 72 62 be
       0.15020902 0.023114398 -0.07738011 -0.22113897
000210 f1 49 b1 3d 47 cb 7c bd c8 b8 0b be 4d fd e5 bd
       0.08656681 -0.061717298 -0.13644707 -0.11229954
000220 ce d2 16 bc 6b 95 15 be 1a bc 47 be 0b d7 43 be
       -0.009205533 -0.1460778 -0.19505349 -0.19125001
000230 50 33 8b 3d 0d d9 04 be 4f f0 3c be 04 21 75 3d
       0.067968965 -0.12973423 -0.18451045 0.05984594
000240 3a af 62 bd 5a 2e e8 bc 47 de 9d bd 00 82 bf 3a
       -0.05534289 -0.028342415 -0.07708412 0.0014610887
000250 73 64 0d be 14 8c 0a be fe 3b fb bd c9 ba 90 bd
       -0.1380785 -0.13529998 -0.12267302 -0.070668764
000260 f7 7c 2d 3d 3c 5f 4a 3d 99 53 02 3d 60 8d 2e 3c
       0.042355504 0.04940723 0.031818006 0.010653824
000270 26 3e 16 be d5 6b 8a bd e9 0d 15 bd a8 03 3c bc
       -0.14672145 -0.067588486 -0.03639022 -0.011475481
000280 dd 30 ce be 2e cd 80 3f bb cf 8a bc 72 35 0f 3e
       -0.40271655 1.0062616 -0.016944757 0.13985232
000290 32 d0 4d 3e cd 0a 86 3f 11 f3 8f 3f 95 ab ee bc
       0.20098951 1.0472046 1.1246053 -0.029134551
0002a0 97 ca a6 be 94 07 3f bd 42 38 87 3f 60 23 8d 3f
       -0.3257644 -0.046638086 1.0564044 1.102642
0002b0 34 b8 6b 3f ea 72 e4 3d 63 75 7e bd b9 25 89 3f
       0.92077947 0.111547306 -0.062123667 1.0714637
0002c0 59 ef bb bd 16 c7 fe bc f7 43 59 be a2 29 b6 3d
       -0.09176511 -0.031100791 -0.21217333 0.088946596
0002d0 9f 13 25 3f 46 81 88 3f 3c c6 83 3f 0f 9f 99 3d
       0.64483064 1.0664451 1.0294871 0.07501041
0002e0 43 c9 46 bb b0 ba 56 3f 80 e7 4f 3f 8c ac e2 3d
       -0.0030332364 0.8387861 0.81212616 0.11068067
0002f0 f4 10 6d 3f 2a fe 8a 3f 17 88 88 3f fa 07 59 bd
       0.92603993 1.0858815 1.0666531 -0.052986123
000300 6c cc b4 bc 6d 81 14 c1 13 9f 36 3e bc ac 4b bd
       -0.022070132 -9.281598 0.1783412 -0.04972528
000310 21 ab 89 3f 2a 9f 13 bc 63 23 0e bd 28 66 ab 3d
       1.0755349 -0.009010116 -0.034701716 0.08369094
000320 f2 1e a1 be c7 62 93 3f 00 d8 d3 bc b6 45 8b 3d
       -0.31468922 1.151452 -0.025859833 0.06800406
000330 fa 2a 52 3e 27 14 89 3f ff e8 84 3f 18 53 9f 3b
       0.20524207 1.0709275 1.0383605 0.0048622005
000340 0c 76 b0 be c0 aa d0 3b e9 f2 90 3f 32 e9 59 3f
       -0.34465063 0.0063680112 1.132413 0.8512145
000350 78 19 95 3f 91 21 50 3e 91 1e 2c 3e be da 8d 3f
       1.1648397 0.20325305 0.16808535 1.108238
000360 a4 be 56 3c d8 41 8e bd 9c b2 a1 be 4d a5 9a 3c
       0.013106976 -0.069461524 -0.3158158 0.01887765
000370 60 92 43 3f 5c 65 8b 3f 55 27 8b 3f 60 8f e5 3c
       0.76395226 1.0890307 1.0871378 0.028022468
000380 64 dd 34 3e 58 4f 8a 3f 01 16 8c 3f 3b 60 9b 3e
       0.17662579 1.0805464 1.0944215 0.30346856
000390 28 74 97 3f 70 7b 92 3f 31 ec 7d 3f 66 a6 99 bb
       1.1832323 1.144392 0.99188524 -0.0046890257
0003a0 77 4a 04 3e 7b f2 14 c1 e8 13 37 bd 11 a9 3e 3e
       0.12919031 -9.309199 -0.04469672 0.18619181
0003b0 4a 91 7b 3f ea 81 80 3c 83 27 11 ba 21 ee 0a bc
       0.9826857 0.015686948 -0.0005537199 -0.008479626
0003c0 18 8a 5e bd 81 18 2f bd d3 df bd 3d 6d a2 9f 3d
       -0.054330915 -0.042747978 0.09271207 0.07794652
0003d0 f4 12 5b 3e ae 96 b2 bd 43 b4 ac ba 72 55 41 3e
       0.21393949 -0.08720146 -0.0013176281 0.18880251
0003e0 a8 2f 9a 3c 7f 33 d3 bd 73 50 c9 bd 70 b7 87 bd
       0.018821552 -0.103125565 -0.098297976 -0.06626785
0003f0 86 2c b5 bd 8c 43 7d 3d a3 9c 02 3e de 75 07 bd
       -0.08846383 0.061831996 0.12755065 -0.03307139

hidden3.bias f4 [20]
000000 da 0e af bd 67 98 45 be 0a 10 3d bd 7e 06 22 3d
       -0.085477546 -0.19296418 -0.046157874 0.039556973
000010 a9 de 65 40 b0 fa 65 40 07 00 54 be 8c 26 c1 3a
       3.591715 3.5934258 -0.20703135 0.0014736219
000020 30 18 fa bc df 30 2a 3c a0 43 8e 3c 1f 3e b6 bd
       -0.030529112 0.010387628 0.01736623 -0.088985674
000030 47 9f 35 be 29 f6 f8 bd 50 e1 58 40 bb 6b 55 40
       -0.1773654 -0.12156326 3.388752 3.3347003
000040 e4 73 5a 40 fd e7 5b 40 ce 67 57 40 08 c3 6a be
       3.4133234 3.4360344 3.3657107 -0.22925961

hidden4.weight f4 [10, 20]
000000 b4 e4 96 3d da 69 c2 bd 70 ab ee bd 92 c1 52 3e
       0.073678404 -0.09492846 -0.11653793 0.20581654
000010 d8 81 7e bd 40 41 a2 3c 12 c9 ac bd e0 26 15 bd
       -0.062135547 0.019806504 -0.084367886 -0.036414027
000020 4c 3a b5 3d 84 f3 ed 3d 98 a7 1f 3d c8 93 3b 3d
       0.0884901 0.116187125 0.03897819 0.045795232
000030 32 77 2d 3e 09 57 39 be 40 21 e1 bb c7 3e 42 be
       0.1694 -0.18099608 -0.006870419 -0.1896926
000040 c5 e1 41 be 23 e9 5c be ea 5e 46 3e a4 1b fb 3d
       -0.1893378 -0.2157331 0.19372144 0.122611314
000050 bc 44 ee 3d 6c 6c 20 be 18 69 24 bd 92 ff 31 3e
       0.11634204 -0.1566636 -0.040139288 0.17382649
000060 80 7c 5b 3c 58 c1 14 be e0 00 0b bc 3a c1 2c 3e
       0.013396382 -0.1452688 -0.008484095 0.16870585
000070 40 18 6c 3c e9 04 ff bd b4 b3 b2 3d d1 91 1f be
       0.0144100785 -0.124521084 0.08725682 -0.15582968
000080 4b 3b 0f be c6 69 17 3e ee 9c b1 bd a8 7d 07 bd
       -0.13987462 0.14786443 -0.0867251 -0.03307882
000090 8e af 08 be 70 a5 f8 3c 56 b3 1f 3e e4 03 b9 bd
       -0.13348219 0.030352324 0.15595755 -0.09033945
0000a0 f2 ac 98 bd 24 9c 7b bd b8 61 96 3d 28 6c bb bc
       -0.07454862 -0.061428204 0.07342857 -0.022878721
0000b0 0d a6 75 3f 64 bd 84 3f f9 40 30 3c 73 4a 62 be
       0.959565 1.0370297 0.010757678 -0.22098713
0000c0 6a a3 98 bd 6a ac 31 3e ee 04 40 be f8 46 86 bc
       -0.07453044 0.17350927 -0.1875188 -0.016391262
0000d0 9c 8c b9 3d a8 dc 25 be fc 6a 99 3f e9 66 6e 3f
       0.09060022 -0.16197455 1.1985774 0.9312578
0000e0 47 28 90 3f 24 72 90 3f d9 90 9b 3f 1c 43 46 3e
       1.1262292 1.1284833 1.2153579 0.19361538
0000f0 e0 f6 48 3e fa 07 e1 bd 85 3d 3f be c3 10 cc 3d
       0.19625425 -0.109878495 -0.18675812 0.099641345
000100 4a 7e 6f 3f 46 c1 97 3f a8 59 1a bd 5c 52 e8 bd
       0.93552077 1.1855857 -0.03768316 -0.11343834
000110 57 95 a4 3c 86 fd b8 bd 18 44 17 3e 69 42 b6 3d
       0.020090742 -0.09032731 0.1477207 0.088993855
000120 94 f5 39 3e fb 65 35 3e 84 1b 58 3f b0 ae 60 3f
       0.18160087 0.17714684 0.84416986 0.8776655
000130 ea d3 42 3f 9e 58 96 3f cb 79 42 3f c9 d2 17 3c
       0.76104605 1.1745794 0.7596709 0.009266564
000140 b6 37 52 3e 5c 03 fc 3d e8 2d 34 3e 00 d0 5f be
       0.20529065 0.12305328 0.17595637 -0.2185669
000150 60 9e 30 be cb 10 5b be ac d3 56 3e 00 51 55 3c
       -0.17247915 -0.21393125 0.20979184 0.0130198
000160 58 c4 5f bd d8 15 12 3e 96 fe 48 be f0 ea c9 3d
       -0.054630607 0.14266145 -0.19628367 0.09859264
000170 90 0c bf 3d 0d 23 ec bd 96 81 85 bd f2 4d 2c 3e
       0.09328568 -0.11530123 -0.06518857 0.16826609
000180 f8 a5 15 3d 80 dd c5 3d e4 0b 55 be 8a 23 3e be
       0.036535233 0.096613884 -0.20805317 -0.18568245
000190 e8 09 ae 3d f6 0c 1f be 16 9d 19 3e 20 07 55 bc
       0.08497983 -0.15532288 0.1500133 -0.013002187
0001a0 c1 a6 61 3f 25 4f 21 3f c0 9b 96 3c 6e 20 34 3e
       0.8814507 0.6301139 0.018384814 0.17590496
0001b0 e8 d7 40 bd 90 45 a8 3d 56 5d 37 3e fc ee d1 bd
       -0.047080904 0.08216393 0.17906699 -0.10250661
0001c0 98 32 19 be b1 e3 71 3e 90 09 3e 3f 93 67 62 3f
       -0.14960706 0.23622014 0.7423334 0.8843929
0001d0 d9 7d 5f 3f a3 26 81 3f 21 09 46 3f b3 80 fc bd
       0.87301403 1.0089916 0.7735768 -0.12329235
0001e0 ac cb 83 3d 84 eb f8 3d 60 ab 5a 3c 89 25 04 be
       0.06435332 0.12154296 0.013346523 -0.12904944
0001f0 40 ad a9 bc 0e ad a6 bd 18 6d ca 3d e0 d5 f4 3c
       -0.020712495 -0.08138476 0.09884089 0.02988714
000200 2e 18 5c 3e 60 3f 97 bd 40 ca b6 bd 78 3f b9 bc
       0.21493599 -0.07385135 -0.08925295 -0.022613272
000210 40 90 38 be e0 33 c1 3d ba 62 31 3e 90 ec fd 3c
       -0.18023777 0.094337225 0.17322817 0.03099659
000220 18 ee d3 3c e4 9f fb bd e0 ce 2d be 38 56 55 3e
       0.025870368 -0.12286356 -0.16973448 0.20833671
000230 d4 7c 82 bd 28 d5 5f 3e 56 0a ac bd f6 d3 0f be
       -0.06371465 0.21858656 -0.08400409 -0.140457
000240 ea 59 e3 bd 08 bd 29 be 00 f5 e2 3a 8e 22 44 3e
       -0.11101134 -0.16576016 0.0017315447 0.19153807
000250 4c ec 40 3e 9e 61 1a 3e c7 48 24 be 50 95 2f bc
       0.1884014 0.150763 -0.16043387 -0.010716751
000260 0d 92 06 be 67 cb 50 be e0 aa 42 3d f4 94 be 3d
       -0.13141651 -0.20390092 0.04752624 0.09305754
000270 54 2f 3f 3e 88 40 33 bd 4a fb 1b be f8 71 3a 3d
       0.18670398 -0.043762714 -0.15232578 0.045518845
000280 78 61 e6 bc 9c ae df 3d a2 47 06 be 3f 8b 66 bd
       -0.028122649 0.10921976 -0.13113263 -0.05628514
000290 72 79 85 be ba 67 4f be 75 2c 64 be 74 2e e7 3d
       -0.26069218 -0.20254412 -0.22282584 0.11288157
0002a0 b2 2d 1d 3e 52 e3 5d bd 82 00 12 3e 3b 4b 32 bc
       0.15349463 -0.054171868 0.14258006 -0.010882194
0002b0 50 7b 45 3e f2 4c 26 be 6e a4 43 3e 5e d2 6a 3d
       0.19285321 -0.1624029 0.19105694 0.057329528
0002c0 96 58 96 bd 94 09 50 3e a0 18 ca bd 7e fc b8 bd
       -0.07341115 0.20316154 -0.09867978 -0.09032534
0002d0 ad c5 5e be 0e fc fa bd 56 6d d9 bd 1e cc 54 bc
       -0.21755095 -0.12255107 -0.10616557 -0.012988118
0002e0 27 2c a7 3f 33 ac b4 3f 5f ed 74 3d 28 44 80 bc
       1.3060349 1.4115051 0.059796687 -0.0156575
0002f0 5a 8b 5d 3e 70 5f 4d 3d f8 98 e9 bc 72 b7 92 bd
       0.2163519 0.050139844 -0.028515324 -0.07163896
000300 22 33 b3 bc b4 83 07 be 95 99 ac 3f eb 5b 8b 3f
       -0.021874968 -0.13233835 1.348437 1.0887426
000310 03 3c 97 3f 30 3b a1 3f e1 9a 9a 3f ee 12 87 3b
       1.1815189 1.2596188 1.2078515 0.0041221296

hidden4.bias f4 [10]
000000 c8 7f 46 be e0 37 0a be e5 51 85 40 b7 d8 8a 40
       -0.19384682 -0.13497877 4.166247 4.3389544
000010 5f 33 49 be a1 47 7b 40 8b 16 34 be 20 d2 ae bc
       -0.19648503 3.926247 -0.17586724 -0.02134043
000020 bc 11 db 3c 86 82 8b 40
       0.026741855 4.359683

regression.weight f4 [1, 10]
000000 75 55 79 be 12 de 77 3e ce df 8f 3f 8a 57 74 3f
       -0.24349006 0.24205807 1.1240175 0.95446074
000010 64 b7 de bd 78 79 53 3f 42 c9 0c be 88 5b e8 3d
       -0.10874823 0.8260722 -0.13748649 0.11345583
000020 1f 57 07 3d b5 9a af 3f
       0.03304207 1.3719088
