models/model628.pkl (torch, 23622 bytes, 9 tensors)

hidden1.weight f4 [80, 8]
000000 90 46 21 3d 86 de bf 40 7f 03 0f bd 93 db 58 be
       0.039373934 5.9959135 -0.034915444 -0.21177511
000010 b2 19 05 40 f8 01 8f 3e 02 a9 0a 3e 12 86 75 3e
       2.0796933 0.2793119 0.13541034 0.23976925
000020 86 46 2d 3f bf 57 6a 40 92 35 9b bf 58 42 be 3e
       0.67685735 3.6616056 -1.2125723 0.3715999
000030 44 89 58 40 6f 5f 2f bf ee 61 cd be 07 80 20 3f
       3.383378 -0.68504995 -0.40113777 0.62695354
000040 03 6b 87 40 31 c8 75 c0 9d 67 76 bf f1 99 64 bf
       4.231813 -3.8403437 -0.9625185 -0.89297396
000050 79 73 1a 3f 80 4f c5 3f 6f af 84 3f bb f8 f8 be
       0.6033245 1.5414886 1.0366038 -0.48627266
000060 03 fa 99 40 bf ac bb c0 e3 c6 d1 3e 00 20 11 c0
       4.811769 -5.864837 0.4097205 -2.2675781
000070 7d d9 49 40 e3 37 af 3d 07 2a 0e bf e6 8b 94 c0
       3.1538994 0.085555814 -0.5553288 -4.6420774
000080 86 13 a1 40 a1 95 eb be 7e 06 bb 3f 30 01 36 c0
       5.033633 -0.46012595 1.4611356 -2.8438225
000090 31 06 02 3f c1 ba 03 3e 53 a3 0b c0 69 49 85 c0
       0.507907 0.1286421 -2.1818435 -4.165211
0000a0 bf 68 7c 3f b9 36 8b 40 5a 9c 61 3f 64 18 dd 3e
       0.9859733 4.35043 0.881292 0.4318267
0000b0 57 58 5a 40 a2 85 ae 3e d4 09 7e bf cb 7c 74 bf
       3.4116418 0.3408633 -0.99233747 -0.9550292
0000c0 5c e7 04 40 d7 7b 7a 40 dc bd b7 c0 c4 97 8a 3d
       2.076621 3.9138086 -5.741926 0.06767228
0000d0 0f d0 30 40 95 80 a7 be fd 7a 5d bd 38 80 65 3f
       2.762699 -0.32715288 -0.05407237 0.8964877
0000e0 9b 88 6c 40 dd ac 90 c0 5c 0d 3a 40 4a 4d 4d bf
       3.6958377 -4.5211015 2.9070654 -0.8019606
0000f0 db 33 44 40 20 38 d6 bf 70 06 17 c0 c8 80 ed bf
       3.065665 -1.6735878 -2.359768 -1.8554926
000100 09 70 8d 40 3a d9 5d c0 17 cb 36 bf 09 87 db bf
       4.419926 -3.4663835 -0.7140364 -1.7150584
000110 55 89 cd 3f 06 f5 64 bf 4c 75 40 3f 8f 90 38 c0
       1.6057535 -0.89436376 0.7517898 -2.8838232
000120 7e 7b c4 3e fe 8a 5b 3e 62 2e 16 3f ef af 71 bd
       0.38375467 0.2143974 0.58664525 -0.059005674
000130 0c 0a a5 3e d2 a3 44 bf 17 aa b3 be 48 a0 84 bf
       0.32234228 -0.7681247 -0.35090706 -1.0361414
000140 0a d4 92 3f ef 2a aa bf 28 27 32 40 24 7c f4 3e
       1.1470959 -1.3294352 2.78364 0.47750962
000150 b7 93 2b 40 20 49 26 c0 16 1e 0e bf 4e aa 5d 3f
       2.6808908 -2.5982132 -0.5551466 0.8658799
000160 de 8c fe 3f 7c 80 18 c0 b7 a3 d6 3f f3 84 a9 bf
       1.9886739 -2.382842 1.6768712 -1.3243698
000170 d0 a0 69 3e 2a da 41 c0 87 a6 05 c0 67 a4 c8 bf
       0.22815251 -3.0289407 -2.088289 -1.5675172
000180 fa 57 bd bf 6c e0 9c 40 1b 93 98 40 eb 24 a0 be
       -1.4792473 4.9023952 4.767957 -0.31278166
000190 78 59 79 bf 6e f6 97 bf 2b 0c 3c bf 28 28 fd be
       -0.97402143 -1.1872079 -0.73456067 -0.494447
0001a0 58 3a 1d bf 57 6c f1 bf 1f c4 cc 3f 6f 15 0a 3d
       -0.6141715 -1.8861188 1.5997351 0.033711847
0001b0 fa f9 8a 3e 6e 6d 0c 3e de f2 6b 3e eb 98 8f be
       0.27143842 0.13713619 0.23041865 -0.28046355
0001c0 18 07 77 40 e0 e7 99 be 77 56 04 bf 92 4b 6a be
       3.859808 -0.3005972 -0.51694435 -0.2288039
0001d0 a8 b7 a2 3e 1a 7e 46 bf 56 23 aa bf f8 8b 5f 3f
       0.31780744 -0.77536166 -1.3292034 0.8732295
0001e0 8e 4e be 3f de 1e 3e c0 98 a3 8b 40 f1 e7 75 bf
       1.4867723 -2.970634 4.36372 -0.9605704
0001f0 2f 05 d0 3f 49 94 6b be 6a f4 e0 3f 69 f6 72 3f
       1.6251582 -0.23005785 1.7574589 0.9490724
000200 fb a9 43 c0 09 24 53 c0 32 7a 39 be fd 27 99 bf
       -3.0572498 -3.2990744 -0.1811302 -1.1965328
000210 96 38 31 40 e9 ee fa bf 65 37 ba bd 86 9d de bf
       2.7690787 -1.960416 -0.09092597 -1.7391822
000220 56 c9 07 c1 56 c1 73 c0 bf 20 8c c0 46 a7 df 3e
       -8.486654 -3.8086753 -4.3789973 0.43682307
000230 46 4b 7a 40 df 4d 34 bf e2 70 da 3e 6b c8 94 bd
       3.9108443 -0.7043132 0.42664248 -0.07264789
000240 bf e8 96 be c5 de 2f be 7c 84 98 be b8 c5 79 be
       -0.29474446 -0.17174824 -0.29788578 -0.2439183
000250 cc 9b ab bd 88 a2 2e bd 57 3d 2b be 00 a2 64 bd
       -0.08379325 -0.04263547 -0.16722618 -0.055818558
000260 77 4e 45 c0 ab de 4a 40 c2 5e 0b c0 00 ca 21 3f
       -3.082914 3.1698406 -2.1776586 0.6319885
000270 d0 11 6b 40 9c 8b b9 be 8c 8f 96 3f 59 10 a4 3f
       3.6729622 -0.36239326 1.1762557 1.2817489
000280 98 9b 65 3d 91 80 bd 40 6c 3b d4 bc 10 fc 7c be
       0.05605659 5.921944 -0.02590724 -0.24705529
000290 b1 7d 01 40 80 16 95 3e 6e a9 21 3e 60 2e 70 3e
       2.0232966 0.2911873 0.15787289 0.2345519
0002a0 3f f4 41 bf 1f 15 61 c0 4d be ba 40 e9 8e 9a 3f
       -0.75763315 -3.5169141 5.83573 1.2074863
0002b0 ae 42 81 bd d1 33 10 c0 ec 45 3c bf e2 1d a3 bf
       -0.06311546 -2.2531626 -0.7354419 -1.2743495
0002c0 e8 10 89 3f 6b 79 20 c1 fe 2e 22 40 58 d8 78 3f
       1.0708284 -10.029643 2.5341182 0.97205114
0002d0 d4 47 46 40 8c 12 bb bf 98 0e ea bf a8 76 a0 3e
       3.098134 -1.4615035 -1.8285704 0.31340528
0002e0 3d 6a 86 3f 55 03 40 c0 cf 45 6b 40 d4 f6 b6 bc
       1.0501171 -3.0002034 3.6761358 -0.022334494
0002f0 5e 7a 96 bd 92 2f 10 3e 62 f6 ab 3f 73 f4 5d 3e
       -0.073475584 0.14080647 1.3434565 0.21675281
000300 34 6b ef 3f 5a 09 41 40 1c cc 88 3d 37 58 3c c0
       1.8704591 3.0161958 0.06679556 -2.9428842
000310 8e 03 b7 3f 7b 9e 99 3f 28 2f f3 be 82 23 11 c0
       1.429796 1.2001489 -0.47496915 -2.2677922
000320 1c be 20 40 7e 2f d4 c0 a0 08 39 c1 3b a2 4d c0
       2.5116034 -6.6307974 -11.564606 -3.2130268
000330 1b 74 90 bf 2f ea 2f c0 22 26 29 3f 6f f3 21 c0
       -1.1285433 -2.7486684 0.6607381 -2.530483
000340 6c 0b ff bd be 5b 4d c0 b4 c7 c8 3f 22 01 1b 3f
       -0.124533504 -3.2087245 1.5685945 0.60548604
000350 b5 39 aa 3f 45 65 ba bf 0a f4 1b bf 13 ea 0a 3f
       1.3298861 -1.4562155 -0.6091925 0.5426342
000360 ae ba 59 c0 eb f2 b9 40 0a aa ef 3d 27 cc d9 3e
       -3.402019 5.810903 0.11702354 0.42538568
000370 d2 d1 14 40 38 59 35 bf 87 95 31 bf b4 43 12 bf
       2.3253064 -0.7083926 -0.69368786 -0.57134557
000380 1f 38 66 be 8c 9e 3b be a8 2e 61 3d 82 42 ab be
       -0.22482346 -0.183222 0.054976135 -0.3344918
000390 14 31 50 be 9e 5f f8 bd f0 43 8a bc 88 b6 20 3d
       -0.20331222 -0.121276125 -0.016878098 0.039236575
0003a0 20 b9 54 bd 18 c4 4d be f0 52 f2 3d 5c 40 19 be
       -0.05193436 -0.20094335 0.11832225 -0.14965957
0003b0 d3 1c b3 be c0 7a 0d bc 84 03 13 3e a0 c4 24 3c
       -0.3498293 -0.008635223 0.1435681 0.010056645
0003c0 87 11 c6 bc 39 df b6 40 04 de f0 bb 7c 06 79 be
       -0.02417828 5.714749 -0.007350685 -0.2431888
0003d0 f6 1d fc 3f 52 cb 87 3e 57 1d 8d 3d 1b 02 74 3e
       1.9696643 0.2652231 0.06890362 0.23828928
0003e0 36 b3 a9 40 fa e4 42 c0 96 32 d3 bf f4 64 f1 be
       5.3031263 -3.0452256 -1.6499813 -0.47147334
0003f0 3c 75 7e 3f 77 50 d5 3f 3c 59 07 3f 99 60 9e 3e
       0.99397635 1.6665181 0.52870536 0.30933073

hidden1.bias f4 [80]
000000 4d 5f 8c c0 72 6d 5b c0 f0 c6 e1 be 18 4d d8 bf
       -4.3866334 -3.428555 -0.4409709 -1.6898527
000010 d0 f3 fd bf 6f 03 76 c0 d1 f2 96 c0 5e d3 00 3f
       -1.9840031 -3.8439596 -4.7171407 0.5032252
000020 ba a6 81 be bb d7 a9 bf d6 67 83 3f 48 50 9a 3e
       -0.25322515 -1.3268961 1.0266063 0.30139375
000030 f2 e3 2f c0 7a cd 1a be 11 0c 7f bf 49 13 a2 3f
       -2.7482877 -0.15117446 -0.99627787 1.2662135
000040 3a 3b 21 40 ce 71 b6 3f f8 93 80 be bd 4a 74 c0
       2.51924 1.425348 -0.2511289 -3.8170617
000050 48 8e 89 c0 9e c4 cf 3f c8 15 8f 3f 83 8d 1e 3e
       -4.2986183 1.6231878 1.1178522 0.1548367
000060 04 59 5a c0 3d 8e 9a 3f 91 c9 19 3f 3e 2c 55 c0
       -3.411683 1.2074658 0.6007319 -3.3308253
000070 00 6d 5b bd 33 e4 86 be 38 78 84 c0 ce 15 aa bf
       -0.053570747 -0.26345977 -4.139675 -1.3287904
000080 39 dc 36 c0 15 0e 8d 3f 6d c5 7a c0 5b 8d 41 c0
       -2.8571913 1.1019922 -3.9183 -3.0242527
000090 71 66 23 bf e7 11 f3 bf 2e 82 89 c0 1f f7 98 c0
       -0.6382819 -1.8989838 -4.297141 -4.780166
0000a0 3d ac 9e 3f 52 9f 8d c0 7b 3e 8b c0 35 bd cc bf
       1.2396313 -4.4256983 -4.351377 -1.5995241
0000b0 c0 c4 4f bf 61 44 7b be ac de ce bf 89 e4 33 bf
       -0.8115959 -0.24537803 -1.6161704 -0.7027059
0000c0 2a 46 90 c0 4b 1e 87 c0 e6 af 90 be 79 54 a3 3f
       -4.508565 -4.222448 -0.282592 1.2760154
0000d0 95 3c ab be 98 fc 07 be 70 56 94 bf d1 f5 72 be
       -0.33444658 -0.1327995 -1.1588879 -0.23726584
0000e0 b2 64 0c 3f f5 f9 92 c0 bb c3 45 3e 56 02 12 bf
       0.5484115 -4.5930123 0.19312946 -0.57034814
0000f0 1a 6d 17 3f 45 b6 c3 bf 3c 47 b8 be bf fc a0 3a
       0.5915085 -1.5289999 -0.35991848 0.0012282355
000100 e4 85 12 bf 13 58 19 c0 f5 e4 74 3e 05 cc 8e 3f
       -0.5723555 -2.3960006 0.23915465 1.1156012
000110 65 d5 90 c0 8d ed 6d bf eb 80 19 c0 15 c7 9f be
       -4.526049 -0.929406 -2.3984935 -0.31206575
000120 a9 2d 0c 3f 82 8f bd be 00 67 ef bf f0 3d 88 c0
       0.5475717 -0.3702355 -1.8703308 -4.2575607
000130 52 83 9d be ca 9b 2d 3f b7 04 53 c0 d6 4d 59 c0
       -0.30764252 0.6781584 -3.2971628 -3.3953757

hidden2.weight f4 [40, 80]
000000 10 86 f7 3c 96 9f 85 3d 56 62 3b bd aa f8 b6 be
       0.030215293 0.06524579 -0.045748077 -0.3573659
000010 be 29 a3 be 00 00 b6 b7 90 5c 50 bc 1b 79 9d be
       -0.31867784 -2.169609e-05 -0.012717381 -0.3075646
000020 ee bf bd be aa 06 87 be 5a 32 76 be 80 3d 63 be
       -0.37060493 -0.26372272 -0.24042645 -0.22191429
000030 7d c9 c5 be 9a 44 77 be 75 c7 91 bd 75 a3 b6 be
       -0.38630286 -0.24147263 -0.071181215 -0.35671583
000040 ee e4 bc be d1 e7 b6 be 38 ae db 3c 48 16 4c bc
       -0.3689341 -0.35723737 0.026816472 -0.012456484
000050 f4 1e be bd d7 03 a4 be 83 5b 45 be c1 43 84 be
       -0.092832476 -0.3203418 -0.1927319 -0.25832942
000060 5b 73 91 be 9a b6 a2 be 00 8d 91 be 08 2c 67 3d
       -0.28408322 -0.3177994 -0.28427887 0.056438476
000070 a4 5e ac bd 18 c8 34 bd 1e dd 65 bd 91 0e a8 be
       -0.08416489 -0.044136137 -0.056119077 -0.32823613
000080 60 79 65 3c 46 8a 9f be 4e 74 c7 bd 7c 25 aa be
       0.014005989 -0.31160182 -0.0973898 -0.33231723
000090 e8 51 ed bc 1c 61 3d 3d 78 bc 72 bd 01 44 b4 bd
       -0.02896972 0.04623519 -0.05926177 -0.08802033
0000a0 fb 9e b4 be 20 3d 83 bb 80 90 69 bb 5e 17 d9 3d
       -0.35277542 -0.0040050894 -0.0035639107 0.1060016
0000b0 3d a6 93 be 46 e3 c5 3d e8 5b 7f be 54 3c aa be
       -0.28837767 0.096624896 -0.24937403 -0.33249152
0000c0 fb f9 df bd 94 66 9a 3d b8 cb 20 3d ed 70 4d be
       -0.10936352 0.075390965 0.03925678 -0.20062609
0000d0 00 e8 8e be 58 38 8e be e2 d9 8d bd 53 d2 41 be
       -0.27911377 -0.27777362 -0.069263235 -0.18927889
0000e0 d0 0d b9 bb 86 56 47 bd fb bd 6d bd 78 07 58 be
       -0.0056473985 -0.0486665 -0.058042508 -0.21096599
0000f0 76 ca 4e be 73 01 a5 be e4 14 6e be 97 b1 48 be
       -0.2019442 -0.32227668 -0.23250157 -0.19598995
000100 84 5b 8f bd 6e 41 29 be f8 eb 48 be d4 1a 3e be
       -0.06999877 -0.16528866 -0.19621265 -0.18564922
000110 60 f1 be bc a0 be b5 be 9c ec 92 3d 8e 2b 9a bd
       -0.023308456 -0.35496998 0.07174036 -0.07527839
000120 e1 f4 4c be 2a 3c c3 be 9a 55 8e be f4 58 80 bc
       -0.20015289 -0.3813184 -0.27799684 -0.015667416
000130 11 cd 30 be 1f 54 9d be 20 6a 9b 3c 24 7a 1d bd
       -0.17265727 -0.30728242 0.018971503 -0.03844656
000140 b5 85 1c 40 8d 21 1c 3f de 2a 92 3e 40 1c d0 c0
       2.4456608 0.60988694 0.2854833 -6.5034485
000150 58 2a c2 3e 06 41 8e 3f 26 fd b1 3f c7 87 f9 3f
       0.3792293 1.1113594 1.390538 1.9494561
000160 a4 c1 7d 3f f5 4b 3e 3c 6c d0 64 3f 7e b9 a4 bf
       0.991236 0.011614789 0.89380527 -1.2869108
000170 45 90 8a c0 07 4a 56 be 44 f8 3b 3e dc f9 ef bd
       -4.330111 -0.20926677 0.18356425 -0.11717579
000180 0c c8 ef 3f 0a c8 86 c0 98 d7 6d 3d b8 3f 76 40
       1.8732924 -4.211919 0.058066934 3.847639
000190 a1 65 fd 3f 81 cd e4 bf a7 a1 1c c0 e4 f3 ac 3e
       1.979664 -1.7875215 -2.4473665 0.33779824
0001a0 68 ad 53 bf 1e 92 84 40 d2 05 1b 3f 89 0a b1 3f
       -0.8268647 4.1428366 0.60555756 1.383134
0001b0 dd 38 74 bd 00 f7 bf bd ce 60 d0 3f c8 68 93 3f
       -0.05962454 -0.093732834 1.6279542 1.1516352
0001c0 ba c8 3b 40 84 60 86 3e c1 82 b6 3f 87 83 d0 3f
       2.9341264 0.2624551 1.4258653 1.6290139
0001d0 ea 0a c2 c0 76 52 a9 3d 7f 0d f5 3f cc 23 70 40
       -6.0638323 0.08267681 1.9144744 3.7521849
0001e0 1c aa 25 c0 99 d9 00 40 b5 d5 ef 3f fc 27 a8 3d
       -2.5885077 2.013281 1.8737093 0.082107514
0001f0 35 c2 7f 3f 04 d5 d6 bd 7a 2f 8b 3f cd e7 a3 bd
       0.9990571 -0.10489848 1.0873864 -0.08003197
000200 ea a1 94 c0 10 b1 b4 3f 89 9f 15 3e 65 df 53 bf
       -4.644765 1.4116535 0.14611639 -0.8276275
000210 09 b2 52 bd c7 7c a9 bc 82 96 04 be 6c 80 0a bf
       -0.05143932 -0.020689381 -0.12948039 -0.54102206
000220 8b 05 53 3f bc 3a 5b 3f c7 fc 0f 40 a3 d7 06 41
       0.8243033 0.85636497 2.2498033 8.427646
000230 0f f3 97 3e 80 d3 65 3f 0e 31 9e 3f b8 1a 49 c0
       0.29677626 0.8977585 1.235872 -3.1422558
000240 ab 17 da 3e 40 ab 23 c0 55 a6 63 3f e3 88 88 bf
       0.42596182 -2.5573273 0.8892568 -1.0666775
000250 70 2d bd 40 9b ab 9d be fa 91 6e 3f 54 15 aa 3d
       5.9117966 -0.30794987 0.9319149 0.08304849
000260 c8 76 8d 40 27 16 2f 3e 8c 99 89 c0 0e 3a 08 40
       4.4207497 0.17098294 -4.2999935 2.1285434
000270 30 54 14 3e 22 6f 24 bf 38 73 8e 3f 48 c0 5b 3f
       0.1448524 -0.64232075 1.1128912 0.8584027
000280 6b 2f 1f bd 2c 55 a0 3d 7c 87 a3 3c 69 f4 db bd
       -0.03886358 0.07828745 0.019962065 -0.10739977
000290 ac 28 88 bd d2 94 d4 bd 05 30 cf bd aa 15 c3 bd
       -0.066483825 -0.10379948 -0.10116581 -0.095256165
0002a0 b8 65 46 bd 98 f1 a6 bc dd 59 71 bd 35 16 9a bd
       -0.04843685 -0.020378873 -0.05892359 -0.07523767
0002b0 f5 73 b9 3c 0f 91 1c bd ef 9d 1b 3d ba a2 44 3c
       0.0226383 -0.038224276 0.037992414 0.012001688
0002c0 37 6c 54 bc dd 8c 95 bc 30 ce c0 3c 08 e9 6f bc
       -0.012965254 -0.018255645 0.023535818 -0.014642961
0002d0 ff a9 e4 bd 35 39 26 be 41 a2 0e bd 80 e7 dc bd
       -0.11165237 -0.1623276 -0.034822706 -0.107863426
0002e0 5a c1 24 bd d9 a3 2a bc 5e 04 1e 3d 17 25 0d bd
       -0.040223457 -0.010415041 0.038578384 -0.0344592
0002f0 d8 96 9c 3d 93 16 76 bd 2b 3f ce 3c a4 99 88 bd
       0.07645959 -0.060080122 0.025176605 -0.066699296
000300 09 6e 02 be fb 39 8f 3b 75 64 33 be c8 a0 dd 39
       -0.12737288 0.0043709255 -0.1751879 0.00042272196
000310 67 ea b3 bc 48 d7 9a bc 02 47 9e bd 7d 48 d9 bc
       -0.021962358 -0.018901482 -0.077283874 -0.026523823
000320 0e 37 4d bc 40 d6 15 be ca 08 a4 3d 96 84 d1 bd
       -0.012525333 -0.14632511 0.08009489 -0.10230367
000330 e0 a8 1b be c8 3c 2f bc bf d4 ac bd 92 3b 65 bd
       -0.1520114 -0.010695644 -0.084390156 -0.055965014
000340 05 61 a3 3c bd 9d b9 bd 76 00 5f bd 10 ec af bd
       0.019943723 -0.09063289 -0.0544438 -0.08589947
000350 e5 28 ff bd 36 ff 32 be eb cc 93 bd e7 37 88 bc
       -0.12458972 -0.17480168 -0.072168194 -0.016628219
000360 ea db da 3c ed 55 89 3c db 60 de bd 44 20 02 be
       0.026716191 0.016764605 -0.108583175 -0.12707621
000370 e3 84 07 be 4f c0 58 bd 13 26 64 bd 6f 6d 32 be
       -0.13234286 -0.052917775 -0.055700373 -0.17424558
000380 00 43 ed bd df 83 06 be 33 cd 6a bd 3c bd 80 bd
       -0.11585045 -0.13136242 -0.0573246 -0.062860936
000390 1a 08 00 be e4 20 f9 bd cc 4f e0 bd 4e 09 b7 bd
       -0.1250309 -0.121644765 -0.1095272 -0.089373216
0003a0 94 08 06 be ff 41 0f bc ad dc 31 be 64 04 da 3d
       -0.1308921 -0.008743762 -0.17369337 0.10645369
0003b0 3c 92 24 bd 64 a3 a5 bd 06 bc 7a 3c 31 9c f0 3c
       -0.040178522 -0.08087805 0.015303617 0.029371353
0003c0 dc 3a e2 be 43 42 0a bf 3c 37 35 bf 53 f2 a5 be
       -0.4418553 -0.5400736 -0.70787406 -0.3241144
0003d0 1c 4a e1 be 6a b0 a6 be bb 9e de bd e9 a0 8b be
       -0.44001853 -0.32556468 -0.10870119 -0.27271202
0003e0 c0 eb 80 be 08 9b 5d 3d e3 3e 96 be b4 25 43 be
       -0.25179863 0.054102927 -0.29344854 -0.19057351
0003f0 e0 5b e5 bc d4 cd 14 be ac 67 e9 be ba ce dc be
       -0.027997911 -0.14531642 -0.45586908 -0.4312647

hidden2.bias f4 [40]
000000 6c 80 b4 be 78 d9 5c 3f a6 66 1e bd f9 a8 a3 be
       -0.35254228 0.8626933 -0.038672112 -0.31964853
000010 1d 37 e8 be 61 1a 81 3f 6c df 7f 3f f5 78 5c be
       -0.45354548 1.0086175 0.9995029 -0.21530516
000020 41 dc bc be 30 79 d1 be 00 fc 09 40 8e f5 be 3f
       -0.3688679 -0.4091277 2.1560059 1.4918687
000030 a1 63 84 3f c3 d4 b2 be d5 80 00 be 40 93 79 3f
       1.0342904 -0.3492795 -0.12549146 0.9749031
000040 23 aa bc bc 00 8d 80 bd 97 02 d1 be 38 08 04 be
       -0.023030346 -0.062768936 -0.40822288 -0.1289376
000050 33 59 3d 40 d0 76 8d 3f 20 4e 93 3f 72 73 93 be
       2.9585693 1.1051884 1.1508217 -0.28799015
000060 aa 53 9c be e6 e7 8c 3f 71 ac d8 3f 18 b8 0a bf
       -0.3053258 1.100827 1.6927625 -0.54187155
000070 a3 67 ad 3f 86 90 03 40 4a f1 90 3f 26 6f 11 be
       1.3547252 2.055696 1.1323636 -0.14202556
000080 b5 05 81 3b 1b 0d f3 3f 19 4f a7 bd 40 dd 26 be
       0.003937448 1.8988374 -0.081693836 -0.16295338
000090 84 35 81 3f 7a e9 e7 3c b8 16 00 be 5a 89 2e be
       1.0094457 0.028309572 -0.12508667 -0.17044583

hidden3.weight f4 [20, 40]
000000 a3 ac 04 be 88 09 b7 bd 0b 27 84 bd 16 8a b9 3d
       -0.1295648 -0.08937365 -0.06452759 0.09059541
000010 09 4b 18 be 2e 18 0f be 26 0c cf 3d fc 41 89 bd
       -0.14872374 -0.13974068 0.10109739 -0.06702039
000020 30 33 0b be 44 4d 75 3d 22 75 16 be 9c ca 05 be
       -0.13593745 0.05988814 -0.1469312 -0.1306557
000030 e4 44 49 3d d4 bc 2a 3d 61 99 0c be 22 4e 0b be
       0.049137965 0.041683987 -0.13730384 -0.13604024
000040 e2 37 ed 3d 70 33 14 3c 89 fe f8 bd 9d d1 0d 3e
       0.115829244 0.009045467 -0.12157924 0.13849492
000050 ce 4e ab 3d fa b1 7b bd ba e7 9e 3d bc b1 41 3d
       0.0836464 -0.06144903 0.07759042 0.04728864
000060 a4 40 49 3d 76 a9 c8 bd d5 c6 0c be 84 09 4f 3d
       0.04913391 -0.09797947 -0.13747723 0.050546184
000070 d8 34 b9 3c 97 a9 04 3e 0c 6c 14 be 8a ee c1 3d
       0.022608206 0.12955318 -0.14494342 0.09469326
000080 bf 5b 18 be 4f 19 01 be 25 ed b3 bd f8 8e 7d 3d
       -0.14878748 -0.1260731 -0.08785466 0.061903924
000090 50 05 25 3c 38 7f 9d bd a8 bb 64 3d 80 30 8a 3b
       0.010072067 -0.07690281 0.055843025 0.0042172074
0000a0 a8 ec 3a bd c4 1c af be 00 77 72 bc 89 6e 2f bb
       -0.04563585 -0.34201634 -0.01479888 -0.0026768765
0000b0 48 57 06 be 62 72 7a be b4 d0 00 bf ca 3e 16 be
       -0.13119233 -0.24457696 -0.50318456 -0.1467239
0000c0 08 4c 78 3d 70 f0 59 bd b1 41 87 be 43 fd 65 be
       0.060619384 -0.053207815 -0.26417306 -0.22459893
0000d0 4f f5 a0 be 82 2a 9d bd 10 37 2b bc 65 a0 69 be
       -0.31437156 -0.07674123 -0.01045014 -0.22815092
0000e0 52 ab ec 3d 84 6b 68 3d 70 b7 38 3d 84 02 a7 bd
       0.11556114 0.05674316 0.045096815 -0.08154777
0000f0 06 ba 89 be 5e 37 87 be e7 1e 07 bf 98 11 ac bc
       -0.26899737 -0.2640943 -0.5278153 -0.021004483
000100 03 42 10 3e 61 96 9e be dc 8d 05 bf c0 dd ff bc
       0.14087681 -0.30974105 -0.52169585 -0.031233668
000110 e8 3a 85 be 2b b8 8c be ba 7e fa be ac cb a4 3d
       -0.26021504 -0.2748426 -0.4892481 0.0804666
000120 02 36 83 3d 68 4e 28 be 9e b8 2b bd ec 12 5d 3d
       0.064067855 -0.1643616 -0.04192411 0.053973123
000130 35 4b c2 be c2 cc 97 3c f3 92 09 3e 19 bb 82 bd
       -0.37948003 0.018530253 0.13434963 -0.06383342
000140 c8 70 e2 3c a8 1f af 3d 62 18 64 bd b8 fb fa bc
       0.027641669 0.0855096 -0.055687316 -0.030637607
000150 fe 32 bd 3d 00 06 98 bc fb 48 0c be 22 02 9a 3d
       0.092382416 -0.018557549 -0.13699715 0.07519938
000160 dc 89 37 3d c7 af c0 bd 60 03 d7 bd c0 0e 75 bb
       0.044809207 -0.09408527 -0.104986906 -0.0037392825
000170 4c 15 ab bd c0 ab 7c 3c 88 51 b4 3c 8e 71 ea 3d
       -0.083536714 0.015421808 0.022011533 0.1144744
000180 40 25 a3 3d 2e bb d5 3d f8 49 c5 bc 1c 53 03 be
       0.07966089 0.10436092 -0.024083123 -0.12824672
000190 62 77 f3 bd 38 4f 42 3d de ec 13 be 37 6c e7 bd
       -0.11888005 0.04743883 -0.14445826 -0.11299937
0001a0 20 6f 2a bc 30 9e df bd f4 80 18 3d b8 39 05 3d
       -0.010402471 -0.10918844 0.037232354 0.032525748
0001b0 10 79 cb 3c 32 74 f3 bd 9f 47 0d 3e 86 5d c2 3d
       0.024838 -0.11887397 0.13796853 0.094904944
0001c0 bc f3 5e bd a2 a2 db bd d2 1c cc 3d a1 9c 9a bd
       -0.054431662 -0.10724379 0.099664345 -0.07549406
0001d0 20 84 31 3c 2e 65 a7 3d b0 79 8f 3d c0 ea 4d bb
       0.010834724 0.08173595 0.07005632 -0.003142044
0001e0 d6 1d ce 3d 7e 29 ec be f9 7d ce 3c 13 0d aa bd
       0.100642845 -0.46125406 0.025206553 -0.08303275
0001f0 db 59 d1 bd 64 5a 11 bf 8a 66 1b 3e c9 11 37 bf
       -0.10222217 -0.5677855 0.15175834 -0.71511513
000200 65 d0 19 3e 52 16 d4 be b8 c7 26 40 b9 d8 6a c0
       0.15020902 -0.4142328 2.6059399 -3.6694777
000210 9c b2 fc bf 47 cb 7c bd c8 b8 0b be 2e 2b 7e bf
       -1.9742007 -0.061717298 -0.13644707 -0.99284637
000220 ce d2 16 bc 6b 95 15 be 1a bc 47 be 0b d7 43 be
       -0.009205533 -0.1460778 -0.19505349 -0.19125001
000230 f6 30 34 c0 15 8c 35 3e 67 39 0d bf d8 ca 41 3f
       -2.8154883 0.17729218 -0.55165714 0.7570014
000240 3a af 62 bd 4a af 7c c0 09 c8 49 c0 00 82 bf 3a
       -0.05534289 -3.9481988 -3.1528342 0.0014610887
000250 80 72 82 3f c5 31 38 c0 3c 5a b2 bf c9 ba 90 bd
       1.0191193 -2.8780377 -1.3933787 -0.070668764
000260 f7 7c 2d 3d a9 55 0a 41 99 53 02 3d 60 8d 2e 3c
       0.042355504 8.645913 0.031818006 0.010653824
000270 d1 82 b1 bf d5 6b 8a bd e9 0d 15 bd a8 03 3c bc
       -1.3868047 -0.067588486 -0.03639022 -0.011475481
000280 dd 30 ce be 92 f9 0e 3f bb cf 8a bc 54 0a 3e be
       -0.40271655 0.55849564 -0.016944757 -0.18558627
000290 32 d0 4d 3e 27 94 2e 3f e1 68 32 3f be 38 d5 bd
       0.20098951 0.6819481 0.6969128 -0.10411213
0002a0 97 ca a6 be ab 11 83 3e dc 22 83 3f 82 73 94 3f
       -0.3257644 0.25599417 1.0245013 1.159775
0002b0 2d a0 a9 3f b6 0e 53 be 63 75 7e bd 6e ee 9d 3f
       1.3252007 -0.2061108 -0.062123667 1.2338388
0002c0 59 ef bb bd 16 c7 fe bc f7 43 59 be a2 29 b6 3d
       -0.09176511 -0.031100791 -0.21217333 0.088946596
0002d0 c8 b8 be 40 e2 32 2a 3f 0b 83 31 3f 35 7e e1 bc
       5.9600563 0.6648389 0.6934058 -0.027526
0002e0 db 8a ae 3e e0 f8 67 3f 42 eb 32 3f 8c ac e2 3d
       0.34090313 0.9061413 0.69890225 0.11068067
0002f0 d9 97 2c 3f 70 68 76 3f 72 18 9d 3f fa 07 59 bd
       0.674192 0.9625311 1.2273085 -0.052986123
000300 6c cc b4 bc a1 25 31 c1 13 9f 36 3e bc ac 4b bd
       -0.022070132 -11.071687 0.1783412 -0.04972528
000310 47 9f a3 3f 2a 9f 13 bc 63 23 0e bd 28 66 ab 3d
       1.2782983 -0.009010116 -0.034701716 0.08369094
000320 f2 1e a1 be 08 2a 51 3f 00 d8 d3 bc ce cb 83 be
       -0.31468922 0.8170476 -0.025859833 -0.25741428
000330 fa 2a 52 3e f2 93 4f 3f 98 f1 3e 3f 96 64 8c bd
       0.20524207 0.8108512 0.7458739 -0.06855123
000340 0c 76 b0 be 35 35 9e 3e 9b 1f a4 3f ee c1 80 3f
       -0.34465063 0.3089997 1.2822145 1.0059183
000350 0a 8d d3 3f 42 4d ea bd 91 1e 2c 3e 54 af ad 3f
       1.6527417 -0.11440517 0.16808535 1.3569131
000360 a4 be 56 3c d8 41 8e bd 9c b2 a1 be 4d a5 9a 3c
       0.013106976 -0.069461524 -0.3158158 0.01887765
000370 df 89 c4 40 78 dc 52 3f 80 0b 5b 3f ed 5b 98 bd
       6.14183 0.8236766 0.8556442 -0.074394085
000380 68 43 05 3f 1d 1d 97 3f 51 bc 8e 3f 3b 60 9b 3e
       0.5205598 1.180576 1.115122 0.30346856
000390 69 25 8b 3f 07 b7 93 3f fa ce 9e 3f 66 a6 99 bb
       1.0870792 1.154023 1.2406914 -0.0046890257
0003a0 77 4a 04 3e 63 21 30 c1 e8 13 37 bd 11 a9 3e 3e
       0.12919031 -11.008151 -0.04469672 0.18619181
0003b0 0c dc a2 3f ea 81 80 3c 83 27 11 ba 21 ee 0a bc
       1.2723403 0.015686948 -0.0005537199 -0.008479626
0003c0 18 8a 5e bd 81 18 2f bd d3 df bd 3d 6d a2 9f 3d
       -0.054330915 -0.042747978 0.09271207 0.07794652
0003d0 f4 12 5b 3e ae 96 b2 bd 43 b4 ac ba 72 55 41 3e
       0.21393949 -0.08720146 -0.0013176281 0.18880251
0003e0 a8 2f 9a 3c 7f 33 d3 bd 73 50 c9 bd 70 b7 87 bd
       0.018821552 -0.103125565 -0.098297976 -0.06626785
0003f0 86 2c b5 bd 8c 43 7d 3d a3 9c 02 3e de 75 07 bd
       -0.08846383 0.061831996 0.12755065 -0.03307139

hidden3.bias f4 [20]
000000 da 0e af bd 26 b8 02 bf 0a 10 3d bd eb af a1 40
       -0.085477546 -0.5106224 -0.046157874 5.0527244
000010 40 ab 5a 40 33 51 73 40 07 00 54 be f8 e2 a1 be
       3.4167023 3.801831 -0.20703135 -0.31618476
000020 30 18 fa bc df 30 2a 3c 11 05 c6 bf 1f 3e b6 bd
       -0.030529112 0.010387628 -1.5470296 -0.088985674
000030 47 9f 35 be 34 6d be be 71 95 5e 40 a8 f0 44 40
       -0.1773654 -0.3719269 3.4778712 3.0771885
000040 b5 ee 46 40 44 4b 6a 40 07 66 4a 40 08 c3 6a be
       3.1083195 3.6608438 3.1624773 -0.22925961

hidden4.weight f4 [10, 20]
000000 b4 e4 96 3d da 69 c2 bd 70 ab ee bd 28 ca ed bc
       0.073678404 -0.09492846 -0.11653793 -0.02902706
000010 ae 86 ef bf d1 d2 b0 3d 12 c9 ac bd e0 26 15 bd
       -1.8712976 0.0863396 -0.084367886 -0.036414027
000020 4c 3a b5 3d 84 f3 ed 3d 98 a7 1f 3d c8 93 3b 3d
       0.0884901 0.116187125 0.03897819 0.045795232
000030 32 77 2d 3e 09 57 39 be 89 f3 a3 bf ae 01 02 c0
       0.1694 -0.18099608 -1.2808696 -2.0313525
000040 61 a1 f7 bf be 2b d1 bd 03 48 b4 bf a4 1b fb 3d
       -1.9346124 -0.10213421 -1.4084476 0.122611314
000050 bc 44 ee 3d 6c 6c 20 be 18 69 24 bd b2 09 9e 3a
       0.11634204 -0.1566636 -0.040139288 0.0012057333
000060 2b 0e 67 bf af aa 88 be e0 00 0b bc 3a c1 2c 3e
       -0.90255994 -0.2669272 -0.008484095 0.16870585
000070 40 18 6c 3c e9 04 ff bd 54 ee 6b be d1 91 1f be
       0.0144100785 -0.124521084 -0.23040134 -0.15582968
000080 4b 3b 0f be c6 69 17 3e 6a f4 78 bf 4c d9 21 bf
       -0.13987462 0.14786443 -0.97247946 -0.63222194
000090 7f 49 36 bf d7 02 a9 bd b1 20 ca be e4 03 b9 bd
       -0.71205896 -0.08252495 -0.39478067 -0.09033945
0000a0 f2 ac 98 bd 97 30 83 3e b8 61 96 3d e3 3a dd 40
       -0.07454862 0.2562301 0.07342857 6.9134383
0000b0 18 5a c4 3f 6b c8 da 3f f9 40 30 3c 83 fb c5 3d
       1.5339994 1.7092413 0.010757678 0.09667113
0000c0 6a a3 98 bd 6a ac 31 3e 3d f6 94 be f8 46 86 bc
       -0.07453044 0.17350927 -0.29094115 -0.016391262
0000d0 9c 8c b9 3d 3e 16 c3 3d b6 1d ed 3f 19 d1 c2 3f
       0.09060022 0.09525727 1.8524692 1.5220062
0000e0 69 97 d3 3f bb 7b ee 3f cc 8b ee 3f 1c 43 46 3e
       1.6530582 1.863151 1.8636413 0.19361538
0000f0 e0 f6 48 3e 30 c4 54 3e 85 3d 3f be 43 ef dd 40
       0.19625425 0.20777965 -0.18675812 6.9354568
000100 3c 81 a2 3f 76 a9 ce 3f a8 59 1a bd fc 1e 51 3e
       1.2695689 1.6145465 -0.03768316 0.20421976
000110 57 95 a4 3c 86 fd b8 bd cc 55 ee 3c 69 42 b6 3d
       0.020090742 -0.09032731 0.029093646 0.088993855
000120 94 f5 39 3e df 66 de 3e 2e b5 a0 3f 49 4c 9d 3f
       0.18160087 0.4343786 1.2555292 1.2288905
000130 24 37 86 3f 09 35 d5 3f 57 7d 95 3f c9 d2 17 3c
       1.0485578 1.665681 1.1678876 0.009266564
000140 b6 37 52 3e 5c 03 fc 3d e8 2d 34 3e 00 d0 5f be
       0.20529065 0.12305328 0.17595637 -0.2185669
000150 60 9e 30 be 3e 16 08 bf ac d3 56 3e 00 51 55 3c
       -0.17247915 -0.5315894 0.20979184 0.0130198
000160 58 c4 5f bd d8 15 12 3e 96 fe 48 be f0 ea c9 3d
       -0.054630607 0.14266145 -0.19628367 0.09859264
000170 90 0c bf 3d 0d 23 ec bd 96 81 85 bd f2 4d 2c 3e
       0.09328568 -0.11530123 -0.06518857 0.16826609
000180 f8 a5 15 3d 6f 59 62 be e4 0b 55 be 8a 23 3e be
       0.036535233 -0.22104429 -0.20805317 -0.18568245
000190 e8 09 ae 3d 3d 3b 26 3e 16 9d 19 3e 8b 26 d3 40
       0.08497983 0.16233535 0.1500133 6.598455
0001a0 26 8e 50 3f 33 28 27 3f c0 9b 96 3c 56 b4 fc 3e
       0.814669 0.65295714 0.018384814 0.49356335
0001b0 e8 d7 40 bd 90 45 a8 3d 82 2b 0b 3d fc ee d1 bd
       -0.047080904 0.08216393 0.03397704 -0.10250661
0001c0 98 32 19 be ca a5 fc 3e 3a a3 3f 3f fd fc 55 3f
       -0.14960706 0.49345237 0.7485844 0.83589154
0001d0 3e 08 43 3f d3 e9 8b 3f 68 f3 47 3f b3 80 fc bd
       0.7618445 1.0930732 0.78105783 -0.12329235
0001e0 ac cb 83 3d 84 eb f8 3d 60 ab 5a 3c 89 25 04 be
       0.06435332 0.12154296 0.013346523 -0.12904944
0001f0 40 ad a9 bc 0e ad a6 bd 18 6d ca 3d e0 d5 f4 3c
       -0.020712495 -0.08138476 0.09884089 0.02988714
000200 2e 18 5c 3e 60 3f 97 bd 40 ca b6 bd 78 3f b9 bc
       0.21493599 -0.07385135 -0.08925295 -0.022613272
000210 40 90 38 be e0 33 c1 3d ba 62 31 3e 90 ec fd 3c
       -0.18023777 0.094337225 0.17322817 0.03099659
000220 18 ee d3 3c e4 9f fb bd e0 ce 2d be 38 56 55 3e
       0.025870368 -0.12286356 -0.16973448 0.20833671
000230 d4 7c 82 bd 28 d5 5f 3e 56 0a ac bd f6 d3 0f be
       -0.06371465 0.21858656 -0.08400409 -0.140457
000240 ea 59 e3 bd 08 bd 29 be 00 f5 e2 3a 8e 22 44 3e
       -0.11101134 -0.16576016 0.0017315447 0.19153807
000250 4c ec 40 3e 9e 61 1a 3e c7 48 24 be 50 95 2f bc
       0.1884014 0.150763 -0.16043387 -0.010716751
000260 0d 92 06 be 67 cb 50 be e0 aa 42 3d f4 94 be 3d
       -0.13141651 -0.20390092 0.04752624 0.09305754
000270 54 2f 3f 3e 88 40 33 bd 4a fb 1b be f8 71 3a 3d
       0.18670398 -0.043762714 -0.15232578 0.045518845
000280 78 61 e6 bc 9c ae df 3d a2 47 06 be 3f 8b 66 bd
       -0.028122649 0.10921976 -0.13113263 -0.05628514
000290 c4 0e 14 bf f9 2b 05 bf 75 2c 64 be 74 2e e7 3d
       -0.5783503 -0.5202022 -0.22282584 0.11288157
0002a0 b2 2d 1d 3e 52 e3 5d bd 82 00 12 3e 3b 4b 32 bc
       0.15349463 -0.054171868 0.14258006 -0.010882194
0002b0 50 7b 45 3e f2 4c 26 be c1 a3 01 be 5e d2 6a 3d
       0.19285321 -0.1624029 -0.12660123 0.057329528
0002c0 96 58 96 bd 3c 7d ea bd 47 2a d5 be 7e fc b8 bd
       -0.07341115 -0.11449668 -0.41633818 -0.09032534
0002d0 ad c5 5e be 26 ca 47 3e 56 6d d9 bd 99 9c df 40
       -0.21755095 0.19510707 -0.10616557 6.987866
0002e0 0f c9 04 40 9f ea 11 40 5f ed 74 3d da 9f 9a 3e
       2.0747716 2.2799451 0.059796687 0.30200082
0002f0 5a 8b 5d 3e 70 5f 4d 3d b3 a3 f7 bd 72 b7 92 bd
       0.2163519 0.050139844 -0.1209177 -0.07163896
000300 22 33 b3 bc 1e c8 ff 3d d9 ac 0c 40 7e bf ef 3f
       -0.021874968 0.12489341 2.1980498 1.8730314
000310 3e 73 f3 3f f0 32 0c 40 23 34 03 40 ee 12 87 3b
       1.9019544 2.190609 2.0500572 0.0041221296

hidden4.bias f4 [10]
000000 df cc c8 bf e5 ec ba bf cf 97 96 40 b7 3a 95 40
       -1.5687522 -1.4603544 4.7060313 4.6634173
000010 e4 9e 03 bf 46 84 79 40 8b 16 34 be 20 d2 ae bc
       -0.5141432 3.8986983 -0.17586724 -0.02134043
000020 01 f3 94 be 35 5f a2 40
       -0.29091647 5.074122

regression.weight f4 [1, 10]
000000 05 e7 96 bf 32 ef 55 be 01 77 dd 3f ad 35 aa 3f
       -1.1789252 -0.20892027 1.7301942 1.329763
000010 7c ec 55 3e 2c bc 47 3f 42 c9 0c be 88 5b e8 3d
       0.20890993 0.780215 -0.13748649 0.11345583
000020 39 b9 91 be 6c b5 09 40
       -0.28461626 2.151698
