models/model200.pkl (torch, 23622 bytes, 9 tensors)

hidden1.weight f4 [80, 8]
000000 28 54 a1 bd c0 c2 40 40 bc 91 00 3e 28 3e 18 bd
       -0.0787738 3.0118866 0.12555593 -0.03716865
000010 65 85 e6 3f 1f 1b a6 3d a6 dd 24 3d 01 65 20 3e
       1.8009459 0.08110642 0.040250443 0.1566353
000020 b4 9f 57 be 65 6c 57 40 69 31 22 bf 6b 11 cc 3d
       -0.21057016 3.3659909 -0.63356644 0.0996426
000030 af 4e 22 40 6e 83 7c be 7a af 2e bc ab c7 bd 3e
       2.5360525 -0.24659511 -0.010661954 0.37066397
000040 b6 b4 3b 40 0b 4a 8d bf e8 4b d8 be ec 99 59 bf
       2.9329047 -1.1038221 -0.42245412 -0.8500049
000050 30 13 03 40 09 b5 61 3f e6 d8 1a 3f f7 e8 89 be
       2.048046 0.8816686 0.6048721 -0.2693555
000060 99 8d 04 40 1b bf 85 c0 e9 ee e1 be fb b8 84 bf
       2.0711424 -4.1795783 -0.44127586 -1.0368952
000070 8d ce 1c 40 b4 c3 e6 3e 57 38 12 be 23 70 0d c0
       2.4501069 0.45071185 -0.14279304 -2.2099693
000080 07 8e de 3f e3 71 8b 3d c9 61 86 3f 87 41 b1 bf
       1.7387093 0.068088315 1.0498592 -1.3848122
000090 6b 7c 8f 3e 2a cc 09 3e c0 86 cf bf d4 a7 b2 bf
       0.2802461 0.13456789 -1.6212997 -1.3957467
0000a0 e9 b2 eb 3e 4f ff 36 40 f3 9f 51 be 77 b2 c8 bc
       0.46034935 2.8593328 -0.20471172 -0.024499161
0000b0 86 46 19 40 69 ee 66 3f 92 d6 ee bc d8 5e 37 bf
       2.3949294 0.90207535 -0.02915505 -0.71629095
0000c0 04 59 ae be 58 85 3d 40 aa a9 a6 bd 37 d8 c3 bd
       -0.3405229 2.9612637 -0.081378296 -0.09562724
0000d0 37 ef 03 40 b3 42 86 3d 53 0e cb 3e 7f 4d 0e 3f
       2.0614755 0.065556906 0.39659366 0.55587
0000e0 29 e2 1f 40 34 5c 6b bf 4b 14 f9 3f a5 bb 18 bf
       2.4981787 -0.91937566 1.9459318 -0.5966132
0000f0 08 2c 14 40 42 84 b2 bf d2 5e d8 bf b1 ed cf bf
       2.3151875 -1.3946612 -1.6903937 -1.6244413
000100 e3 09 02 40 b1 45 a9 bf bf 3b ac 3d 8e 67 32 be
       2.0318534 -1.3224393 0.08409833 -0.17422315
000110 45 bc b8 3f 4b b3 ce 3e f9 44 16 3d 9c d7 70 3e
       1.4432455 0.40371165 0.03668687 0.23519748
000120 7e 7b c4 3e fe 8a 5b 3e 62 2e 16 3f ef af 71 bd
       0.38375467 0.2143974 0.58664525 -0.059005674
000130 0c 0a a5 3e d2 a3 44 bf 17 aa b3 be 48 a0 84 bf
       0.32234228 -0.7681247 -0.35090706 -1.0361414
000140 ba 30 c8 3f 5e 0e 39 bf 6a 1f 85 3f 5c 45 64 3d
       1.563987 -0.7228755 1.0400212 0.05573021
000150 52 9a 03 40 3d 26 44 bf 8a cb 0a 3a 02 fb e5 3d
       2.056294 -0.76620847 0.0005294612 0.112295166
000160 86 a7 62 3f 14 85 96 bf 9f 15 5d 3f a3 85 b5 bf
       0.8853687 -1.1759362 0.86361116 -1.4181408
000170 c4 b5 13 3f f7 e7 a7 bf da 31 c0 bf 85 6f bb bf
       0.5769923 -1.3117665 -1.5015213 -1.4643408
000180 9c 2b f5 be 4d 5b 45 40 61 97 1f 40 ec 47 bd be
       -0.47884834 3.0836976 2.4936144 -0.36968935
000190 3a 56 cf bd a3 25 00 bf d9 da 63 3c 0e e3 da be
       -0.10123868 -0.5005743 0.013907158 -0.42751354
0001a0 80 0f 89 3f 4b ec f9 be 22 ff 7f 3f 3c 12 24 3d
       1.0707855 -0.4881309 0.99998677 0.040056452
0001b0 de 5d fb 3f 42 53 4c bf 0d 5e 51 be 32 b8 9f 3b
       1.9638021 -0.7981454 -0.20446034 0.0048742527
0001c0 4b 90 45 40 d4 ad 6b bf 1d 0e 1b be ca 85 68 3e
       3.086932 -0.92062116 -0.15142103 0.22707286
0001d0 a7 86 08 40 20 fe f5 bd 59 85 cf 3e e8 24 00 3f
       2.1332185 -0.12011361 0.40531424 0.50056314
0001e0 07 1c af 3f 33 d3 b4 bf 84 4d a7 3f cf ac 12 bf
       1.3680428 -1.4126953 1.3070531 -0.57294935
0001f0 0d 17 f2 3f b0 02 e2 bd 09 87 8e 3f 67 a6 c7 bd
       1.8913285 -0.11035669 1.113496 -0.097485356
000200 7f ec cc be 14 84 8c bf 8a 84 aa be d5 78 a6 bf
       -0.40024182 -1.0977807 -0.33304244 -1.3005625
000210 fb 4d a5 3f e8 cc 68 bf 27 4e a8 3e d9 c5 09 c0
       1.2914423 -0.9093766 0.32872126 -2.1527007
000220 34 dc c0 3e 77 d7 89 bf 64 9b e6 3e 87 e5 2c 3d
       0.37668002 -1.076888 0.4504043 0.04221108
000230 f5 d1 a5 3f 22 67 14 bf 90 64 a9 bd f3 a0 e3 bd
       1.2954699 -0.5796987 -0.08271134 -0.11114683
000240 bf e8 96 be c5 de 2f be 7c 84 98 be b8 c5 79 be
       -0.29474446 -0.17174824 -0.29788578 -0.2439183
000250 cc 9b ab bd 88 a2 2e bd 57 3d 2b be 00 a2 64 bd
       -0.08379325 -0.04263547 -0.16722618 -0.055818558
000260 43 82 df be 4c c2 5d 40 09 37 e2 bd 20 74 ff bd
       -0.4365407 3.464984 -0.110456534 -0.12473321
000270 72 a0 24 40 b8 ab 83 3d 32 98 ef 3e 4f 17 60 3f
       2.5722928 0.06429237 0.46795803 0.87535566
000280 42 32 9c 3d b6 72 43 40 84 58 2e bc bb 00 e3 bc
       0.076267734 3.0538764 -0.010641221 -0.02771031
000290 62 cb e4 3f 20 04 0f be f4 ef ff bd 3b 58 64 bd
       1.7874568 -0.13966417 -0.12496939 -0.055748206
0002a0 a5 1b 6d 3f 05 d2 8a bf 42 9e 04 3f 51 22 86 3d
       0.9262031 -1.0845343 0.5180398 0.06549514
0002b0 0d 64 b1 3f d2 a4 16 bf 10 8c 09 3e 6a 67 63 3c
       1.3858658 -0.58845246 0.13432336 0.013879636
0002c0 c4 b5 73 3f 22 11 b8 c0 9f 82 08 40 21 7d 01 3e
       0.9519923 -5.7520914 2.1329725 0.12645389
0002d0 a6 19 01 40 54 6e 05 be 2d d1 95 bf 68 35 3b be
       2.0171905 -0.13030368 -1.170446 -0.18282092
0002e0 04 6f ab 3f 8a 76 ae bf 37 8a 3c 3f e3 c0 db be
       1.3393254 -1.3629925 0.736484 -0.42920598
0002f0 ce 5c ce 3f 7c 7e 93 be 00 96 22 3f c1 e9 88 be
       1.6122072 -0.28807437 0.6351013 -0.2674084
000300 d2 c5 4e 3e 3a 69 03 40 90 2e f8 3e b4 b7 27 3f
       0.2019265 2.0532975 0.48473024 0.65514684
000310 f5 58 00 40 d4 a8 33 3f 12 6c 2f bf 1c 75 0c bf
       2.0054295 0.70179486 -0.6852428 -0.54866195
000320 68 d0 89 3f 4b 46 6a bf ec 55 58 3e 0c 21 1b bf
       1.0766726 -0.9151351 0.21126527 -0.605973
000330 43 36 48 3f 8d 3b 17 bf 24 69 20 bf c5 7d 2e be
       0.78207797 -0.5907524 -0.6266043 -0.17040165
000340 b3 b5 91 3f 94 97 03 bf a6 8c 9e 3f c1 30 89 3d
       1.1383575 -0.51403165 1.2386672 0.06698752
000350 3e 98 fa 3f 39 29 35 bf c9 65 cb 3c b5 ce ad bd
       1.9577711 -0.70766026 0.024828808 -0.08486692
000360 73 de 8e be 1e a0 44 40 16 a9 19 bf 1b b2 04 3e
       -0.2790409 3.0722728 -0.6002363 0.12958567
000370 4b 5c 12 40 f5 09 81 be 0b 11 a3 bd 13 7b 5b 3e
       2.286883 -0.2520291 -0.07962235 0.21433668
000380 1f 38 66 be 8c 9e 3b be a8 2e 61 3d 82 42 ab be
       -0.22482346 -0.183222 0.054976135 -0.3344918
000390 14 31 50 be 9e 5f f8 bd f0 43 8a bc 88 b6 20 3d
       -0.20331222 -0.121276125 -0.016878098 0.039236575
0003a0 20 b9 54 bd 18 c4 4d be f0 52 f2 3d 5c 40 19 be
       -0.05193436 -0.20094335 0.11832225 -0.14965957
0003b0 d3 1c b3 be c0 7a 0d bc 84 03 13 3e a0 c4 24 3c
       -0.3498293 -0.008635223 0.1435681 0.010056645
0003c0 9f c2 2f bd c7 ed 30 40 24 f2 a1 bd b1 0a 11 bd
       -0.042910215 2.7645128 -0.07907513 -0.035410587
0003d0 5b d4 e8 3f f0 4f 94 bd 6c d8 95 bd ff 5c 32 3c
       1.8189806 -0.07241809 -0.0731667 0.01088643
0003e0 a5 14 5b 40 88 e8 0d bf 5a df 29 bf 7f 88 5e bf
       3.423135 -0.5543294 -0.6635643 -0.86927027
0003f0 3f e6 c7 3f c9 b4 79 3f 47 0a 08 3f 0d 11 48 3f
       1.561714 0.9754148 0.5314068 0.7815102

hidden1.bias f4 [80]
000000 aa ea 2b c0 bf 80 3b c0 d8 a9 83 bf 23 1b 7b bf
       -2.6861978 -2.929733 -1.0286207 -0.9808828
000010 80 37 72 bf 6c 9e 21 c0 bf c0 2b c0 7e 48 78 3e
       -0.94615936 -2.5252943 -2.6836393 0.24246404
000020 95 21 70 bf bb d7 a9 bf 08 78 60 3f b8 62 e2 3e
       -0.9380124 -1.3268961 0.87683153 0.4421594
000030 d5 c0 f4 bf 53 2d 50 3f 04 a3 8f bf 50 28 4b 3f
       -1.9121348 0.8131916 -1.1221623 0.79358387
000040 a0 a7 a4 3f 97 4b 0c 3f f8 93 80 be 7b e6 4e c0
       1.2863655 0.5480284 -0.2511289 -3.2328174
000050 f3 5b 22 c0 93 0f 53 3f d2 24 37 3f ed aa 54 3f
       -2.5368621 0.8244564 0.7154056 0.8307331
000060 82 cb 04 c0 6b b9 c6 3e 17 0d 74 3f 82 b0 26 c0
       -2.0749211 0.38813338 0.95332474 -2.6045232
000070 00 6d 5b bd 33 e4 86 be 73 5c 20 c0 06 82 b3 bf
       -0.053570747 -0.26345977 -2.5056427 -1.4024055
000080 13 b9 2a c0 8a 5b 89 3f e3 16 13 c0 80 1f 18 c0
       -2.667546 1.073106 -2.298272 -2.3769226
000090 8a 9e f1 be 48 0d d7 bf 3c 20 1c c0 a9 47 16 c0
       -0.47191268 -1.6800928 -2.4394674 -2.3481238
0000a0 66 e4 1d 3f 44 7e 37 c0 1b 1b 2b c0 c8 d6 cf bf
       0.61676633 -2.8670816 -2.6735294 -1.6237421
0000b0 da c6 cd 3d 61 44 7b be 80 90 b2 3e 3d 76 26 bf
       0.100476936 -0.24537803 0.3487587 -0.6502417
0000c0 26 81 23 c0 0c 12 29 c0 e6 af 90 be 89 46 47 3f
       -2.5547576 -2.6417265 -0.282592 0.77842003
0000d0 95 3c ab be 98 fc 07 be 2d a6 70 bf 5b c4 86 3e
       -0.33444658 -0.1327995 -0.94003564 0.26321682
0000e0 08 97 54 bd a9 c2 29 c0 5f 5c 28 3e 92 f9 de 3e
       -0.051901847 -2.652506 0.16441487 0.43549782
0000f0 90 25 1a 3f 90 99 c5 bf 8a e0 4f be f7 c5 b9 3e
       0.60213566 -1.5437489 -0.20300499 0.36283848
000100 d4 9c 72 bf 29 f7 a3 bf c9 8a 9b 3c fb 3c 43 3f
       -0.9477055 -1.2809802 0.018987076 0.76264924
000110 9d 6d 14 c0 c4 f9 e6 3e f0 2f f4 bf 15 c7 9f be
       -2.3191903 0.4511243 -1.9077129 -0.31206575
000120 bb 15 37 3f c1 53 e8 bd 87 d8 91 bd 6e b3 26 c0
       0.71517533 -0.113441 -0.071213774 -2.6047015
000130 52 83 9d be 2b 0e 19 3f c5 21 39 c0 16 a3 33 c0
       -0.30764252 0.59787244 -2.8926861 -2.806829

hidden2.weight f4 [40, 80]
000000 10 86 f7 3c 96 9f 85 3d 56 62 3b bd aa f8 b6 be
       0.030215293 0.06524579 -0.045748077 -0.3573659
000010 be 29 a3 be 00 00 b6 b7 90 5c 50 bc 1b 79 9d be
       -0.31867784 -2.169609e-05 -0.012717381 -0.3075646
000020 ee bf bd be aa 06 87 be 5a 32 76 be 80 3d 63 be
       -0.37060493 -0.26372272 -0.24042645 -0.22191429
000030 7d c9 c5 be 9a 44 77 be 75 c7 91 bd 75 a3 b6 be
       -0.38630286 -0.24147263 -0.071181215 -0.35671583
000040 ee e4 bc be d1 e7 b6 be 38 ae db 3c 48 16 4c bc
       -0.3689341 -0.35723737 0.026816472 -0.012456484
000050 f4 1e be bd d7 03 a4 be 83 5b 45 be c1 43 84 be
       -0.092832476 -0.3203418 -0.1927319 -0.25832942
000060 5b 73 91 be 9a b6 a2 be 00 8d 91 be 08 2c 67 3d
       -0.28408322 -0.3177994 -0.28427887 0.056438476
000070 a4 5e ac bd 18 c8 34 bd 1e dd 65 bd 91 0e a8 be
       -0.08416489 -0.044136137 -0.056119077 -0.32823613
000080 60 79 65 3c 46 8a 9f be 4e 74 c7 bd 7c 25 aa be
       0.014005989 -0.31160182 -0.0973898 -0.33231723
000090 e8 51 ed bc 1c 61 3d 3d 78 bc 72 bd 01 44 b4 bd
       -0.02896972 0.04623519 -0.05926177 -0.08802033
0000a0 fb 9e b4 be 20 3d 83 bb 80 90 69 bb 5e 17 d9 3d
       -0.35277542 -0.0040050894 -0.0035639107 0.1060016
0000b0 3d a6 93 be 46 e3 c5 3d e8 5b 7f be 54 3c aa be
       -0.28837767 0.096624896 -0.24937403 -0.33249152
0000c0 fb f9 df bd 94 66 9a 3d b8 cb 20 3d ed 70 4d be
       -0.10936352 0.075390965 0.03925678 -0.20062609
0000d0 00 e8 8e be 58 38 8e be e2 d9 8d bd 53 d2 41 be
       -0.27911377 -0.27777362 -0.069263235 -0.18927889
0000e0 d0 0d b9 bb 86 56 47 bd fb bd 6d bd 78 07 58 be
       -0.0056473985 -0.0486665 -0.058042508 -0.21096599
0000f0 76 ca 4e be 73 01 a5 be e4 14 6e be 97 b1 48 be
       -0.2019442 -0.32227668 -0.23250157 -0.19598995
000100 84 5b 8f bd 6e 41 29 be f8 eb 48 be d4 1a 3e be
       -0.06999877 -0.16528866 -0.19621265 -0.18564922
000110 60 f1 be bc a0 be b5 be 9c ec 92 3d 8e 2b 9a bd
       -0.023308456 -0.35496998 0.07174036 -0.07527839
000120 e1 f4 4c be 2a 3c c3 be 9a 55 8e be f4 58 80 bc
       -0.20015289 -0.3813184 -0.27799684 -0.015667416
000130 11 cd 30 be 1f 54 9d be 20 6a 9b 3c 24 7a 1d bd
       -0.17265727 -0.30728242 0.018971503 -0.03844656
000140 fb 81 d4 3f c6 a6 3b 40 37 0a 9d 3f 97 df 86 c0
       1.6602167 2.932054 1.2268742 -4.2147937
000150 1b 73 46 bf 28 d7 13 40 92 66 e2 3f 7d 77 ce 3f
       -0.77519387 2.310007 1.7687552 1.6130215
000160 ae 72 4b 3d f5 4b 3e 3c ea 95 2d 3f 65 d5 3d 3e
       0.049669914 0.011614789 0.67806876 0.18538435
000170 df 0d c6 bf 3a ac cb 3e b5 3d 89 3f 50 2d 0c 3f
       -1.5472983 0.39779836 1.0721956 0.5475664
000180 fa 44 9d 3f 9a 9c 1d 3e 98 d7 6d 3d 5d 5d 95 40
       1.2286675 0.1539177 0.058066934 4.667647
000190 55 9e 95 3f 81 73 8b 3e 83 a4 90 c0 67 bc bc 3e
       1.1688944 0.2723656 -4.520082 0.3686249
0001a0 ed 32 66 3f d6 b0 31 3d 0e f9 16 3f da fe df 3f
       0.89921457 0.043381535 0.5897378 1.749965
0001b0 dd 38 74 bd 00 f7 bf bd 46 c8 8f 3f eb 82 c1 3f
       -0.05962454 -0.093732834 1.1232994 1.5118078
0001c0 99 91 53 40 d1 9c 0c 3f 6c 29 a2 3e 52 f7 0a 40
       3.3057616 0.5492678 0.31672227 2.1713452
0001d0 40 28 37 c0 08 da 2b 3e 2b 8a 23 3f b1 93 25 3f
       -2.8618317 0.16782391 0.638827 0.64678484
0001e0 8d 80 33 3d 37 ef 18 40 c5 14 d2 3f a7 84 c6 3f
       0.043823767 2.3896005 1.6412588 1.5509232
0001f0 a6 67 6d 3e 04 d5 d6 bd 10 24 ca 3e 72 7a a4 3e
       0.2318407 -0.10489848 0.39480639 0.32124668
000200 74 6d df be 55 95 04 40 89 9f 15 3e d0 24 f8 3e
       -0.43638194 2.0716145 0.14611639 0.48465586
000210 09 b2 52 bd c7 7c a9 bc 64 2b 4f 40 a3 a8 04 3f
       -0.05143932 -0.020689381 3.2370234 0.5181982
000220 e8 5d 9c 3f e6 5d de 3f 72 d4 61 3e d9 40 10 3e
       1.2216158 1.7372406 0.22053698 0.14087237
000230 e4 9e 09 3f e3 ae 43 3f c4 30 c3 3f b6 4e 76 3d
       0.5375807 0.7643873 1.5249257 0.06013366
000240 e9 ca 3f 3f ca 6c 89 c0 46 32 a6 3f d0 38 cc 3e
       0.7491899 -4.29453 1.2984092 0.39887094
000250 e6 82 90 3e f7 e5 04 3f 79 40 e3 3f 54 15 aa 3d
       0.28224868 0.519134 1.775405 0.08304849
000260 11 99 80 3d b7 a0 15 be d4 94 eb 3e 33 25 ce 3f
       0.06279195 -0.14612089 0.46011984 1.6105102
000270 30 54 14 3e 64 ca b2 3d 57 14 24 40 14 57 39 40
       0.1448524 0.08730009 2.5637414 2.8959398
000280 6b 2f 1f bd 2c 55 a0 3d 7c 87 a3 3c 69 f4 db bd
       -0.03886358 0.07828745 0.019962065 -0.10739977
000290 ac 28 88 bd d2 94 d4 bd 05 30 cf bd aa 15 c3 bd
       -0.066483825 -0.10379948 -0.10116581 -0.095256165
0002a0 b8 65 46 bd 98 f1 a6 bc dd 59 71 bd 35 16 9a bd
       -0.04843685 -0.020378873 -0.05892359 -0.07523767
0002b0 f5 73 b9 3c 0f 91 1c bd ef 9d 1b 3d ba a2 44 3c
       0.0226383 -0.038224276 0.037992414 0.012001688
0002c0 37 6c 54 bc dd 8c 95 bc 30 ce c0 3c 08 e9 6f bc
       -0.012965254 -0.018255645 0.023535818 -0.014642961
0002d0 ff a9 e4 bd 35 39 26 be 41 a2 0e bd 80 e7 dc bd
       -0.11165237 -0.1623276 -0.034822706 -0.107863426
0002e0 5a c1 24 bd d9 a3 2a bc 5e 04 1e 3d 17 25 0d bd
       -0.040223457 -0.010415041 0.038578384 -0.0344592
0002f0 d8 96 9c 3d 93 16 76 bd 2b 3f ce 3c a4 99 88 bd
       0.07645959 -0.060080122 0.025176605 -0.066699296
000300 09 6e 02 be fb 39 8f 3b 75 64 33 be c8 a0 dd 39
       -0.12737288 0.0043709255 -0.1751879 0.00042272196
000310 67 ea b3 bc 48 d7 9a bc 02 47 9e bd 7d 48 d9 bc
       -0.021962358 -0.018901482 -0.077283874 -0.026523823
000320 0e 37 4d bc 40 d6 15 be ca 08 a4 3d 96 84 d1 bd
       -0.012525333 -0.14632511 0.08009489 -0.10230367
000330 e0 a8 1b be c8 3c 2f bc bf d4 ac bd 92 3b 65 bd
       -0.1520114 -0.010695644 -0.084390156 -0.055965014
000340 05 61 a3 3c bd 9d b9 bd 76 00 5f bd 10 ec af bd
       0.019943723 -0.09063289 -0.0544438 -0.08589947
000350 e5 28 ff bd 36 ff 32 be eb cc 93 bd e7 37 88 bc
       -0.12458972 -0.17480168 -0.072168194 -0.016628219
000360 ea db da 3c ed 55 89 3c db 60 de bd 44 20 02 be
       0.026716191 0.016764605 -0.108583175 -0.12707621
000370 e3 84 07 be 4f c0 58 bd 13 26 64 bd 6f 6d 32 be
       -0.13234286 -0.052917775 -0.055700373 -0.17424558
000380 00 43 ed bd df 83 06 be 33 cd 6a bd 3c bd 80 bd
       -0.11585045 -0.13136242 -0.0573246 -0.062860936
000390 1a 08 00 be e4 20 f9 bd cc 4f e0 bd 4e 09 b7 bd
       -0.1250309 -0.121644765 -0.1095272 -0.089373216
0003a0 94 08 06 be ff 41 0f bc ad dc 31 be 64 04 da 3d
       -0.1308921 -0.008743762 -0.17369337 0.10645369
0003b0 3c 92 24 bd 64 a3 a5 bd 06 bc 7a 3c 31 9c f0 3c
       -0.040178522 -0.08087805 0.015303617 0.029371353
0003c0 f5 5a fe bd 33 8a c5 bd b7 68 26 be fd 1c 80 bd
       -0.124196924 -0.096455 -0.16250883 -0.06255529
0003d0 74 c7 69 3c c1 d0 25 bd bb 9e de bd 41 56 ec 3c
       0.014268745 -0.040482286 -0.10870119 0.028849723
0003e0 e2 7f 6b bb 08 9b 5d 3d 99 46 73 bd bb e8 10 be
       -0.0035934378 0.054102927 -0.0593935 -0.1415128
0003f0 fa 01 9d 3c 1e 08 d7 bd 8d 11 f3 bb 5e 13 e1 bd
       0.019165982 -0.10499595 -0.0074178637 -0.10990022

hidden2.bias f4 [40]
000000 6c 80 b4 be 20 6b 18 40 a6 66 1e bd c9 3a a7 bd
       -0.35254228 2.3815384 -0.038672112 -0.08165509
000010 1d 37 e8 be f9 7b 17 40 76 ba 1b 40 e2 94 3f bd
       -0.45354548 2.3669417 2.4332557 -0.046772845
000020 41 dc bc be 32 80 3d bd 8d 74 25 40 02 d4 19 40
       -0.3688679 -0.046264835 2.5852387 2.403565
000030 d7 01 1a 40 30 85 01 bd d5 80 00 be 1c 9f 16 40
       2.4063623 -0.031621158 -0.12549146 2.3534613
000040 23 aa bc bc 00 8d 80 bd 97 02 d1 be 38 08 04 be
       -0.023030346 -0.062768936 -0.40822288 -0.1289376
000050 42 b1 0e 40 77 32 21 40 c6 91 21 40 aa 2d 23 be
       2.229569 2.5187051 2.5245223 -0.15935388
000060 0e e8 e1 bd 3b 09 1b 40 58 6c 16 40 18 b8 0a bf
       -0.11030589 2.4224384 2.3503628 -0.54187155
000070 5b 21 1e 40 5b ec 1d 40 34 92 22 40 26 6f 11 be
       2.4707859 2.467551 2.5401735 -0.14202556
000080 b5 05 81 3b b3 b4 0a 40 19 4f a7 bd 40 dd 26 be
       0.003937448 2.167279 -0.081693836 -0.16295338
000090 80 33 1b 40 7a e9 e7 3c b8 16 00 be 5a 89 2e be
       2.4250183 0.028309572 -0.12508667 -0.17044583

hidden3.weight f4 [20, 40]
000000 a3 ac 04 be 88 09 b7 bd 0b 27 84 bd 16 8a b9 3d
       -0.1295648 -0.08937365 -0.06452759 0.09059541
000010 09 4b 18 be 2e 18 0f be 26 0c cf 3d fc 41 89 bd
       -0.14872374 -0.13974068 0.10109739 -0.06702039
000020 30 33 0b be 44 4d 75 3d 22 75 16 be 9c ca 05 be
       -0.13593745 0.05988814 -0.1469312 -0.1306557
000030 e4 44 49 3d d4 bc 2a 3d 61 99 0c be 22 4e 0b be
       0.049137965 0.041683987 -0.13730384 -0.13604024
000040 e2 37 ed 3d 70 33 14 3c 89 fe f8 bd 9d d1 0d 3e
       0.115829244 0.009045467 -0.12157924 0.13849492
000050 ce 4e ab 3d fa b1 7b bd ba e7 9e 3d bc b1 41 3d
       0.0836464 -0.06144903 0.07759042 0.04728864
000060 a4 40 49 3d 76 a9 c8 bd d5 c6 0c be 84 09 4f 3d
       0.04913391 -0.09797947 -0.13747723 0.050546184
000070 d8 34 b9 3c 97 a9 04 3e 0c 6c 14 be 8a ee c1 3d
       0.022608206 0.12955318 -0.14494342 0.09469326
000080 bf 5b 18 be 4f 19 01 be 25 ed b3 bd f8 8e 7d 3d
       -0.14878748 -0.1260731 -0.08785466 0.061903924
000090 50 05 25 3c 38 7f 9d bd a8 bb 64 3d 80 30 8a 3b
       0.010072067 -0.07690281 0.055843025 0.0042172074
0000a0 a8 ec 3a bd 81 8a c7 bc 00 77 72 bc 89 6e 2f bb
       -0.04563585 -0.024358036 -0.01479888 -0.0026768765
0000b0 48 57 06 be 96 ab 95 3d 98 fa 3d be ca 3e 16 be
       -0.13119233 0.07308118 -0.18552625 -0.1467239
0000c0 08 4c 78 3d 70 f0 59 bd 50 13 5b 3d d6 95 be 3d
       0.060619384 -0.053207815 0.053485215 0.09305923
0000d0 93 67 57 3b 82 2a 9d bd 10 37 2b bc 96 4f b7 3d
       0.0032868132 -0.07674123 -0.01045014 0.08950727
0000e0 52 ab ec 3d 84 6b 68 3d 70 b7 38 3d 84 02 a7 bd
       0.11556114 0.05674316 0.045096815 -0.08154777
0000f0 b2 50 47 3d f8 65 5b 3d 6f 33 57 be 98 11 ac bc
       0.04866094 0.05356404 -0.21015714 -0.021004483
000100 03 42 10 3e 93 b7 01 3c 45 ef 50 be c0 dd ff bc
       0.14087681 0.007917303 -0.20403774 -0.031233668
000110 9e 49 6b 3d 8c 5f 2f 3d 35 b5 2f be ac cb a4 3d
       0.057443254 0.04281573 -0.17158969 0.0804666
000120 02 36 83 3d c7 f9 1c 3e 9e b8 2b bd ec 12 5d 3d
       0.064067855 0.15329657 -0.04192411 0.053973123
000130 b4 38 7d bd c2 cc 97 3c f3 92 09 3e 19 bb 82 bd
       -0.061821654 0.018530253 0.13434963 -0.06383342
000140 c8 70 e2 3c a8 1f af 3d 62 18 64 bd b8 fb fa bc
       0.027641669 0.0855096 -0.055687316 -0.030637607
000150 fe 32 bd 3d 00 06 98 bc fb 48 0c be 22 02 9a 3d
       0.092382416 -0.018557549 -0.13699715 0.07519938
000160 dc 89 37 3d c7 af c0 bd 60 03 d7 bd c0 0e 75 bb
       0.044809207 -0.09408527 -0.104986906 -0.0037392825
000170 4c 15 ab bd c0 ab 7c 3c 88 51 b4 3c 8e 71 ea 3d
       -0.083536714 0.015421808 0.022011533 0.1144744
000180 40 25 a3 3d 2e bb d5 3d f8 49 c5 bc 1c 53 03 be
       0.07966089 0.10436092 -0.024083123 -0.12824672
000190 62 77 f3 bd 38 4f 42 3d de ec 13 be 37 6c e7 bd
       -0.11888005 0.04743883 -0.14445826 -0.11299937
0001a0 20 6f 2a bc 30 9e df bd f4 80 18 3d b8 39 05 3d
       -0.010402471 -0.10918844 0.037232354 0.032525748
0001b0 10 79 cb 3c 32 74 f3 bd 9f 47 0d 3e 86 5d c2 3d
       0.024838 -0.11887397 0.13796853 0.094904944
0001c0 bc f3 5e bd a2 a2 db bd d2 1c cc 3d a1 9c 9a bd
       -0.054431662 -0.10724379 0.099664345 -0.07549406
0001d0 20 84 31 3c 2e 65 a7 3d b0 79 8f 3d c0 ea 4d bb
       0.010834724 0.08173595 0.07005632 -0.003142044
0001e0 d6 1d ce 3d 0d a2 10 be f9 7d ce 3c fe 73 4d be
       0.100642845 -0.14124317 0.025206553 -0.20063779
0001f0 db 59 d1 bd 8c f4 a0 3d ec 4b 0f bd 7e 76 c1 bd
       -0.10222217 0.078591436 -0.034984514 -0.09446429
000200 65 d0 19 3e 68 5a bd 3c 77 79 9e bd 41 72 62 be
       0.15020902 0.023114398 -0.07738011 -0.22113897
000210 f1 49 b1 3d 47 cb 7c bd c8 b8 0b be 4d fd e5 bd
       0.08656681 -0.061717298 -0.13644707 -0.11229954
000220 ce d2 16 bc 6b 95 15 be 1a bc 47 be 0b d7 43 be
       -0.009205533 -0.1460778 -0.19505349 -0.19125001
000230 50 33 8b 3d 0d d9 04 be 4f f0 3c be 04 21 75 3d
       0.067968965 -0.12973423 -0.18451045 0.05984594
000240 3a af 62 bd 5a 2e e8 bc 47 de 9d bd 00 82 bf 3a
       -0.05534289 -0.028342415 -0.07708412 0.0014610887
000250 73 64 0d be 14 8c 0a be fe 3b fb bd c9 ba 90 bd
       -0.1380785 -0.13529998 -0.12267302 -0.070668764
000260 f7 7c 2d 3d 3c 5f 4a 3d 99 53 02 3d 60 8d 2e 3c
       0.042355504 0.04940723 0.031818006 0.010653824
000270 26 3e 16 be d5 6b 8a bd e9 0d 15 bd a8 03 3c bc
       -0.14672145 -0.067588486 -0.03639022 -0.011475481
000280 dd 30 ce be f6 4d 7f 3f bb cf 8a bc 72 35 0f 3e
       -0.40271655 0.99728334 -0.016944757 0.13985232
000290 32 d0 4d 3e fb 04 85 3f db bf 8e 3f 95 ab ee bc
       0.20098951 1.0392145 1.11523 -0.029134551
0002a0 97 ca a6 be 94 07 3f bd 97 4f 85 3f 49 fb 8c 3f
       -0.3257644 -0.046638086 1.0414914 1.1014186
0002b0 fc fb 69 3f ea 72 e4 3d 63 75 7e bd 81 2b 88 3f
       0.9140012 0.111547306 -0.062123667 1.0638276
0002c0 59 ef bb bd 16 c7 fe bc f7 43 59 be a2 29 b6 3d
       -0.09176511 -0.031100791 -0.21217333 0.088946596
0002d0 51 8a 2a 3f 5e 4b 87 3f 9e b9 82 3f 0f 9f 99 3d
       0.66617304 1.0569875 1.0212896 0.07501041
0002e0 43 c9 46 bb 40 ae 56 3f 3d e6 4e 3f 8c ac e2 3d
       -0.0030332364 0.83859634 0.80820066 0.11068067
0002f0 42 52 6a 3f a5 31 8a 3f 14 21 87 3f fa 07 59 bd
       0.91531765 1.07964 1.055697 -0.052986123
000300 6c cc b4 bc aa 98 11 c1 13 9f 36 3e bc ac 4b bd
       -0.022070132 -9.0997715 0.1783412 -0.04972528
000310 c4 f6 88 3f 2a 9f 13 bc 63 23 0e bd 28 66 ab 3d
       1.0700307 -0.009010116 -0.034701716 0.08369094
000320 f2 1e a1 be 3d 3e 91 3f 00 d8 d3 bc b6 45 8b 3d
       -0.31468922 1.1347119 -0.025859833 0.06800406
000330 fa 2a 52 3e 54 10 87 3f e0 b7 82 3f 18 53 9f 3b
       0.20524207 1.0551858 1.0212364 0.0048622005
000340 0c 76 b0 be c0 aa d0 3b b7 09 8e 3f c5 9e 57 3f
       -0.34465063 0.0063680112 1.1096715 0.8422664
000350 36 3d 93 3f 91 21 50 3e 91 1e 2c 3e e5 e2 8b 3f
       1.1503055 0.20325305 0.16808535 1.0928618
000360 a4 be 56 3c d8 41 8e bd 9c b2 a1 be 4d a5 9a 3c
       0.013106976 -0.069461524 -0.3158158 0.01887765
000370 68 1e 47 3f 18 31 89 3f 29 1c 89 3f 60 8f e5 3c
       0.7778077 1.0718107 1.0711719 0.028022468
000380 64 dd 34 3e 03 4c 89 3f 63 98 8a 3f 3b 60 9b 3e
       0.17662579 1.0726322 1.0827755 0.30346856
000390 32 16 95 3f 63 b1 90 3f 80 21 79 3f 66 a6 99 bb
       1.1647398 1.1304134 0.9731674 -0.0046890257
0003a0 77 4a 04 3e dd 46 12 c1 e8 13 37 bd 11 a9 3e 3e
       0.12919031 -9.142301 -0.04469672 0.18619181
0003b0 b3 2c 78 3f ea 81 80 3c 83 27 11 ba 21 ee 0a bc
       0.96943206 0.015686948 -0.0005537199 -0.008479626
0003c0 18 8a 5e bd 81 18 2f bd d3 df bd 3d 6d a2 9f 3d
       -0.054330915 -0.042747978 0.09271207 0.07794652
0003d0 f4 12 5b 3e ae 96 b2 bd 43 b4 ac ba 72 55 41 3e
       0.21393949 -0.08720146 -0.0013176281 0.18880251
0003e0 a8 2f 9a 3c 7f 33 d3 bd 73 50 c9 bd 70 b7 87 bd
       0.018821552 -0.103125565 -0.098297976 -0.06626785
0003f0 86 2c b5 bd 8c 43 7d 3d a3 9c 02 3e de 75 07 bd
       -0.08846383 0.061831996 0.12755065 -0.03307139

hidden3.bias f4 [20]
000000 da 0e af bd 67 98 45 be 0a 10 3d bd 7e 06 22 3d
       -0.085477546 -0.19296418 -0.046157874 0.039556973
000010 db f9 53 40 ac 8a 53 40 07 00 54 be 8c 26 c1 3a
       3.312125 3.3053389 -0.20703135 0.0014736219
000020 30 18 fa bc df 30 2a 3c a0 43 8e 3c 1f 3e b6 bd
       -0.030529112 0.010387628 0.01736623 -0.088985674
000030 47 9f 35 be 29 f6 f8 bd 07 b9 46 40 75 3a 44 40
       -0.1773654 -0.12156326 3.1050432 3.066068
000040 c9 d1 48 40 49 68 49 40 70 9f 45 40 08 c3 6a be
       3.1378043 3.14699 3.0878563 -0.22925961

hidden4.weight f4 [10, 20]
000000 b4 e4 96 3d da 69 c2 bd 70 ab ee bd 92 c1 52 3e
       0.073678404 -0.09492846 -0.11653793 0.20581654
000010 d8 81 7e bd 40 41 a2 3c 12 c9 ac bd e0 26 15 bd
       -0.062135547 0.019806504 -0.084367886 -0.036414027
000020 4c 3a b5 3d 84 f3 ed 3d 98 a7 1f 3d c8 93 3b 3d
       0.0884901 0.116187125 0.03897819 0.045795232
000030 32 77 2d 3e 09 57 39 be 40 21 e1 bb c7 3e 42 be
       0.1694 -0.18099608 -0.006870419 -0.1896926
000040 c5 e1 41 be 23 e9 5c be ea 5e 46 3e a4 1b fb 3d
       -0.1893378 -0.2157331 0.19372144 0.122611314
000050 bc 44 ee 3d 6c 6c 20 be 18 69 24 bd 92 ff 31 3e
       0.11634204 -0.1566636 -0.040139288 0.17382649
000060 80 7c 5b 3c 58 c1 14 be e0 00 0b bc 3a c1 2c 3e
       0.013396382 -0.1452688 -0.008484095 0.16870585
000070 40 18 6c 3c e9 04 ff bd b4 b3 b2 3d d1 91 1f be
       0.0144100785 -0.124521084 0.08725682 -0.15582968
000080 4b 3b 0f be c6 69 17 3e ee 9c b1 bd a8 7d 07 bd
       -0.13987462 0.14786443 -0.0867251 -0.03307882
000090 8e af 08 be 70 a5 f8 3c 56 b3 1f 3e e4 03 b9 bd
       -0.13348219 0.030352324 0.15595755 -0.09033945
0000a0 f2 ac 98 bd 24 9c 7b bd b8 61 96 3d 28 6c bb bc
       -0.07454862 -0.061428204 0.07342857 -0.022878721
0000b0 e5 29 72 3f ce 2f 82 3f f9 40 30 3c 73 4a 62 be
       0.94595176 1.0170839 0.010757678 -0.22098713
0000c0 6a a3 98 bd 6a ac 31 3e ee 04 40 be f8 46 86 bc
       -0.07453044 0.17350927 -0.1875188 -0.016391262
0000d0 9c 8c b9 3d a8 dc 25 be c5 81 97 3f 1a 7d 6e 3f
       0.09060022 -0.16197455 1.1836478 0.9315964
0000e0 65 6f 8f 3f f9 1c 8e 3f 25 34 9a 3f 1c 43 46 3e
       1.120587 1.1102592 1.2047163 0.19361538
0000f0 e0 f6 48 3e fa 07 e1 bd 85 3d 3f be c3 10 cc 3d
       0.19625425 -0.109878495 -0.18675812 0.099641345
000100 cf 93 70 3f 87 7f 97 3f a8 59 1a bd 5c 52 e8 bd
       0.9397554 1.1835793 -0.03768316 -0.11343834
000110 57 95 a4 3c 86 fd b8 bd 18 44 17 3e 69 42 b6 3d
       0.020090742 -0.09032731 0.1477207 0.088993855
000120 94 f5 39 3e fb 65 35 3e c9 dc 58 3f 7f 4b 65 3f
       0.18160087 0.17714684 0.8471189 0.8956832
000130 cb ee 45 3f 30 4f 96 3f a0 4f 44 3f c9 d2 17 3c
       0.77317494 1.1742916 0.76684 0.009266564
000140 b6 37 52 3e 5c 03 fc 3d e8 2d 34 3e 00 d0 5f be
       0.20529065 0.12305328 0.17595637 -0.2185669
000150 60 9e 30 be cb 10 5b be ac d3 56 3e 00 51 55 3c
       -0.17247915 -0.21393125 0.20979184 0.0130198
000160 58 c4 5f bd d8 15 12 3e 96 fe 48 be f0 ea c9 3d
       -0.054630607 0.14266145 -0.19628367 0.09859264
000170 90 0c bf 3d 0d 23 ec bd 96 81 85 bd f2 4d 2c 3e
       0.09328568 -0.11530123 -0.06518857 0.16826609
000180 f8 a5 15 3d 80 dd c5 3d e4 0b 55 be 8a 23 3e be
       0.036535233 0.096613884 -0.20805317 -0.18568245
000190 e8 09 ae 3d f6 0c 1f be 16 9d 19 3e 20 07 55 bc
       0.08497983 -0.15532288 0.1500133 -0.013002187
0001a0 3a 1b 67 3f dc 30 25 3f c0 9b 96 3c 6e 20 34 3e
       0.9027592 0.6452768 0.018384814 0.17590496
0001b0 e8 d7 40 bd 90 45 a8 3d 56 5d 37 3e fc ee d1 bd
       -0.047080904 0.08216393 0.17906699 -0.10250661
0001c0 98 32 19 be b1 e3 71 3e 47 2c 43 3f ae 56 6b 3f
       -0.14960706 0.23622014 0.76239437 0.9192914
0001d0 fc f1 66 3f b6 4f 83 3f 0d 3b 4c 3f b3 80 fc bd
       0.9021299 1.0258701 0.79777604 -0.12329235
0001e0 ac cb 83 3d 84 eb f8 3d 60 ab 5a 3c 89 25 04 be
       0.06435332 0.12154296 0.013346523 -0.12904944
0001f0 40 ad a9 bc 0e ad a6 bd 18 6d ca 3d e0 d5 f4 3c
       -0.020712495 -0.08138476 0.09884089 0.02988714
000200 2e 18 5c 3e 60 3f 97 bd 40 ca b6 bd 78 3f b9 bc
       0.21493599 -0.07385135 -0.08925295 -0.022613272
000210 40 90 38 be e0 33 c1 3d ba 62 31 3e 90 ec fd 3c
       -0.18023777 0.094337225 0.17322817 0.03099659
000220 18 ee d3 3c e4 9f fb bd e0 ce 2d be 38 56 55 3e
       0.025870368 -0.12286356 -0.16973448 0.20833671
000230 d4 7c 82 bd 28 d5 5f 3e 56 0a ac bd f6 d3 0f be
       -0.06371465 0.21858656 -0.08400409 -0.140457
000240 ea 59 e3 bd 08 bd 29 be 00 f5 e2 3a 8e 22 44 3e
       -0.11101134 -0.16576016 0.0017315447 0.19153807
000250 4c ec 40 3e 9e 61 1a 3e c7 48 24 be 50 95 2f bc
       0.1884014 0.150763 -0.16043387 -0.010716751
000260 0d 92 06 be 67 cb 50 be e0 aa 42 3d f4 94 be 3d
       -0.13141651 -0.20390092 0.04752624 0.09305754
000270 54 2f 3f 3e 88 40 33 bd 4a fb 1b be f8 71 3a 3d
       0.18670398 -0.043762714 -0.15232578 0.045518845
000280 78 61 e6 bc 9c ae df 3d a2 47 06 be 3f 8b 66 bd
       -0.028122649 0.10921976 -0.13113263 -0.05628514
000290 72 79 85 be ba 67 4f be 75 2c 64 be 74 2e e7 3d
       -0.26069218 -0.20254412 -0.22282584 0.11288157
0002a0 b2 2d 1d 3e 52 e3 5d bd 82 00 12 3e 3b 4b 32 bc
       0.15349463 -0.054171868 0.14258006 -0.010882194
0002b0 50 7b 45 3e f2 4c 26 be 6e a4 43 3e 5e d2 6a 3d
       0.19285321 -0.1624029 0.19105694 0.057329528
0002c0 96 58 96 bd 94 09 50 3e a0 18 ca bd 7e fc b8 bd
       -0.07341115 0.20316154 -0.09867978 -0.09032534
0002d0 ad c5 5e be 0e fc fa bd 56 6d d9 bd 1e cc 54 bc
       -0.21755095 -0.12255107 -0.10616557 -0.012988118
0002e0 29 fd a2 3f 25 ab af 3f 5f ed 74 3d 28 44 80 bc
       1.2733508 1.3724104 0.059796687 -0.0156575
0002f0 5a 8b 5d 3e 70 5f 4d 3d f8 98 e9 bc 72 b7 92 bd
       0.2163519 0.050139844 -0.028515324 -0.07163896
000300 22 33 b3 bc b4 83 07 be 7f 3e a8 3f 47 fb 88 3f
       -0.021874968 -0.13233835 1.3144072 1.0701684
000310 68 14 94 3f 7a 72 9c 3f ab ce 96 3f ee 12 87 3b
       1.1568727 1.2222435 1.178182 0.0041221296

hidden4.bias f4 [10]
000000 c8 7f 46 be e0 37 0a be 28 fd 71 40 10 29 7e 40
       -0.19384682 -0.13497877 3.7810764 3.9712563
000010 5f 33 49 be d9 dc 64 40 8b 16 34 be 20 d2 ae bc
       -0.19648503 3.5759795 -0.17586724 -0.02134043
000020 bc 11 db 3c ac 37 7d 40
       0.026741855 3.956523

regression.weight f4 [1, 10]
000000 75 55 79 be 12 de 77 3e 5b bb 8e 3f af f0 75 3f
       -0.24349006 0.24205807 1.1150926 0.9607038
000010 64 b7 de bd fa 42 59 3f 42 c9 0c be 88 5b e8 3d
       -0.10874823 0.84867823 -0.13748649 0.11345583
000020 1f 57 07 3d 0b 83 ac 3f
       0.03304207 1.3477491
