models/model262.pkl (torch, 23622 bytes, 9 tensors)

hidden1.weight f4 [80, 8]
0	0x3dee8891	0.11647142
1	0x408f4776	4.4774733
2	0xbd52f1fe	-0.051500313
3	0xbe338ae5	-0.17533453
4	0x3fc1cded	1.5140969
5	0x3e3861d7	0.18006073
6	0x3db1b4ca	0.08677061
7	0x3d2e3359	0.042529438
8	0xbea2dc3e	-0.31808656
9	0x406364c3	3.553025
10	0xbf36a966	-0.7135223
11	0x3eac1a94	0.33614028
12	0x4029c578	2.6526775
13	0xbed22c20	-0.4104929
14	0xbdfea4e9	-0.12433798
15	0x3efdb021	0.49548438
16	0x405725b5	3.3616765
17	0xbfa50507	-1.2892159
18	0xbf60c885	-0.8780597
19	0xbf9711b0	-1.1802273
20	0x3fdae539	1.7101203
21	0x3f8cbdd3	1.099543
22	0x3f4397b2	0.76403344
23	0xbecf1418	-0.40445018
24	0x40128824	2.2895594
25	0xc0702a27	-3.7525728
26	0xbe692aac	-0.22770184
27	0xbfdb0441	-1.7110673
28	0x4026a20a	2.60364
29	0x3ea36967	0.31916353
30	0x3c8b09b1	0.016972395
31	0xc021c4a3	-2.5276268
32	0x4022cf95	2.5439198
33	0x3e16fbee	0.14744541
34	0x3f8c113e	1.0942762
35	0xc01817dd	-2.3764565
36	0x3f3768c8	0.7164426
37	0xbd7b6e68	-0.06138459
38	0xbff4df1f	-1.9130591
39	0xc014274d	-2.3148987
40	0x3f1ceb12	0.6129619
41	0x4053a04f	3.3066595
42	0xbe1611f9	-0.14655294
43	0x3db7ca87	0.08974176
44	0x4019e34c	2.404498
45	0x3f22a573	0.63533705
46	0xbd05e73f	-0.032691237
47	0xbf639cea	-0.88911307
48	0x3e00818c	0.12549418
49	0x407bcb79	3.934294
50	0xbd8cbaf3	-0.06871595
51	0xbd850a25	-0.064960755
52	0x3fdb12e4	1.711514
53	0x3e2a1d1f	0.16612671
54	0x3dfb61f6	0.12274544
55	0x3e297bc6	0.16551122
56	0x402f2b5d	2.7370217
57	0xbfb4842b	-1.4102834
58	0x4016b9f6	2.3551002
59	0xbf0f083a	-0.5587193
60	0x4025fdc9	2.5936148
61	0xbfb3720b	-1.4019178
62	0xbfe128b1	-1.7590543
63	0xbfdd64dd	-1.7296406
64	0x40198f74	2.3993807
65	0xbfa7db01	-1.311371
66	0xbd8cc5cb	-0.068736635
67	0xbeab5002	-0.3345948
68	0x3fa1aee6	1.26315
69	0xbdfa5870	-0.12223899
70	0x3e7f558e	0.2493498
71	0xbf83f767	-1.0309876
72	0x3ec47b7e	0.38375467
73	0x3e5b8afe	0.2143974
74	0x3f162e62	0.58664525
75	0xbd71afef	-0.059005674
76	0x3ea50a0c	0.32234228
77	0xbf44a3d2	-0.7681247
78	0xbeb3aa17	-0.35090706
79	0xbf84a048	-1.0361414
80	0x3fbf4372	1.4942458
81	0xbf220747	-0.63292354
82	0x3faeec85	1.366593
83	0x3dba623e	0.091007695
84	0x401567aa	2.3344522
85	0xbf381e66	-0.71921384
86	0xbed0eb6e	-0.4080462
87	0x3ef97ce1	0.48728088
88	0x3fca35f8	1.579772
89	0xbfb3b374	-1.403914
90	0x3fca3ca7	1.579976
91	0xc02c9736	-2.6967292
92	0x3f1e43a3	0.61821955
93	0xc0372db9	-2.8621657
94	0xbfe7f417	-1.8121365
95	0xc00271a3	-2.0381858
96	0xbfa893d7	-1.3170117
97	0x40631ce8	3.5486393
98	0x4041b0bc	3.026412
99	0xbe1ddf2e	-0.15417168
100	0xbebaf203	-0.36512765
101	0xbef8db2d	-0.48604718
102	0xbe99ec06	-0.30062884
103	0xbed33f72	-0.41259342
104	0x3f5cb45b	0.862127
105	0xbec035bd	-0.37541
106	0x3f96f749	1.1794215
107	0x3e368f7a	0.1782817
108	0x400424c6	2.0647445
109	0xbf2d4bdf	-0.67693895
110	0xbf25e521	-0.6480275
111	0x3e46648c	0.19374293
112	0x4059577a	3.3959641
113	0xbf5d39bf	-0.8641624
114	0xbe8c31a9	-0.27381638
115	0x3e9519ed	0.29121342
116	0x40077851	2.1167185
117	0xbe4201b2	-0.18945959
118	0x3ea6187d	0.32440558
119	0x3efdbdc4	0.49558842
120	0x3f891f49	1.0712672
121	0xbfca136a	-1.5787175
122	0x3ff04437	1.8770818
123	0xbf06e343	-0.52690524
124	0x400b4327	2.1759737
125	0xbdb09d30	-0.08623731
126	0x3f8bb733	1.0915283
127	0x3e1b23d6	0.15150389
128	0x3c440ed7	0.011966429
129	0xbfc2b814	-1.5212426
130	0xbdbc57e3	-0.091964506
131	0xbf9be068	-1.2177858
132	0x3ff5230a	1.9151318
133	0xbfc9ef3f	-1.5776137
134	0x3c9a8c5f	0.018865762
135	0xbfc776f4	-1.5583177
136	0xbfb627af	-1.423086
137	0xbfd51569	-1.6647159
138	0x3c8bf429	0.017084198
139	0x3e0c7fea	0.1372067
140	0x3fadb6fe	1.357147
141	0xbe4bac89	-0.19890036
142	0xbe8c2f18	-0.2737968
143	0x3da27a37	0.07933467
144	0xbe96e8bf	-0.29474446
145	0xbe2fdec5	-0.17174824
146	0xbe98847c	-0.29788578
147	0xbe79c5b8	-0.2439183
148	0xbdab9bcc	-0.08379325
149	0xbd2ea288	-0.04263547
150	0xbe2b3d57	-0.16722618
151	0xbd64a200	-0.055818558
152	0xbed65c11	-0.41867116
153	0x407248bd	3.7856896
154	0xbe9e83c4	-0.30959904
155	0x3d88fa30	0.066883445
156	0x4023bea5	2.558511
157	0x3dccf064	0.100067884
158	0x3f0e5747	0.55601925
159	0x3f809bc6	1.0047538
160	0x3cf549ed	0.029942477
161	0x408f99b1	4.487511
162	0x3c460741	0.01208669
163	0xbe2137b0	-0.157439
164	0x3fbdb8d1	1.4822026
165	0x3df0e88d	0.117631055
166	0x3d1c85e7	0.038213637
167	0xba7b75ca	-0.0009592442
168	0xbe8cd554	-0.27506506
169	0xbfa5d691	-1.2956105
170	0x3f95cdb0	1.1703396
171	0x3e677f70	0.22607207
172	0x3f8db0c0	1.1069565
173	0xbf21aef6	-0.63157594
174	0xbe4eddbc	-0.20201772
175	0xbedecd00	-0.43515778
176	0x3eea8403	0.45803842
177	0xc0b90cf8	-5.782833
178	0x4009833f	2.1486356
179	0x3f0c48c5	0.5479854
180	0x400977d1	2.147938
181	0xbf264224	-0.6494467
182	0xbfa33a2d	-1.2752129
183	0xbe0379fa	-0.12839499
184	0x3f49bba0	0.7880192
185	0xbfb32929	-1.3996936
186	0x3fb65e06	1.4247444
187	0xbef0ea95	-0.47053972
188	0x3fd6b4f4	1.6773973
189	0xbdc6f726	-0.097151086
190	0x3f24fdb1	0.644496
191	0xbdc60290	-0.096684575
192	0x3c0d42a5	0.008621846
193	0x4022a007	2.5410173
194	0x3eea0705	0.4570848
195	0x3f1070f2	0.5642234
196	0x3ffe3bee	1.9862039
197	0x3ee973d6	0.45596188
198	0xbf67b132	-0.90504754
199	0xbf4121c5	-0.75442153
200	0x3f847e42	1.0351031
201	0xc0094ad0	-2.1451912
202	0xbf46e361	-0.776907
203	0xbf4b0397	-0.7930235
204	0xbdce6d62	-0.10079457
205	0xbf5eac94	-0.86982083
206	0xbe53b3b2	-0.20674017
207	0xbf51a149	-0.81886727
208	0x3f619e1c	0.8813188
209	0xbf049b34	-0.5179932
210	0x3f9df120	1.233921
211	0x3dd90554	0.105967194
212	0x400314ae	2.0481372
213	0xbf3abd15	-0.72944766
214	0xbea68c51	-0.32528928
215	0x3e7cd713	0.2469142
216	0x3c328ab3	0.010897326
217	0x4067d784	3.622529
218	0xbe208366	-0.15675125
219	0xbc15c8d6	-0.009142121
220	0x4001ae51	2.0262644
221	0xbd277413	-0.04088218
222	0xbe04bae2	-0.12961915
223	0xbdf8dd73	-0.12151613
224	0xbe66381f	-0.22482346
225	0xbe3b9e8c	-0.183222
226	0x3d612ea8	0.054976135
227	0xbeab4282	-0.3344918
228	0xbe503114	-0.20331222
229	0xbdf85f9e	-0.121276125
230	0xbc8a43f0	-0.016878098
231	0x3d20b688	0.039236575
232	0xbd54b920	-0.05193436
233	0xbe4dc418	-0.20094335
234	0x3df252f0	0.11832225
235	0xbe19405c	-0.14965957
236	0xbeb31cd3	-0.3498293
237	0xbc0d7ac0	-0.008635223
238	0x3e130384	0.1435681
239	0x3c24c4a0	0.010056645
240	0x3d9a979d	0.07548449
241	0x40862bbf	4.19284
242	0xbd317b81	-0.043330673
243	0xbe23f1f4	-0.16010267
244	0x3fbc2eda	1.4701798
245	0x3e271408	0.16316235
246	0x3d97f659	0.07420034
247	0x3d965a29	0.073414154
248	0x4071ed97	3.7801263
249	0xbf4690be	-0.7756461
250	0xbf220cbb	-0.63300675
251	0xbf787206	-0.97048986
252	0x3fd7ee77	1.6869649
253	0x3f7b8e04	0.98263574
254	0x3f02c235	0.51077586
255	0x3f486b4e	0.78288734

hidden1.bias f4 [80]
0	0xc04781cd	-3.1172974
1	0xc0496688	-3.146883
2	0xbf7026e0	-0.9380932
3	0xbfb0b862	-1.3806269
4	0xbfd0e568	-1.6320009
5	0xc029b1da	-2.6514802
6	0xc04d3958	-3.206625
7	0x3e73f46e	0.23823711
8	0xbf8bf61f	-1.0934485
9	0xbfa9d7bb	-1.3268961
10	0x3f6f8fd4	0.9357884
11	0x3eacd69b	0.3375748
12	0xbff914b2	-1.9459441
13	0x3f46392b	0.7743098
14	0xbf9156c5	-1.1354605
15	0x3f5be95d	0.8590296
16	0x3fc53f1e	1.5409887
17	0x3ee62b7a	0.44955045
18	0xbe8093f8	-0.2511289
19	0xc066a56e	-3.603847
20	0xc04270c1	-3.038132
21	0x3f2e2ae4	0.68034196
22	0x3f1ab314	0.604295
23	0x3f47a38b	0.7798392
24	0xc001cdd7	-2.0281885
25	0x3d7c5699	0.061606023
26	0x3f646262	0.8921262
27	0xc044fcb7	-3.0779245
28	0xbd5b6d00	-0.053570747
29	0xbe86e433	-0.26345977
30	0xc03da194	-2.962987
31	0xbfb1ac98	-1.3880796
32	0xc0385c25	-2.880624
33	0x3f66e77a	0.90196955
34	0xc02ae7d1	-2.670399
35	0xc029e574	-2.6546297
36	0xbf5067fc	-0.8140867
37	0xbff311e7	-1.8989838
38	0xc03b9535	-2.9309819
39	0xc0373aaa	-2.8629556
40	0x3f103088	0.5632405
41	0xc05ae102	-3.4199834
42	0xc04e2c41	-3.221451
43	0xbfc3c54b	-1.5294584
44	0x3ebbf570	0.3671069
45	0xbe7b4461	-0.24537803
46	0x3e9a115d	0.30091372
47	0xbf0194bd	-0.5061758
48	0xc03cbe1f	-2.949104
49	0xc0364307	-2.847841
50	0xbe90afe6	-0.282592
51	0x3f3814da	0.71906817
52	0xbeab3c95	-0.33444658
53	0xbe07fc98	-0.1327995
54	0xbf9240e3	-1.1426052
55	0x3e818924	0.25299942
56	0xbe0eed33	-0.13957672
57	0xc047d53f	-3.1223905
58	0x3de1d139	0.11026234
59	0x3e8e4220	0.27784824
60	0x3eca5dbf	0.39524648
61	0xbfda9d76	-1.7079303
62	0xbe9a0249	-0.30079868
63	0x3f06b8b6	0.52625597
64	0xbf184650	-0.5948229
65	0xbfa2d845	-1.272225
66	0xbe3d707e	-0.18499944
67	0x3f30817c	0.6894758
68	0xc043a259	-3.056784
69	0x3e9e2d20	0.30893803
70	0xc008a089	-2.1347983
71	0xbe9fc715	-0.31206575
72	0x3f2e69e4	0.68130326
73	0xbebd8f82	-0.3702355
74	0xbda5a8f4	-0.08088866
75	0xc0434573	-3.0511138
76	0xbe9d8352	-0.30764252
77	0x3f0640e4	0.52442765
78	0xc0536472	-3.3030057
79	0xc042630f	-3.037296

hidden2.weight f4 [40, 80]
0	0x3cf78610	0.030215293
1	0x3d859f96	0.06524579
2	0xbd3b6256	-0.045748077
3	0xbeb6f8aa	-0.3573659
4	0xbea329be	-0.31867784
5	0xb7b60000	-2.169609e-05
6	0xbc505c90	-0.012717381
7	0xbe9d791b	-0.3075646
8	0xbebdbfee	-0.37060493
9	0xbe8706aa	-0.26372272
10	0xbe76325a	-0.24042645
11	0xbe633d80	-0.22191429
12	0xbec5c97d	-0.38630286
13	0xbe77449a	-0.24147263
14	0xbd91c775	-0.071181215
15	0xbeb6a375	-0.35671583
16	0xbebce4ee	-0.3689341
17	0xbeb6e7d1	-0.35723737
18	0x3cdbae38	0.026816472
19	0xbc4c1648	-0.012456484
20	0xbdbe1ef4	-0.092832476
21	0xbea403d7	-0.3203418
22	0xbe455b83	-0.1927319
23	0xbe8443c1	-0.25832942
24	0xbe91735b	-0.28408322
25	0xbea2b69a	-0.3177994
26	0xbe918d00	-0.28427887
27	0x3d672c08	0.056438476
28	0xbdac5ea4	-0.08416489
29	0xbd34c818	-0.044136137
30	0xbd65dd1e	-0.056119077
31	0xbea80e91	-0.32823613
32	0x3c657960	0.014005989
33	0xbe9f8a46	-0.31160182
34	0xbdc7744e	-0.0973898
35	0xbeaa257c	-0.33231723
36	0xbced51e8	-0.02896972
37	0x3d3d611c	0.04623519
38	0xbd72bc78	-0.05926177
39	0xbdb44401	-0.08802033
40	0xbeb49efb	-0.35277542
41	0xbb833d20	-0.0040050894
42	0xbb699080	-0.0035639107
43	0x3dd9175e	0.1060016
44	0xbe93a63d	-0.28837767
45	0x3dc5e346	0.096624896
46	0xbe7f5be8	-0.24937403
47	0xbeaa3c54	-0.33249152
48	0xbddff9fb	-0.10936352
49	0x3d9a6694	0.075390965
50	0x3d20cbb8	0.03925678
51	0xbe4d70ed	-0.20062609
52	0xbe8ee800	-0.27911377
53	0xbe8e3858	-0.27777362
54	0xbd8dd9e2	-0.069263235
55	0xbe41d253	-0.18927889
56	0xbbb90dd0	-0.0056473985
57	0xbd475686	-0.0486665
58	0xbd6dbdfb	-0.058042508
59	0xbe580778	-0.21096599
60	0xbe4eca76	-0.2019442
61	0xbea50173	-0.32227668
62	0xbe6e14e4	-0.23250157
63	0xbe48b197	-0.19598995
64	0xbd8f5b84	-0.06999877
65	0xbe29416e	-0.16528866
66	0xbe48ebf8	-0.19621265
67	0xbe3e1ad4	-0.18564922
68	0xbcbef160	-0.023308456
69	0xbeb5bea0	-0.35496998
70	0x3d92ec9c	0.07174036
71	0xbd9a2b8e	-0.07527839
72	0xbe4cf4e1	-0.20015289
73	0xbec33c2a	-0.3813184
74	0xbe8e559a	-0.27799684
75	0xbc8058f4	-0.015667416
76	0xbe30cd11	-0.17265727
77	0xbe9d541f	-0.30728242
78	0x3c9b6a20	0.018971503
79	0xbd1d7a24	-0.03844656
80	0x4037db22	2.8727498
81	0x4039e44a	2.9045587
82	0x3fa53398	1.290637
83	0xc074c4dd	-3.8245156
84	0xbfba2c41	-1.4544755
85	0x4009147d	2.1418755
86	0x40134de3	2.3016288
87	0x3fe68948	1.8010645
88	0x3e585acd	0.21128388
89	0x3c3e4bf5	0.011614789
90	0x3f1c1678	0.60971785
91	0x3ecebe01	0.40379336
92	0xc0162f61	-2.3466418
93	0x3e7e11aa	0.24811426
94	0x3f6bdd51	0.9213458
95	0x3eb8e3ab	0.36111197
96	0x3fc23244	1.517159
97	0xbd1a63a7	-0.037692692
98	0x3d6dd798	0.058066934
99	0x40a0b2d3	5.021829
100	0x4013b55a	2.3079438
101	0xbced8122	-0.02899224
102	0xc060ba3f	-3.5113676
103	0x3de90c84	0.1137934
104	0x3f033ca9	0.51264435
105	0x3e9e3e95	0.3090712
106	0x3ee3ce0b	0.44493136
107	0x3febe709	1.8429881
108	0xbd7438dd	-0.05962454
109	0xbdbff700	-0.093732834
110	0x40050921	2.0786822
111	0x3fc46a58	1.5344954
112	0x404bd10f	3.184635
113	0x3ee9f333	0.4569336
114	0x3fbd25f5	1.4777209
115	0x40082276	2.1271033
116	0xc080e5bb	-4.0280433
117	0x3da95276	0.08267681
118	0x3fe57576	1.7926471
119	0x3ff9dff0	1.9521465
120	0xbd017964	-0.031609908
121	0x40367555	2.8509114
122	0x40202724	2.502389
123	0x3fb9a958	1.4504805
124	0x3f75ce4a	0.960179
125	0xbdd6d504	-0.10489848
126	0x3e42f5d1	0.19039084
127	0x3edf3cf5	0.43601194
128	0xc02a2a01	-2.6588137
129	0x3ffef365	1.9918028
130	0x3e159f89	0.14611639
131	0x3e4e5447	0.20149337
132	0xbd52b209	-0.05143932
133	0xbca97cc7	-0.020689381
134	0x405fb381	3.495331
135	0x3ecf0178	0.40430808
136	0x3fb455bd	1.4088665
137	0x3ffbd596	1.9674556
138	0x3e4db83a	0.20089808
139	0x3f98fd58	1.1952314
140	0x3ecbfa05	0.39839187
141	0x3f538101	0.8261872
142	0x3ffd5d0c	1.9794021
143	0xbdb46b2e	-0.088095054
144	0x3f2f0f2e	0.6838254
145	0xc09bbc41	-4.86673
146	0x3fafb6c2	1.3727648
147	0x3e2cdcc3	0.16881089
148	0x3fed4c25	1.8538862
149	0x3f049326	0.5178703
150	0x3fe54263	1.7910885
151	0x3daa1554	0.08304849
152	0x3e9b71b2	0.3036018
153	0x3e2f1627	0.17098294
154	0x3ec0f51e	0.3768701
155	0x40290d3b	2.6414325
156	0x3e145430	0.1448524
157	0xbd0d38d4	-0.034478024
158	0x4031b6ad	2.7767746
159	0x40354d93	2.8328598
160	0xbd1f2f6b	-0.03886358
161	0x3da0552c	0.07828745
162	0x3ca3877c	0.019962065
163	0xbddbf469	-0.10739977
164	0xbd8828ac	-0.066483825
165	0xbdd494d2	-0.10379948
166	0xbdcf3005	-0.10116581
167	0xbdc315aa	-0.095256165
168	0xbd4665b8	-0.04843685
169	0xbca6f198	-0.020378873
170	0xbd7159dd	-0.05892359
171	0xbd9a1635	-0.07523767
172	0x3cb973f5	0.0226383
173	0xbd1c910f	-0.038224276
174	0x3d1b9def	0.037992414
175	0x3c44a2ba	0.012001688
176	0xbc546c37	-0.012965254
177	0xbc958cdd	-0.018255645
178	0x3cc0ce30	0.023535818
179	0xbc6fe908	-0.014642961
180	0xbde4a9ff	-0.11165237
181	0xbe263935	-0.1623276
182	0xbd0ea241	-0.034822706
183	0xbddce780	-0.107863426
184	0xbd24c15a	-0.040223457
185	0xbc2aa3d9	-0.010415041
186	0x3d1e045e	0.038578384
187	0xbd0d2517	-0.0344592
188	0x3d9c96d8	0.07645959
189	0xbd761693	-0.060080122
190	0x3cce3f2b	0.025176605
191	0xbd8899a4	-0.066699296
192	0xbe026e09	-0.12737288
193	0x3b8f39fb	0.0043709255
194	0xbe336475	-0.1751879
195	0x39dda0c8	0.00042272196
196	0xbcb3ea67	-0.021962358
197	0xbc9ad748	-0.018901482
198	0xbd9e4702	-0.077283874
199	0xbcd9487d	-0.026523823
200	0xbc4d370e	-0.012525333
201	0xbe15d640	-0.14632511
202	0x3da408ca	0.08009489
203	0xbdd18496	-0.10230367
204	0xbe1ba8e0	-0.1520114
205	0xbc2f3cc8	-0.010695644
206	0xbdacd4bf	-0.084390156
207	0xbd653b92	-0.055965014
208	0x3ca36105	0.019943723
209	0xbdb99dbd	-0.09063289
210	0xbd5f0076	-0.0544438
211	0xbdafec10	-0.08589947
212	0xbdff28e5	-0.12458972
213	0xbe32ff36	-0.17480168
214	0xbd93cceb	-0.072168194
215	0xbc8837e7	-0.016628219
216	0x3cdadbea	0.026716191
217	0x3c8955ed	0.016764605
218	0xbdde60db	-0.108583175
219	0xbe022044	-0.12707621
220	0xbe0784e3	-0.13234286
221	0xbd58c04f	-0.052917775
222	0xbd642613	-0.055700373
223	0xbe326d6f	-0.17424558
224	0xbded4300	-0.11585045
225	0xbe0683df	-0.13136242
226	0xbd6acd33	-0.0573246
227	0xbd80bd3c	-0.062860936
228	0xbe00081a	-0.1250309
229	0xbdf920e4	-0.121644765
230	0xbde04fcc	-0.1095272
231	0xbdb7094e	-0.089373216
232	0xbe060894	-0.1308921
233	0xbc0f41ff	-0.008743762
234	0xbe31dcad	-0.17369337
235	0x3dda0464	0.10645369
236	0xbd24923c	-0.040178522
237	0xbda5a364	-0.08087805
238	0x3c7abc06	0.015303617
239	0x3cf09c31	0.029371353
240	0xbdfe5af5	-0.124196924
241	0xbdc58a33	-0.096455
242	0xbe2668b7	-0.16250883
243	0xbd801cfd	-0.06255529
244	0x3c69c774	0.014268745
245	0xbd25d0c1	-0.040482286
246	0xbdde9ebb	-0.10870119
247	0x3cec5641	0.028849723
248	0xbb6b7fe2	-0.0035934378
249	0x3d5d9b08	0.054102927
250	0xbd734699	-0.0593935
251	0xbe10e8bb	-0.1415128
252	0x3c9d01fa	0.019165982
253	0xbdd7081e	-0.10499595
254	0xbbf3118d	-0.0074178637
255	0xbde1135e	-0.10990022

hidden2.bias f4 [40]
0	0xbeb4806c	-0.35254228
1	0x4033fffd	2.8124993
2	0xbd1e66a6	-0.038672112
3	0xbda73ac9	-0.08165509
4	0xbee8371d	-0.45354548
5	0x4032bd1e	2.7927928
6	0x40372725	2.8617642
7	0xbd3f94e2	-0.046772845
8	0xbebcdc41	-0.3688679
9	0xbd3d8032	-0.046264835
10	0x4041d565	3.0286496
11	0x40344a48	2.8170338
12	0x4034cb20	2.8248978
13	0xbd018530	-0.031621158
14	0xbe0080d5	-0.12549146
15	0x4031b11c	2.776435
16	0xbcbcaa23	-0.023030346
17	0xbd808d00	-0.062768936
18	0xbed10297	-0.40822288
19	0xbe040838	-0.1289376
20	0x40178877	2.3677042
21	0x403cfbc0	2.9528656
22	0x403cca07	2.9498308
23	0xbe232daa	-0.15935388
24	0xbde1e80e	-0.11030589
25	0x403583e9	2.8361762
26	0x40311e06	2.7674575
27	0xbf0ab818	-0.54187155
28	0x403a37dd	2.9096596
29	0x403882cd	2.8829834
30	0x403db47d	2.9641411
31	0xbe116f26	-0.14202556
32	0x3b8105b5	0.003937448
33	0x40132842	2.2993321
34	0xbda74f19	-0.081693836
35	0xbe26dd40	-0.16295338
36	0x40366bb2	2.8503232
37	0x3ce7e97a	0.028309572
38	0xbe0016b8	-0.12508667
39	0xbe2e895a	-0.17044583

hidden3.weight f4 [20, 40]
0	0xbe04aca3	-0.1295648
1	0xbdb70988	-0.08937365
2	0xbd84270b	-0.06452759
3	0x3db98a16	0.09059541
4	0xbe184b09	-0.14872374
5	0xbe0f182e	-0.13974068
6	0x3dcf0c26	0.10109739
7	0xbd8941fc	-0.06702039
8	0xbe0b3330	-0.13593745
9	0x3d754d44	0.05988814
10	0xbe167522	-0.1469312
11	0xbe05ca9c	-0.1306557
12	0x3d4944e4	0.049137965
13	0x3d2abcd4	0.041683987
14	0xbe0c9961	-0.13730384
15	0xbe0b4e22	-0.13604024
16	0x3ded37e2	0.115829244
17	0x3c143370	0.009045467
18	0xbdf8fe89	-0.12157924
19	0x3e0dd19d	0.13849492
20	0x3dab4ece	0.0836464
21	0xbd7bb1fa	-0.06144903
22	0x3d9ee7ba	0.07759042
23	0x3d41b1bc	0.04728864
24	0x3d4940a4	0.04913391
25	0xbdc8a976	-0.09797947
26	0xbe0cc6d5	-0.13747723
27	0x3d4f0984	0.050546184
28	0x3cb934d8	0.022608206
29	0x3e04a997	0.12955318
30	0xbe146c0c	-0.14494342
31	0x3dc1ee8a	0.09469326
32	0xbe185bbf	-0.14878748
33	0xbe01194f	-0.1260731
34	0xbdb3ed25	-0.08785466
35	0x3d7d8ef8	0.061903924
36	0x3c250550	0.010072067
37	0xbd9d7f38	-0.07690281
38	0x3d64bba8	0.055843025
39	0x3b8a3080	0.0042172074
40	0xbd3aeca8	-0.04563585
41	0xbcc78a81	-0.024358036
42	0xbc727700	-0.01479888
43	0xbb2f6e89	-0.0026768765
44	0xbe065748	-0.13119233
45	0x3d95ab96	0.07308118
46	0xbe3dfa98	-0.18552625
47	0xbe163eca	-0.1467239
48	0x3d784c08	0.060619384
49	0xbd59f070	-0.053207815
50	0x3d5b1350	0.053485215
51	0x3dbe95d6	0.09305923
52	0x3b576793	0.0032868132
53	0xbd9d2a82	-0.07674123
54	0xbc2b3710	-0.01045014
55	0x3db74f96	0.08950727
56	0x3decab52	0.11556114
57	0x3d686b84	0.05674316
58	0x3d38b770	0.045096815
59	0xbda70284	-0.08154777
60	0x3d4750b2	0.04866094
61	0x3d5b65f8	0.05356404
62	0xbe57336f	-0.21015714
63	0xbcac1198	-0.021004483
64	0x3e104203	0.14087681
65	0x3c01b793	0.007917303
66	0xbe50ef45	-0.20403774
67	0xbcffddc0	-0.031233668
68	0x3d6b499e	0.057443254
69	0x3d2f5f8c	0.04281573
70	0xbe2fb535	-0.17158969
71	0x3da4cbac	0.0804666
72	0x3d833602	0.064067855
73	0x3e1cf9c7	0.15329657
74	0xbd2bb89e	-0.04192411
75	0x3d5d12ec	0.053973123
76	0xbd7d38b4	-0.061821654
77	0x3c97ccc2	0.018530253
78	0x3e0992f3	0.13434963
79	0xbd82bb19	-0.06383342
80	0x3ce270c8	0.027641669
81	0x3daf1fa8	0.0855096
82	0xbd641862	-0.055687316
83	0xbcfafbb8	-0.030637607
84	0x3dbd32fe	0.092382416
85	0xbc980600	-0.018557549
86	0xbe0c48fb	-0.13699715
87	0x3d9a0222	0.07519938
88	0x3d3789dc	0.044809207
89	0xbdc0afc7	-0.09408527
90	0xbdd70360	-0.104986906
91	0xbb750ec0	-0.0037392825
92	0xbdab154c	-0.083536714
93	0x3c7cabc0	0.015421808
94	0x3cb45188	0.022011533
95	0x3dea718e	0.1144744
96	0x3da32540	0.07966089
97	0x3dd5bb2e	0.10436092
98	0xbcc549f8	-0.024083123
99	0xbe03531c	-0.12824672
100	0xbdf37762	-0.11888005
101	0x3d424f38	0.04743883
102	0xbe13ecde	-0.14445826
103	0xbde76c37	-0.11299937
104	0xbc2a6f20	-0.010402471
105	0xbddf9e30	-0.10918844
106	0x3d1880f4	0.037232354
107	0x3d0539b8	0.032525748
108	0x3ccb7910	0.024838
109	0xbdf37432	-0.11887397
110	0x3e0d479f	0.13796853
111	0x3dc25d86	0.094904944
112	0xbd5ef3bc	-0.054431662
113	0xbddba2a2	-0.10724379
114	0x3dcc1cd2	0.099664345
115	0xbd9a9ca1	-0.07549406
116	0x3c318420	0.010834724
117	0x3da7652e	0.08173595
118	0x3d8f79b0	0.07005632
119	0xbb4deac0	-0.003142044
120	0x3dce1dd6	0.100642845
121	0xbe10a20d	-0.14124317
122	0x3cce7df9	0.025206553
123	0xbe4d73fe	-0.20063779
124	0xbdd159db	-0.10222217
125	0x3da0f48c	0.078591436
126	0xbd0f4bec	-0.034984514
127	0xbdc1767e	-0.09446429
128	0x3e19d065	0.15020902
129	0x3cbd5a68	0.023114398
130	0xbd9e7977	-0.07738011
131	0xbe627241	-0.22113897
132	0x3db149f1	0.08656681
133	0xbd7ccb47	-0.061717298
134	0xbe0bb8c8	-0.13644707
135	0xbde5fd4d	-0.11229954
136	0xbc16d2ce	-0.009205533
137	0xbe15956b	-0.1460778
138	0xbe47bc1a	-0.19505349
139	0xbe43d70b	-0.19125001
140	0x3d8b3350	0.067968965
141	0xbe04d90d	-0.12973423
142	0xbe3cf04f	-0.18451045
143	0x3d752104	0.05984594
144	0xbd62af3a	-0.05534289
145	0xbce82e5a	-0.028342415
146	0xbd9dde47	-0.07708412
147	0x3abf8200	0.0014610887
148	0xbe0d6473	-0.1380785
149	0xbe0a8c14	-0.13529998
150	0xbdfb3bfe	-0.12267302
151	0xbd90bac9	-0.070668764
152	0x3d2d7cf7	0.042355504
153	0x3d4a5f3c	0.04940723
154	0x3d025399	0.031818006
155	0x3c2e8d60	0.010653824
156	0xbe163e26	-0.14672145
157	0xbd8a6bd5	-0.067588486
158	0xbd150de9	-0.03639022
159	0xbc3c03a8	-0.011475481
160	0xbece30dd	-0.40271655
161	0x3f846195	1.034228
162	0xbc8acfbb	-0.016944757
163	0x3e0f3572	0.13985232
164	0x3e4dd032	0.20098951
165	0x3f8942b0	1.0723476
166	0x3f936927	1.1516465
167	0xbceeab95	-0.029134551
168	0xbea6ca97	-0.3257644
169	0xbd3f0794	-0.046638086
170	0x3f8c08b9	1.0940162
171	0x3f8ef6b6	1.116904
172	0x3f70e6b5	0.9410203
173	0x3de472ea	0.111547306
174	0xbd7e7563	-0.062123667
175	0x3f8bfd6f	1.0936717
176	0xbdbbef59	-0.09176511
177	0xbcfec716	-0.031100791
178	0xbe5943f7	-0.21217333
179	0x3db629a2	0.088946596
180	0x3f232165	0.6372283
181	0x3f8c2a7f	1.0950469
182	0x3f8722b3	1.0557464
183	0x3d999f0f	0.07501041
184	0xbb46c943	-0.0030332364
185	0x3f5a1cf7	0.85200447
186	0x3f53f86f	0.82800955
187	0x3de2ac8c	0.11068067
188	0x3f749299	0.9553619
189	0x3f8d7315	1.1050745
190	0x3f8c0500	1.0939026
191	0xbd5907fa	-0.052986123
192	0xbcb4cc6c	-0.022070132
193	0xc11cd964	-9.803074
194	0x3e369f13	0.1783412
195	0xbd4bacbc	-0.04972528
196	0x3f8c842b	1.0977834
197	0xbc139f2a	-0.009010116
198	0xbd0e2363	-0.034701716
199	0x3dab6628	0.08369094
200	0xbea11ef2	-0.31468922
201	0x3f980364	1.1876035
202	0xbcd3d800	-0.025859833
203	0x3d8b45b6	0.06800406
204	0x3e522afa	0.20524207
205	0x3f8d5835	1.1042544
206	0x3f896b6b	1.0735906
207	0x3b9f5318	0.0048622005
208	0xbeb0760c	-0.34465063
209	0x3bd0aac0	0.0063680112
210	0x3f96d11c	1.1782565
211	0x3f5fa4a5	0.873606
212	0x3f98bb63	1.1932186
213	0x3e502191	0.20325305
214	0x3e2c1e91	0.16808535
215	0x3f91be30	1.1386166
216	0x3c56bea4	0.013106976
217	0xbd8e41d8	-0.069461524
218	0xbea1b29c	-0.3158158
219	0x3c9aa54d	0.01887765
220	0x3f439122	0.7639333
221	0x3f901b23	1.1258281
222	0x3f8f900e	1.1215837
223	0x3ce58f60	0.028022468
224	0x3e34dd64	0.17662579
225	0x3f8d0ab0	1.1018887
226	0x3f8f28eb	1.1184362
227	0x3e9b603b	0.30346856
228	0x3f9c41f0	1.2207623
229	0x3f95fb8e	1.1717393
230	0x3f837ee4	1.0273099
231	0xbb99a666	-0.0046890257
232	0x3e044a77	0.12919031
233	0xc11d34be	-9.8253765
234	0xbd3713e8	-0.04469672
235	0x3e3ea911	0.18619181
236	0x3f81ad1c	1.0130954
237	0x3c8081ea	0.015686948
238	0xba112783	-0.0005537199
239	0xbc0aee21	-0.008479626
240	0xbd5e8a18	-0.054330915
241	0xbd2f1881	-0.042747978
242	0x3dbddfd3	0.09271207
243	0x3d9fa26d	0.07794652
244	0x3e5b12f4	0.21393949
245	0xbdb296ae	-0.08720146
246	0xbaacb443	-0.0013176281
247	0x3e415572	0.18880251
248	0x3c9a2fa8	0.018821552
249	0xbdd3337f	-0.103125565
250	0xbdc95073	-0.098297976
251	0xbd87b770	-0.06626785
252	0xbdb52c86	-0.08846383
253	0x3d7d438c	0.061831996
254	0x3e029ca3	0.12755065
255	0xbd0775de	-0.03307139

hidden3.bias f4 [20]
0	0xbdaf0eda	-0.085477546
1	0xbe459867	-0.19296418
2	0xbd3d100a	-0.046157874
3	0x3d22067e	0.039556973
4	0x407d2b15	3.9557545
5	0x407dc5e4	3.9652033
6	0xbe540007	-0.20703135
7	0x3ac1268c	0.0014736219
8	0xbcfa1830	-0.030529112
9	0x3c2a30df	0.010387628
10	0x3c8e43a0	0.01736623
11	0xbdb63e1f	-0.088985674
12	0xbe359f47	-0.1773654
13	0xbdf8f629	-0.12156326
14	0x40707839	3.7573378
15	0x406bd298	3.6847286
16	0x40717351	3.7726634
17	0x4073bab6	3.808271
18	0x406e9957	3.7281091
19	0xbe6ac308	-0.22925961

hidden4.weight f4 [10, 20]
0	0x3d96e4b4	0.073678404
1	0xbdc269da	-0.09492846
2	0xbdeeab70	-0.11653793
3	0x3e52c192	0.20581654
4	0xbd7e81d8	-0.062135547
5	0x3ca24140	0.019806504
6	0xbdacc912	-0.084367886
7	0xbd1526e0	-0.036414027
8	0x3db53a4c	0.0884901
9	0x3dedf384	0.116187125
10	0x3d1fa798	0.03897819
11	0x3d3b93c8	0.045795232
12	0x3e2d7732	0.1694
13	0xbe395709	-0.18099608
14	0xbbe12140	-0.006870419
15	0xbe423ec7	-0.1896926
16	0xbe41e1c5	-0.1893378
17	0xbe5ce923	-0.2157331
18	0x3e465eea	0.19372144
19	0x3dfb1ba4	0.122611314
20	0x3dee44bc	0.11634204
21	0xbe206c6c	-0.1566636
22	0xbd246918	-0.040139288
23	0x3e31ff92	0.17382649
24	0x3c5b7c80	0.013396382
25	0xbe14c158	-0.1452688
26	0xbc0b00e0	-0.008484095
27	0x3e2cc13a	0.16870585
28	0x3c6c1840	0.0144100785
29	0xbdff04e9	-0.124521084
30	0x3db2b3b4	0.08725682
31	0xbe1f91d1	-0.15582968
32	0xbe0f3b4b	-0.13987462
33	0x3e1769c6	0.14786443
34	0xbdb19cee	-0.0867251
35	0xbd077da8	-0.03307882
36	0xbe08af8e	-0.13348219
37	0x3cf8a570	0.030352324
38	0x3e1fb356	0.15595755
39	0xbdb903e4	-0.09033945
40	0xbd98acf2	-0.07454862
41	0xbd7b9c24	-0.061428204
42	0x3d9661b8	0.07342857
43	0xbcbb6c28	-0.022878721
44	0x3f82464e	1.0177705
45	0x3f8cf884	1.1013341
46	0x3c3040f9	0.010757678
47	0xbe624a73	-0.22098713
48	0xbd98a36a	-0.07453044
49	0x3e31ac6a	0.17350927
50	0xbe4004ee	-0.1875188
51	0xbc8646f8	-0.016391262
52	0x3db98c9c	0.09060022
53	0xbe25dca8	-0.16197455
54	0x3fa11be0	1.2586632
55	0x3f799cb3	0.9750473
56	0x3f96a634	1.1769471
57	0x3f987cd7	1.1913098
58	0x3fa2ac36	1.2708805
59	0x3e46431c	0.19361538
60	0x3e48f6e0	0.19625425
61	0xbde107fa	-0.109878495
62	0xbe3f3d85	-0.18675812
63	0x3dcc10c3	0.099641345
64	0x3f793845	0.97351485
65	0x3f9d62c0	1.2295761
66	0xbd1a59a8	-0.03768316
67	0xbde8525c	-0.11343834
68	0x3ca49557	0.020090742
69	0xbdb8fd86	-0.09032731
70	0x3e174418	0.1477207
71	0x3db64269	0.088993855
72	0x3e39f594	0.18160087
73	0x3e3565fb	0.17714684
74	0x3f624e3c	0.88400626
75	0x3f66c725	0.9014762
76	0x3f4aa98c	0.7916496
77	0x3f9bca3d	1.2171093
78	0x3f4b87ed	0.7950428
79	0x3c17d2c9	0.009266564
80	0x3e5237b6	0.20529065
81	0x3dfc035c	0.12305328
82	0x3e342de8	0.17595637
83	0xbe5fd000	-0.2185669
84	0xbe309e60	-0.17247915
85	0xbe5b10cb	-0.21393125
86	0x3e56d3ac	0.20979184
87	0x3c555100	0.0130198
88	0xbd5fc458	-0.054630607
89	0x3e1215d8	0.14266145
90	0xbe48fe96	-0.19628367
91	0x3dc9eaf0	0.09859264
92	0x3dbf0c90	0.09328568
93	0xbdec230d	-0.11530123
94	0xbd858196	-0.06518857
95	0x3e2c4df2	0.16826609
96	0x3d15a5f8	0.036535233
97	0x3dc5dd80	0.096613884
98	0xbe550be4	-0.20805317
99	0xbe3e238a	-0.18568245
100	0x3dae09e8	0.08497983
101	0xbe1f0cf6	-0.15532288
102	0x3e199d16	0.1500133
103	0xbc550720	-0.013002187
104	0x3f660173	0.8984596
105	0x3f272b07	0.6530003
106	0x3c969bc0	0.018384814
107	0x3e34206e	0.17590496
108	0xbd40d7e8	-0.047080904
109	0x3da84590	0.08216393
110	0x3e375d56	0.17906699
111	0xbdd1eefc	-0.10250661
112	0xbe193298	-0.14960706
113	0x3e71e3b1	0.23622014
114	0x3f42da31	0.76114184
115	0x3f633253	0.88748664
116	0x3f61fbaa	0.88274634
117	0x3f83e4ef	1.030424
118	0x3f49bc3d	0.78802854
119	0xbdfc80b3	-0.12329235
120	0x3d83cbac	0.06435332
121	0x3df8eb84	0.12154296
122	0x3c5aab60	0.013346523
123	0xbe042589	-0.12904944
124	0xbca9ad40	-0.020712495
125	0xbda6ad0e	-0.08138476
126	0x3dca6d18	0.09884089
127	0x3cf4d5e0	0.02988714
128	0x3e5c182e	0.21493599
129	0xbd973f60	-0.07385135
130	0xbdb6ca40	-0.08925295
131	0xbcb93f78	-0.022613272
132	0xbe389040	-0.18023777
133	0x3dc133e0	0.094337225
134	0x3e3162ba	0.17322817
135	0x3cfdec90	0.03099659
136	0x3cd3ee18	0.025870368
137	0xbdfb9fe4	-0.12286356
138	0xbe2dcee0	-0.16973448
139	0x3e555638	0.20833671
140	0xbd827cd4	-0.06371465
141	0x3e5fd528	0.21858656
142	0xbdac0a56	-0.08400409
143	0xbe0fd3f6	-0.140457
144	0xbde359ea	-0.11101134
145	0xbe29bd08	-0.16576016
146	0x3ae2f500	0.0017315447
147	0x3e44228e	0.19153807
148	0x3e40ec4c	0.1884014
149	0x3e1a619e	0.150763
150	0xbe2448c7	-0.16043387
151	0xbc2f9550	-0.010716751
152	0xbe06920d	-0.13141651
153	0xbe50cb67	-0.20390092
154	0x3d42aae0	0.04752624
155	0x3dbe94f4	0.09305754
156	0x3e3f2f54	0.18670398
157	0xbd334088	-0.043762714
158	0xbe1bfb4a	-0.15232578
159	0x3d3a71f8	0.045518845
160	0xbce66178	-0.028122649
161	0x3ddfae9c	0.10921976
162	0xbe0647a2	-0.13113263
163	0xbd668b3f	-0.05628514
164	0xbe857972	-0.26069218
165	0xbe4f67ba	-0.20254412
166	0xbe642c75	-0.22282584
167	0x3de72e74	0.11288157
168	0x3e1d2db2	0.15349463
169	0xbd5de352	-0.054171868
170	0x3e120082	0.14258006
171	0xbc324b3b	-0.010882194
172	0x3e457b50	0.19285321
173	0xbe264cf2	-0.1624029
174	0x3e43a46e	0.19105694
175	0x3d6ad25e	0.057329528
176	0xbd965896	-0.07341115
177	0x3e500994	0.20316154
178	0xbdca18a0	-0.09867978
179	0xbdb8fc7e	-0.09032534
180	0xbe5ec5ad	-0.21755095
181	0xbdfafc0e	-0.12255107
182	0xbdd96d56	-0.10616557
183	0xbc54cc1e	-0.012988118
184	0x3fb139ad	1.3845726
185	0x3fbf84b4	1.4962373
186	0x3d74ed5f	0.059796687
187	0xbc804428	-0.0156575
188	0x3e5d8b5a	0.2163519
189	0x3d4d5f70	0.050139844
190	0xbce998f8	-0.028515324
191	0xbd92b772	-0.07163896
192	0xbcb33322	-0.021874968
193	0xbe0783b4	-0.13233835
194	0x3fb6e5b8	1.4288855
195	0x3f938a0f	1.1526507
196	0x3fa05180	1.2524872
197	0x3fabe2e9	1.3428622
198	0x3fa44eac	1.2836509
199	0x3b8712ee	0.0041221296

hidden4.bias f4 [10]
0	0xbe467fc8	-0.19384682
1	0xbe0a37e0	-0.13497877
2	0x409458ae	4.635825
3	0x40994203	4.789308
4	0xbe49335f	-0.19648503
5	0x408b61a9	4.3556714
6	0xbe34168b	-0.17586724
7	0xbcaed220	-0.02134043
8	0x3cdb11bc	0.026741855
9	0x409b2249	4.847935

regression.weight f4 [1, 10]
0	0xbe795575	-0.24349006
1	0x3e77de12	0.24205807
2	0x3f96d121	1.1782571
3	0x3f7daf6e	0.9909581
4	0xbddeb764	-0.10874823
5	0x3f5792b3	0.8420822
6	0xbe0cc942	-0.13748649
7	0x3de85b88	0.11345583
8	0x3d07571f	0.03304207
9	0x3fb8b527	1.4430283
