models/model96.pkl (torch, 23288 bytes, 9 tensors)

hidden1.weight f4 [80, 8]
000000 c5 ec 66 bc 85 5f 14 40 6e 47 3a 3d ac b0 d7 bd
       -0.014094536 2.31833 0.045478277 -0.10531744
000010 e9 45 e2 3f 2f 34 58 bd 39 83 10 3e 80 dc ed 3c
       1.7677585 -0.05278414 0.14112557 0.029035807
000020 5a b3 21 be 03 41 38 40 ff f8 f5 be 30 5c 47 bd
       -0.15791073 2.878968 -0.4804153 -0.0486719
000030 dd b9 18 40 e0 23 64 be 8c 50 a5 3c ef e0 52 3e
       2.3863442 -0.2227931 0.02018001 0.20593618
000040 bb c1 17 40 33 bc cc be a0 85 c0 bd c4 a3 e9 be
       2.3711994 -0.39987335 -0.09400487 -0.45632756
000050 5c cc c0 3f df 31 f6 3e a5 91 6a 3e ed 1a 81 3e
       1.5062366 0.48084924 0.22907121 0.25215855
000060 af c5 0c 40 a5 02 28 c0 dc 92 f6 be be 42 74 bf
       2.1995656 -2.6251614 -0.4815892 -0.9541434
000070 e3 5d b8 3f 6e e5 18 3e 14 30 f1 be 2b 36 fa bf
       1.4403652 0.1493127 -0.47106993 -1.9547781
000080 2f 7f 46 3f d5 ec 6c bd d2 b9 f8 3d 9a 96 9e be
       0.77537817 -0.057843048 0.121448174 -0.30974275
000090 0b da 3f 3f 9e 3d 63 be 65 60 12 bf 6b 88 dc be
       0.7494208 -0.22191474 -0.57178336 -0.4307283
0000a0 f7 b7 4f 3e eb 67 0a 40 7f 59 07 3e 13 89 ca 3d
       0.20285021 2.1625926 0.13217734 0.09889426
0000b0 3e ec f9 3f d0 8a 8a 3f 24 6f d4 bb df 5c 54 be
       1.952522 1.0823612 -0.0064829756 -0.20738553
0000c0 ee 08 2c be 00 94 19 40 60 a3 05 bd 34 61 1c be
       -0.16800281 2.3996582 -0.03262651 -0.15271455
0000d0 31 18 f5 3f dd 71 29 bd 5e a1 5a 3e 98 a2 af 3e
       1.9148008 -0.041368354 0.21350619 0.34303737
0000e0 9d 31 0b 40 bf 95 82 3e fa 7a 34 3f fc 75 2a bf
       2.1749032 0.25504872 0.7050015 -0.6658628
0000f0 70 0a cb 3f a0 0e 4d bf 22 e5 8d bf c5 bf a8 bf
       1.586256 -0.8010044 -1.1085551 -1.3183523
000100 d0 0c 10 40 d9 1e 04 bf 75 f2 7c bd 59 b1 80 3d
       2.250782 -0.5160957 -0.061754663 0.062838264
000110 ad e2 8f 3f fa 54 98 3d e7 64 ae 3e 18 0d e7 3e
       1.1241051 0.07438083 0.34061357 0.45127177
000120 ca c5 38 3f 0b 1a 89 3e a5 b8 3c 3f 09 36 84 3c
       0.721768 0.26777682 0.73719245 0.016139047
000130 46 15 02 3f 40 1c 2c be 42 c8 b2 bd 48 a0 84 bf
       0.5081371 -0.16807652 -0.087296024 -1.0361414
000140 66 4d de 3f d5 d5 06 bc 90 33 4d 3f b9 de 4f bd
       1.736737 -0.0082296925 0.80156803 -0.050749514
000150 69 81 a4 3f db 9f fb be 36 e2 83 bd 3f 0f 01 be
       1.2851993 -0.49145398 -0.06439631 -0.12603472
000160 f8 bb 9a 3f ce 45 cb be 8e f1 1f 3f 07 0d 54 3e
       1.2088614 -0.39701694 0.6247796 0.20708095
000170 39 35 5a 3f 84 4f 81 be c2 55 6e be 61 9c 6a bf
       0.8523746 -0.25255978 -0.23274902 -0.91644865
000180 3b 3c 3d 3f 8b 7e 88 3f b1 a2 98 3f 70 ca 91 bd
       0.7392003 1.0663618 1.192465 -0.0711869
000190 f0 c6 8e 3f 43 94 01 3f 23 76 de be 82 ab ab be
       1.1154461 0.50616854 -0.43449506 -0.33529288
0001a0 6e 32 ad 3f 9e bc 77 3e f8 aa 55 3f d2 23 27 bc
       1.3531015 0.24193045 0.83464 -0.010201411
0001b0 9d 44 af 3f 49 f4 e8 be 05 6b 8d be 55 fb 17 be
       1.3692814 -0.45498875 -0.27620712 -0.1484197
0001c0 b6 5e 2b 40 b4 16 c7 be cc 78 b8 bd 4d 1c 06 3e
       2.6776557 -0.3888451 -0.09007415 0.13096733
0001d0 44 2c ae 3f 49 44 3f 3e 3c 17 fc 3e e2 b8 2a 3f
       1.3607259 0.18678392 0.49236476 0.6668836
0001e0 ca dd c0 3f aa ad 1b bf ae 8c 74 3f 61 b7 0b bf
       1.5067685 -0.60811865 0.9552716 -0.5457669
0001f0 4e 99 91 3f 4f ae 86 3d 3c e5 ea 3e 82 1c a3 be
       1.137491 0.065762155 0.45878017 -0.31857687
000200 87 61 e6 3e b1 c8 fe be 7f 1a 9c 3e 22 fd 8f be
       0.44996282 -0.4976249 0.30488965 -0.28122813
000210 37 61 11 3f e3 07 5b be 06 d1 bc bb 72 4e 2a bf
       0.56788963 -0.21389727 -0.005762222 -0.6652595
000220 a9 5e 92 3f 70 d3 55 bd 5c 39 4a 3f d8 a4 9d 3d
       1.1435138 -0.052203596 0.78993773 0.07697457
000230 cd 66 77 3f 0c ef 39 be 05 7a 29 bd 55 37 30 3d
       0.96641237 -0.18157595 -0.041376133 0.04302152
000240 bf e8 96 be c5 de 2f be 7c 84 98 be b8 c5 79 be
       -0.29474446 -0.17174824 -0.29788578 -0.2439183
000250 cc 9b ab bd 88 a2 2e bd 57 3d 2b be 00 a2 64 bd
       -0.08379325 -0.04263547 -0.16722618 -0.055818558
000260 38 53 90 be b2 5d 41 40 de 65 c4 3c 71 82 5b be
       -0.2818849 3.0213437 0.023974355 -0.21436478
000270 97 10 17 40 45 bf 1d bd c0 a5 90 3e 9c cf bc 3e
       2.3603876 -0.038512487 0.28251457 0.36877143
000280 9a 7c 8a 3e 61 5f 15 40 be 05 90 bd ac f2 bd 3d
       0.27048188 2.3339465 -0.07032345 0.092748016
000290 51 cb da 3f a0 9c 6b be e1 fe 7c be 3f 01 d0 bd
       1.7093297 -0.23008966 -0.24706604 -0.10156488
0002a0 51 fb bb 3f 66 3f f2 be 46 85 12 3f 2f e3 dc 3c
       1.4686071 -0.47313994 0.5723461 0.026963798
0002b0 c7 18 5e 3f d1 ea a3 be 01 75 f3 bc 6e 31 38 3d
       0.8675656 -0.32015088 -0.029718878 0.044969015
0002c0 aa 99 9f 3f c5 c5 12 c0 6a 5b 0c 3f 1b b3 9f be
       1.246877 -2.293321 0.54826987 -0.31191334
0002d0 b6 7e 38 3f d4 57 1b be 95 6c 4d bf 9e 18 c4 bf
       0.72068346 -0.15170223 -0.8024381 -1.5320013
0002e0 2b 86 d3 3f ce 90 ea be 98 10 eb 3e d0 1d 00 bf
       1.652532 -0.45813602 0.45911098 -0.5004549
0002f0 d2 a8 75 3f 77 8f 2a be 36 b6 1f 3e 77 e4 02 bf
       0.95960724 -0.1665629 0.15596852 -0.5112986
000300 0e 75 a1 3e d2 37 d7 3f be 6a 0d 3f ec b4 fa 3e
       0.31534618 1.681391 0.55241 0.48966157
000310 62 21 c9 3f d4 85 49 3f d4 49 c8 be 3e 04 7d be
       1.5713313 0.7871983 -0.39118826 -0.2470865
000320 3f 19 da 3f 73 9a 8f ba 6f 22 a6 bd 69 ca 1f bf
       1.7038954 -0.0010956064 -0.081120364 -0.6241823
000330 d5 01 80 3f 8d 92 30 bf 16 67 59 be 07 47 08 be
       1.0000559 -0.6897362 -0.2123073 -0.13308345
000340 14 00 b2 3f b0 39 92 b8 f5 26 7d 3f 90 2d cc bb
       1.3906274 -6.972568e-05 0.9888757 -0.0062310174
000350 aa 6f b2 3f fd 80 88 be 35 7e 35 be 64 51 9e be
       1.3940327 -0.2666091 -0.17723925 -0.3092147
000360 cb 50 87 be b3 8e 26 40 cc 42 18 bf 7f ce 63 bd
       -0.26428828 2.6024597 -0.59476924 -0.055616852
000370 b9 92 0c 40 b2 07 7c be 4e be af bd 87 2e 00 3e
       2.1964552 -0.2461231 -0.085812196 0.12517749
000380 1f 38 66 be 8c 9e 3b be a8 2e 61 3d 82 42 ab be
       -0.22482346 -0.183222 0.054976135 -0.3344918
000390 14 31 50 be 9e 5f f8 bd f0 43 8a bc 88 b6 20 3d
       -0.20331222 -0.121276125 -0.016878098 0.039236575
0003a0 20 b9 54 bd 18 c4 4d be f0 52 f2 3d 5c 40 19 be
       -0.05193436 -0.20094335 0.11832225 -0.14965957
0003b0 d3 1c b3 be c0 7a 0d bc 84 03 13 3e a0 c4 24 3c
       -0.3498293 -0.008635223 0.1435681 0.010056645
0003c0 3b a2 ec bd df cf 11 40 f9 ef e2 be 69 82 2c bd
       -0.115543805 2.2783124 -0.4432371 -0.042116556
0003d0 54 dd f0 3f 8b cd 41 be 01 2f 55 bd 11 0d 85 3d
       1.8817544 -0.18926065 -0.05204678 0.06496633
0003e0 95 1a 27 40 9b 1a 00 be b7 83 bb be 7a 03 03 bf
       2.6109974 -0.12510149 -0.36623928 -0.5117718
0003f0 e2 74 a3 3f dc 92 3d 3f 94 20 00 3f 03 12 08 3f
       1.2770045 0.74052215 0.5004971 0.53152484

hidden1.bias f4 [80]
000000 17 45 12 c0 70 62 27 c0 c2 19 7a bf 4f da 19 bf
       -2.285467 -2.6153831 -0.97695553 -0.6009874
000010 e1 e4 ea 3d e7 0d 11 c0 cd e8 15 c0 c6 e4 ff 3d
       0.114694364 -2.2664735 -2.342334 0.12494807
000020 7e f1 66 bf a4 da 83 bf ba 16 44 3f 25 e2 a7 3e
       -0.9021224 -1.0301099 0.7659718 0.32789722
000030 53 93 86 bf 2c 1f 4e 3f d2 ae a2 bf f6 a6 35 3f
       -1.051371 0.80516315 -1.2709601 0.7095789
000040 f4 db 52 3e 63 80 4e 3f f8 93 80 be c7 f6 36 c0
       0.20591718 0.8066465 -0.2511289 -2.858812
000050 b6 ab 0d c0 f6 10 5b 3f 7c 9f 74 3e 3d ed 5b 3f
       -2.2136054 0.85572755 0.23888963 0.8590887
000060 32 2c e9 bf 5f 96 fb 3e 6e b0 60 3f 17 53 10 c0
       -1.8216612 0.49138162 0.8776921 -2.2550714
000070 00 6d 5b bd 33 e4 86 be 98 a9 03 c0 ce 61 a4 bf
       -0.053570747 -0.26345977 -2.0572262 -1.2842348
000080 06 da 15 c0 8c 27 69 3f a1 da fc bf 67 76 ec bf
       -2.341432 0.9107597 -1.975422 -1.8473634
000090 94 2f 96 bc 8e 20 8f bf 83 0e fe bf 04 97 03 c0
       -0.018333234 -1.118181 -1.9848179 -2.0560923
0000a0 ba c1 2f 3f 45 88 25 c0 1a 96 16 c0 c0 de 90 bf
       0.6865498 -2.5864422 -2.3529115 -1.1317978
0000b0 0c 9d 4f 3e 61 44 7b be f9 26 bf 3e 26 c6 59 bf
       0.20274752 -0.24537803 0.3733442 -0.85067976
0000c0 02 51 f6 bf 18 ee 17 c0 e6 af 90 be e2 d1 38 3f
       -1.9243472 -2.373907 -0.282592 0.72195256
0000d0 2e 5b 75 3e 8f 3e 57 3e 41 da 98 be dc 48 c7 bc
       0.23960564 0.21019958 -0.29854015 -0.024326734
0000e0 9b 5f 3b be 3a 1f 15 c0 df bb 28 be 89 cb dd 3e
       -0.1829819 -2.330031 -0.16477917 0.43319348
0000f0 c2 76 f6 3e c5 05 a5 bf f8 a7 d5 3c 28 6d 2d 3e
       0.4813748 -1.2892386 0.02608107 0.16936171
000100 58 12 71 bf fd 70 ef be 65 47 de bc 10 3f 41 3f
       -0.94168615 -0.4676589 -0.027133653 0.7548685
000110 9a 9c f0 bf 40 ce d4 3e 4b 3b de bf 15 c7 9f be
       -1.8797791 0.41563606 -1.7361845 -0.31206575
000120 8e 18 19 3f 38 cd 1e 3e 20 f2 59 be 14 30 10 c0
       0.5980309 0.15507972 -0.2128377 -2.2529345
000130 ab bb 9c 3d de bb 58 3f 87 dc 22 c0 bc cb 1e c0
       0.07652982 0.8466166 -2.54471 -2.481185

hidden2.weight f4 [40, 80]
000000 10 86 f7 3c 96 9f 85 3d 56 62 3b bd aa f8 b6 be
       0.030215293 0.06524579 -0.045748077 -0.3573659
000010 be 29 a3 be 00 00 b6 b7 90 5c 50 bc 1b 79 9d be
       -0.31867784 -2.169609e-05 -0.012717381 -0.3075646
000020 ee bf bd be aa 06 87 be 5a 32 76 be 80 3d 63 be
       -0.37060493 -0.26372272 -0.24042645 -0.22191429
000030 7d c9 c5 be 9a 44 77 be 75 c7 91 bd 75 a3 b6 be
       -0.38630286 -0.24147263 -0.071181215 -0.35671583
000040 ee e4 bc be d1 e7 b6 be 38 ae db 3c 48 16 4c bc
       -0.3689341 -0.35723737 0.026816472 -0.012456484
000050 f4 1e be bd d7 03 a4 be 83 5b 45 be c1 43 84 be
       -0.092832476 -0.3203418 -0.1927319 -0.25832942
000060 5b 73 91 be 9a b6 a2 be 00 8d 91 be 08 2c 67 3d
       -0.28408322 -0.3177994 -0.28427887 0.056438476
000070 a4 5e ac bd 18 c8 34 bd 1e dd 65 bd 91 0e a8 be
       -0.08416489 -0.044136137 -0.056119077 -0.32823613
000080 60 79 65 3c 46 8a 9f be 4e 74 c7 bd 7c 25 aa be
       0.014005989 -0.31160182 -0.0973898 -0.33231723
000090 e8 51 ed bc 1c 61 3d 3d 78 bc 72 bd 01 44 b4 bd
       -0.02896972 0.04623519 -0.05926177 -0.08802033
0000a0 fb 9e b4 be 20 3d 83 bb 80 90 69 bb 5e 17 d9 3d
       -0.35277542 -0.0040050894 -0.0035639107 0.1060016
0000b0 3d a6 93 be 46 e3 c5 3d e8 5b 7f be 54 3c aa be
       -0.28837767 0.096624896 -0.24937403 -0.33249152
0000c0 fb f9 df bd 94 66 9a 3d b8 cb 20 3d ed 70 4d be
       -0.10936352 0.075390965 0.03925678 -0.20062609
0000d0 00 e8 8e be 58 38 8e be e2 d9 8d bd 53 d2 41 be
       -0.27911377 -0.27777362 -0.069263235 -0.18927889
0000e0 d0 0d b9 bb 86 56 47 bd fb bd 6d bd 78 07 58 be
       -0.0056473985 -0.0486665 -0.058042508 -0.21096599
0000f0 76 ca 4e be 73 01 a5 be e4 14 6e be 97 b1 48 be
       -0.2019442 -0.32227668 -0.23250157 -0.19598995
000100 84 5b 8f bd 6e 41 29 be f8 eb 48 be d4 1a 3e be
       -0.06999877 -0.16528866 -0.19621265 -0.18564922
000110 60 f1 be bc a0 be b5 be 9c ec 92 3d 8e 2b 9a bd
       -0.023308456 -0.35496998 0.07174036 -0.07527839
000120 e1 f4 4c be 2a 3c c3 be 9a 55 8e be f4 58 80 bc
       -0.20015289 -0.3813184 -0.27799684 -0.015667416
000130 11 cd 30 be 1f 54 9d be 20 6a 9b 3c 24 7a 1d bd
       -0.17265727 -0.30728242 0.018971503 -0.03844656
000140 88 1a 06 40 dc cd 49 40 a3 d8 6e 3f 45 65 2b c0
       2.0953693 3.1531897 0.9329931 -2.678056
000150 18 ce 22 3e e2 f1 09 40 02 52 03 40 de 1d 75 3f
       0.15898931 2.1553884 2.0518804 0.957487
000160 8f 2c 00 3f fe 57 a6 3d ef 9d 30 3f c1 c4 7d 3e
       0.5006799 0.08122252 0.6899099 0.24782087
000170 3e ac a4 3e 2b 88 f6 3e 95 8c 99 3f 62 cd f7 3e
       0.3216266 0.48150763 1.1996027 0.48398882
000180 1c b7 eb 3d f6 13 ff 3e 98 d7 6d 3d 35 5b 8e 40
       0.11509535 0.49819916 0.058066934 4.4486337
000190 31 b3 d7 3f 4b 94 05 3f e3 1a 85 bf ce 9e 06 3f
       1.685156 0.521794 -1.039883 0.52586067
0001a0 3d 5e 91 3f d9 25 aa 3e 2b 39 16 3f fc c1 0c 40
       1.1356884 0.33232 0.5868098 2.1993399
0001b0 dd 38 74 bd 00 f7 bf bd 9d 28 e9 3f 0c d5 99 3f
       -0.05962454 -0.093732834 1.8215519 1.2018142
0001c0 4d f0 6d 40 e7 9b fd 3e ad a5 61 3f 51 f2 fa 3f
       3.7177918 0.49533007 0.88143426 1.9605199
0001d0 04 a3 be 39 9c 2b d5 3e 4d d6 a1 3f b8 b7 9d 3f
       0.0003636108 0.41634834 1.2643524 1.2321692
0001e0 10 13 1a 3e da f9 2e 40 a5 b0 0b 40 be bb a8 3f
       0.15046334 2.7339997 2.1826565 1.3182294
0001f0 67 17 4c 3e 04 d5 d6 bd 8b 2a fa 3e d8 0b 0c 3f
       0.19930802 -0.10489848 0.48860583 0.5470557
000200 36 67 3b 3f ff 39 1b 40 89 9f 15 3e a7 ea 27 3f
       0.7320436 2.4254148 0.14611639 0.65592426
000210 6e 17 2e 3e 63 c8 b3 3d 94 2e ab 3f 8a de 02 3f
       0.17001125 0.08778455 1.337359 0.5112082
000220 fe 50 7b 3f 65 57 03 40 14 f9 68 3e fa 59 95 3e
       0.9817046 2.0522091 0.22751266 0.2917021
000230 16 04 10 3f be 21 3a 3f 21 e4 2e 3f 19 28 5d 3e
       0.56256235 0.72707736 0.6831685 0.21597327
000240 50 c2 9f 3e 83 1f 2e bd c1 1d 76 3f 8d 2b fd 3e
       0.31202936 -0.04251052 0.9613915 0.4944729
000250 e2 f9 5c 3f 93 0e f5 3e 19 5c c7 3f 54 15 aa 3d
       0.8631879 0.47862682 1.5574981 0.08304849
000260 6f 76 b6 3e 5c c4 17 bc 10 60 c4 3e 5b 94 11 40
       0.35637233 -0.009263124 0.3835454 2.27468
000270 7f 12 aa 3d 6c 9e f3 3e 4a 40 29 40 0e a9 4b 40
       0.08304309 0.47581804 2.644549 3.1821933
000280 6b 2f 1f bd 2c 55 a0 3d 7c 87 a3 3c 69 f4 db bd
       -0.03886358 0.07828745 0.019962065 -0.10739977
000290 ac 28 88 bd d2 94 d4 bd 05 30 cf bd aa 15 c3 bd
       -0.066483825 -0.10379948 -0.10116581 -0.095256165
0002a0 b8 65 46 bd 98 f1 a6 bc dd 59 71 bd 35 16 9a bd
       -0.04843685 -0.020378873 -0.05892359 -0.07523767
0002b0 f5 73 b9 3c 0f 91 1c bd ef 9d 1b 3d ba a2 44 3c
       0.0226383 -0.038224276 0.037992414 0.012001688
0002c0 37 6c 54 bc dd 8c 95 bc 30 ce c0 3c 08 e9 6f bc
       -0.012965254 -0.018255645 0.023535818 -0.014642961
0002d0 ff a9 e4 bd 35 39 26 be 41 a2 0e bd 80 e7 dc bd
       -0.11165237 -0.1623276 -0.034822706 -0.107863426
0002e0 5a c1 24 bd d9 a3 2a bc 5e 04 1e 3d 17 25 0d bd
       -0.040223457 -0.010415041 0.038578384 -0.0344592
0002f0 d8 96 9c 3d 93 16 76 bd 2b 3f ce 3c a4 99 88 bd
       0.07645959 -0.060080122 0.025176605 -0.066699296
000300 09 6e 02 be fb 39 8f 3b 75 64 33 be c8 a0 dd 39
       -0.12737288 0.0043709255 -0.1751879 0.00042272196
000310 67 ea b3 bc 48 d7 9a bc 02 47 9e bd 7d 48 d9 bc
       -0.021962358 -0.018901482 -0.077283874 -0.026523823
000320 0e 37 4d bc 40 d6 15 be ca 08 a4 3d 96 84 d1 bd
       -0.012525333 -0.14632511 0.08009489 -0.10230367
000330 e0 a8 1b be c8 3c 2f bc bf d4 ac bd 92 3b 65 bd
       -0.1520114 -0.010695644 -0.084390156 -0.055965014
000340 05 61 a3 3c bd 9d b9 bd 76 00 5f bd 10 ec af bd
       0.019943723 -0.09063289 -0.0544438 -0.08589947
000350 e5 28 ff bd 36 ff 32 be eb cc 93 bd e7 37 88 bc
       -0.12458972 -0.17480168 -0.072168194 -0.016628219
000360 ea db da 3c ed 55 89 3c db 60 de bd 44 20 02 be
       0.026716191 0.016764605 -0.108583175 -0.12707621
000370 e3 84 07 be 4f c0 58 bd 13 26 64 bd 6f 6d 32 be
       -0.13234286 -0.052917775 -0.055700373 -0.17424558
000380 00 43 ed bd df 83 06 be 33 cd 6a bd 3c bd 80 bd
       -0.11585045 -0.13136242 -0.0573246 -0.062860936
000390 1a 08 00 be e4 20 f9 bd cc 4f e0 bd 4e 09 b7 bd
       -0.1250309 -0.121644765 -0.1095272 -0.089373216
0003a0 94 08 06 be ff 41 0f bc ad dc 31 be 64 04 da 3d
       -0.1308921 -0.008743762 -0.17369337 0.10645369
0003b0 3c 92 24 bd 64 a3 a5 bd 06 bc 7a 3c 31 9c f0 3c
       -0.040178522 -0.08087805 0.015303617 0.029371353
0003c0 f5 5a fe bd 33 8a c5 bd b7 68 26 be fd 1c 80 bd
       -0.124196924 -0.096455 -0.16250883 -0.06255529
0003d0 74 c7 69 3c c1 d0 25 bd bb 9e de bd 41 56 ec 3c
       0.014268745 -0.040482286 -0.10870119 0.028849723
0003e0 e2 7f 6b bb 08 9b 5d 3d 99 46 73 bd bb e8 10 be
       -0.0035934378 0.054102927 -0.0593935 -0.1415128
0003f0 fa 01 9d 3c 1e 08 d7 bd 8d 11 f3 bb 5e 13 e1 bd
       0.019165982 -0.10499595 -0.0074178637 -0.10990022

hidden2.bias f4 [40]
000000 6c 80 b4 be a3 3b b4 3f a6 66 1e bd c9 3a a7 bd
       -0.35254228 1.40807 -0.038672112 -0.08165509
000010 c9 23 9a bd 90 5c b3 3f 83 50 bb 3f e2 94 3f bd
       -0.07526357 1.4012623 1.4633945 -0.046772845
000020 43 c2 51 bd 32 80 3d bd b1 fc cb 3f 58 c7 b9 3f
       -0.051210653 -0.046264835 1.593649 1.451396
000030 e2 cf b9 3f 30 85 01 bd d5 80 00 be 28 27 b2 3f
       1.4516566 -0.031621158 -0.12549146 1.39182
000040 23 aa bc bc 00 8d 80 bd dd 79 b9 bd 38 08 04 be
       -0.023030346 -0.062768936 -0.09056447 -0.1289376
000050 e5 f8 a9 3f 5c 09 c5 3f 2b ae c7 3f aa 2d 23 be
       1.3279082 1.5393481 1.5600027 -0.15935388
000060 0e e8 e1 bd 16 f9 bb 3f f8 9c b2 3f 18 b8 0a bf
       -0.11030589 1.468539 1.3954153 -0.54187155
000070 c1 12 be 3f 8f 28 c2 3f 43 12 ca 3f 26 6f 11 be
       1.4849473 1.5168628 1.5786823 -0.14202556
000080 b5 05 81 3b cc c6 f6 bc 19 4f a7 bd 40 dd 26 be
       0.003937448 -0.03012409 -0.081693836 -0.16295338
000090 ba 8a ba 3f 7a e9 e7 3c b8 16 00 be 5a 89 2e be
       1.4573586 0.028309572 -0.12508667 -0.17044583

hidden3.weight f4 [20, 40]
000000 a3 ac 04 be 88 09 b7 bd 0b 27 84 bd 16 8a b9 3d
       -0.1295648 -0.08937365 -0.06452759 0.09059541
000010 09 4b 18 be 2e 18 0f be 26 0c cf 3d fc 41 89 bd
       -0.14872374 -0.13974068 0.10109739 -0.06702039
000020 30 33 0b be 44 4d 75 3d 22 75 16 be 9c ca 05 be
       -0.13593745 0.05988814 -0.1469312 -0.1306557
000030 e4 44 49 3d d4 bc 2a 3d 61 99 0c be 22 4e 0b be
       0.049137965 0.041683987 -0.13730384 -0.13604024
000040 e2 37 ed 3d 70 33 14 3c 89 fe f8 bd 9d d1 0d 3e
       0.115829244 0.009045467 -0.12157924 0.13849492
000050 ce 4e ab 3d fa b1 7b bd ba e7 9e 3d bc b1 41 3d
       0.0836464 -0.06144903 0.07759042 0.04728864
000060 a4 40 49 3d 76 a9 c8 bd d5 c6 0c be 84 09 4f 3d
       0.04913391 -0.09797947 -0.13747723 0.050546184
000070 d8 34 b9 3c 97 a9 04 3e 0c 6c 14 be 8a ee c1 3d
       0.022608206 0.12955318 -0.14494342 0.09469326
000080 bf 5b 18 be 4f 19 01 be 25 ed b3 bd f8 8e 7d 3d
       -0.14878748 -0.1260731 -0.08785466 0.061903924
000090 50 05 25 3c 38 7f 9d bd a8 bb 64 3d 80 30 8a 3b
       0.010072067 -0.07690281 0.055843025 0.0042172074
0000a0 a8 ec 3a bd 81 8a c7 bc 00 77 72 bc 89 6e 2f bb
       -0.04563585 -0.024358036 -0.01479888 -0.0026768765
0000b0 48 57 06 be 96 ab 95 3d 98 fa 3d be ca 3e 16 be
       -0.13119233 0.07308118 -0.18552625 -0.1467239
0000c0 08 4c 78 3d 70 f0 59 bd 50 13 5b 3d d6 95 be 3d
       0.060619384 -0.053207815 0.053485215 0.09305923
0000d0 93 67 57 3b 82 2a 9d bd 10 37 2b bc 96 4f b7 3d
       0.0032868132 -0.07674123 -0.01045014 0.08950727
0000e0 52 ab ec 3d 84 6b 68 3d 70 b7 38 3d 84 02 a7 bd
       0.11556114 0.05674316 0.045096815 -0.08154777
0000f0 b2 50 47 3d f8 65 5b 3d 6f 33 57 be 98 11 ac bc
       0.04866094 0.05356404 -0.21015714 -0.021004483
000100 03 42 10 3e 93 b7 01 3c 45 ef 50 be c0 dd ff bc
       0.14087681 0.007917303 -0.20403774 -0.031233668
000110 9e 49 6b 3d 8c 5f 2f 3d 35 b5 2f be ac cb a4 3d
       0.057443254 0.04281573 -0.17158969 0.0804666
000120 02 36 83 3d c7 f9 1c 3e 9e b8 2b bd ec 12 5d 3d
       0.064067855 0.15329657 -0.04192411 0.053973123
000130 b4 38 7d bd c2 cc 97 3c f3 92 09 3e 19 bb 82 bd
       -0.061821654 0.018530253 0.13434963 -0.06383342
000140 c8 70 e2 3c a8 1f af 3d 62 18 64 bd b8 fb fa bc
       0.027641669 0.0855096 -0.055687316 -0.030637607
000150 fe 32 bd 3d 00 06 98 bc fb 48 0c be 22 02 9a 3d
       0.092382416 -0.018557549 -0.13699715 0.07519938
000160 dc 89 37 3d c7 af c0 bd 60 03 d7 bd c0 0e 75 bb
       0.044809207 -0.09408527 -0.104986906 -0.0037392825
000170 4c 15 ab bd c0 ab 7c 3c 88 51 b4 3c 8e 71 ea 3d
       -0.083536714 0.015421808 0.022011533 0.1144744
000180 40 25 a3 3d 2e bb d5 3d f8 49 c5 bc 1c 53 03 be
       0.07966089 0.10436092 -0.024083123 -0.12824672
000190 62 77 f3 bd 38 4f 42 3d de ec 13 be 37 6c e7 bd
       -0.11888005 0.04743883 -0.14445826 -0.11299937
0001a0 20 6f 2a bc 30 9e df bd f4 80 18 3d b8 39 05 3d
       -0.010402471 -0.10918844 0.037232354 0.032525748
0001b0 10 79 cb 3c 32 74 f3 bd 9f 47 0d 3e 86 5d c2 3d
       0.024838 -0.11887397 0.13796853 0.094904944
0001c0 bc f3 5e bd a2 a2 db bd d2 1c cc 3d a1 9c 9a bd
       -0.054431662 -0.10724379 0.099664345 -0.07549406
0001d0 20 84 31 3c 2e 65 a7 3d b0 79 8f 3d c0 ea 4d bb
       0.010834724 0.08173595 0.07005632 -0.003142044
0001e0 d6 1d ce 3d 0d a2 10 be f9 7d ce 3c fe 73 4d be
       0.100642845 -0.14124317 0.025206553 -0.20063779
0001f0 db 59 d1 bd 8c f4 a0 3d ec 4b 0f bd 7e 76 c1 bd
       -0.10222217 0.078591436 -0.034984514 -0.09446429
000200 65 d0 19 3e 68 5a bd 3c 77 79 9e bd 41 72 62 be
       0.15020902 0.023114398 -0.07738011 -0.22113897
000210 f1 49 b1 3d 47 cb 7c bd c8 b8 0b be 4d fd e5 bd
       0.08656681 -0.061717298 -0.13644707 -0.11229954
000220 ce d2 16 bc 6b 95 15 be 1a bc 47 be 0b d7 43 be
       -0.009205533 -0.1460778 -0.19505349 -0.19125001
000230 50 33 8b 3d 0d d9 04 be 4f f0 3c be 04 21 75 3d
       0.067968965 -0.12973423 -0.18451045 0.05984594
000240 3a af 62 bd 5a 2e e8 bc 47 de 9d bd 00 82 bf 3a
       -0.05534289 -0.028342415 -0.07708412 0.0014610887
000250 73 64 0d be 14 8c 0a be fe 3b fb bd c9 ba 90 bd
       -0.1380785 -0.13529998 -0.12267302 -0.070668764
000260 f7 7c 2d 3d 3c 5f 4a 3d 99 53 02 3d 60 8d 2e 3c
       0.042355504 0.04940723 0.031818006 0.010653824
000270 26 3e 16 be d5 6b 8a bd e9 0d 15 bd a8 03 3c bc
       -0.14672145 -0.067588486 -0.03639022 -0.011475481
000280 dd 30 ce be d1 a6 7e 3f bb cf 8a bc 72 35 0f 3e
       -0.40271655 0.9947329 -0.016944757 0.13985232
000290 26 b7 c3 bd 90 30 85 3f 1c 3c 8e 3f 95 ab ee bc
       -0.09556417 1.0405445 1.1112094 -0.029134551
0002a0 80 d4 04 bc 94 07 3f bd 1a 9a 83 3f 28 76 8f 3f
       -0.008107305 -0.046638086 1.0281403 1.1207933
0002b0 8e 65 6c 3f ea 72 e4 3d 63 75 7e bd 70 0f 88 3f
       0.9234246 0.111547306 -0.062123667 1.0629711
0002c0 59 ef bb bd 16 c7 fe bc 32 99 a3 3d a2 29 b6 3d
       -0.09176511 -0.031100791 0.07988204 0.088946596
0002d0 97 ea 43 3f 30 a5 86 3f 37 64 82 3f 0f 9f 99 3d
       0.7652983 1.0519161 1.0186833 0.07501041
0002e0 43 c9 46 bb 16 2c 5c 3f f9 ef 51 3f 8c ac e2 3d
       -0.0030332364 0.8600477 0.82006794 0.11068067
0002f0 98 f4 66 3f 87 be 8a 3f 4f 21 87 3f fa 07 59 bd
       0.9021697 1.0839394 1.055704 -0.052986123
000300 6c cc b4 bc e0 15 a6 bb 13 9f 36 3e bc ac 4b bd
       -0.022070132 -0.0050685257 0.1783412 -0.04972528
000310 68 24 8a 3f 2a 9f 13 bc 63 23 0e bd 28 66 ab 3d
       1.079236 -0.009010116 -0.034701716 0.08369094
000320 f2 1e a1 be 41 38 8e 3f 00 d8 d3 bc b6 45 8b 3d
       -0.31468922 1.1110917 -0.025859833 0.06800406
000330 cd 14 bb bd 10 8a 84 3f 40 03 7f 3f 18 53 9f 3b
       -0.09134827 1.0354633 0.99614334 0.0048622005
000340 78 21 dd bc c0 aa d0 3b ff 9f 89 3f 0b 37 57 3f
       -0.026993498 0.0063680112 1.0751952 0.84068364
000350 e0 c2 91 3f 91 21 50 3e 91 1e 2c 3e 9c 15 89 3f
       1.1387596 0.20325305 0.16808535 1.070972
000360 a4 be 56 3c d8 41 8e bd d8 62 68 bc 4d a5 9a 3c
       0.013106976 -0.069461524 -0.014183722 0.01887765
000370 54 3f 5b 3f 6f d7 85 3f 30 14 86 3f 60 8f e5 3c
       0.85643506 1.045637 1.0474911 0.028022468
000380 64 dd 34 3e ed 5c 89 3f b2 6e 89 3f 3b 60 9b 3e
       0.17662579 1.0731484 1.0736907 0.30346856
000390 44 b3 90 3f ad 8e 8e 3f 74 c0 73 3f 66 a6 99 bb
       1.1304708 1.1137291 0.95215535 -0.0046890257
0003a0 77 4a 04 3e 28 6d 1d bd e8 13 37 bd 11 a9 3e 3e
       0.12919031 -0.038434178 -0.04469672 0.18619181
0003b0 b6 27 75 3f ea 81 80 3c 83 27 11 ba 21 ee 0a bc
       0.9576372 0.015686948 -0.0005537199 -0.008479626
0003c0 18 8a 5e bd 81 18 2f bd d3 df bd 3d 6d a2 9f 3d
       -0.054330915 -0.042747978 0.09271207 0.07794652
0003d0 f4 12 5b 3e ae 96 b2 bd 43 b4 ac ba 72 55 41 3e
       0.21393949 -0.08720146 -0.0013176281 0.18880251
0003e0 a8 2f 9a 3c 7f 33 d3 bd 73 50 c9 bd 70 b7 87 bd
       0.018821552 -0.103125565 -0.098297976 -0.06626785
0003f0 86 2c b5 bd 8c 43 7d 3d a3 9c 02 3e de 75 07 bd
       -0.08846383 0.061831996 0.12755065 -0.03307139

hidden3.bias f4 [20]
000000 da 0e af bd 67 98 45 be 0a 10 3d bd 7e 06 22 3d
       -0.085477546 -0.19296418 -0.046157874 0.039556973
000010 73 c8 fc 3f 36 42 f9 3f 07 00 54 be 8c 26 c1 3a
       1.9748672 1.9473331 -0.20703135 0.0014736219
000020 30 18 fa bc df 30 2a 3c a0 43 8e 3c 1f 3e b6 bd
       -0.030529112 0.010387628 0.01736623 -0.088985674
000030 47 9f 35 be 29 f6 f8 bd 2e a9 e0 3f e1 25 e1 3f
       -0.1773654 -0.12156326 1.755163 1.7589685
000040 58 b3 e7 3f a6 f6 e3 3f d3 cf e0 3f 08 c3 6a be
       1.8101606 1.7809646 1.7563423 -0.22925961

hidden4.weight f4 [10, 20]
000000 b4 e4 96 3d da 69 c2 bd 70 ab ee bd 92 c1 52 3e
       0.073678404 -0.09492846 -0.11653793 0.20581654
000010 d8 81 7e bd 40 41 a2 3c 12 c9 ac bd e0 26 15 bd
       -0.062135547 0.019806504 -0.084367886 -0.036414027
000020 4c 3a b5 3d 84 f3 ed 3d 98 a7 1f 3d c8 93 3b 3d
       0.0884901 0.116187125 0.03897819 0.045795232
000030 32 77 2d 3e 09 57 39 be 40 21 e1 bb c7 3e 42 be
       0.1694 -0.18099608 -0.006870419 -0.1896926
000040 c5 e1 41 be 23 e9 5c be ea 5e 46 3e a4 1b fb 3d
       -0.1893378 -0.2157331 0.19372144 0.122611314
000050 bc 44 ee 3d 6c 6c 20 be 18 69 24 bd 92 ff 31 3e
       0.11634204 -0.1566636 -0.040139288 0.17382649
000060 80 7c 5b 3c 58 c1 14 be e0 00 0b bc 3a c1 2c 3e
       0.013396382 -0.1452688 -0.008484095 0.16870585
000070 40 18 6c 3c e9 04 ff bd b4 b3 b2 3d d1 91 1f be
       0.0144100785 -0.124521084 0.08725682 -0.15582968
000080 4b 3b 0f be c6 69 17 3e ee 9c b1 bd a8 7d 07 bd
       -0.13987462 0.14786443 -0.0867251 -0.03307882
000090 8e af 08 be 70 a5 f8 3c 56 b3 1f 3e e4 03 b9 bd
       -0.13348219 0.030352324 0.15595755 -0.09033945
0000a0 f2 ac 98 bd 24 9c 7b bd b8 61 96 3d 28 6c bb bc
       -0.07454862 -0.061428204 0.07342857 -0.022878721
0000b0 d7 61 5f 3f 44 e0 6d 3f f9 40 30 3c 73 4a 62 be
       0.87258667 0.9292033 0.010757678 -0.22098713
0000c0 6a a3 98 bd 6a ac 31 3e ee 04 40 be f8 46 86 bc
       -0.07453044 0.17350927 -0.1875188 -0.016391262
0000d0 9c 8c b9 3d a8 dc 25 be d3 f8 8d 3f ae 7a 64 3f
       0.09060022 -0.16197455 1.109156 0.89249694
0000e0 3b de 88 3f 58 d5 83 3f 7f a3 91 3f 1c 43 46 3e
       1.0692819 1.0299482 1.137802 0.19361538
0000f0 e0 f6 48 3e fa 07 e1 bd 85 3d 3f be c3 10 cc 3d
       0.19625425 -0.109878495 -0.18675812 0.099641345
000100 83 fa 6a 3f ec db 92 3f a8 59 1a bd 5c 52 e8 bd
       0.917885 1.1473365 -0.03768316 -0.11343834
000110 57 95 a4 3c 86 fd b8 bd 18 44 17 3e 69 42 b6 3d
       0.020090742 -0.09032731 0.1477207 0.088993855
000120 94 f5 39 3e fb 65 35 3e 32 fe 52 3f 08 65 68 3f
       0.18160087 0.17714684 0.8241912 0.9077916
000130 35 f3 45 3f 52 a4 92 3f 90 58 40 3f c9 d2 17 3c
       0.7732423 1.1456397 0.75135136 0.009266564
000140 b6 37 52 3e 5c 03 fc 3d e8 2d 34 3e 00 d0 5f be
       0.20529065 0.12305328 0.17595637 -0.2185669
000150 60 9e 30 be cb 10 5b be ac d3 56 3e 00 51 55 3c
       -0.17247915 -0.21393125 0.20979184 0.0130198
000160 58 c4 5f bd d8 15 12 3e 96 fe 48 be f0 ea c9 3d
       -0.054630607 0.14266145 -0.19628367 0.09859264
000170 90 0c bf 3d 0d 23 ec bd 96 81 85 bd f2 4d 2c 3e
       0.09328568 -0.11530123 -0.06518857 0.16826609
000180 f8 a5 15 3d 80 dd c5 3d e4 0b 55 be 8a 23 3e be
       0.036535233 0.096613884 -0.20805317 -0.18568245
000190 e8 09 ae 3d f6 0c 1f be 16 9d 19 3e 20 07 55 bc
       0.08497983 -0.15532288 0.1500133 -0.013002187
0001a0 aa ac 6c 3f 31 1e 27 3f c0 9b 96 3c 6e 20 34 3e
       0.92450964 0.65280443 0.018384814 0.17590496
0001b0 e8 d7 40 bd 90 45 a8 3d 56 5d 37 3e fc ee d1 bd
       -0.047080904 0.08216393 0.17906699 -0.10250661
0001c0 98 32 19 be b1 e3 71 3e a2 7c 48 3f 54 89 79 3f
       -0.14960706 0.23622014 0.78315175 0.9747517
0001d0 cf 19 72 3f 12 3f 85 3f e2 6a 53 3f b3 80 fc bd
       0.9457063 1.0409873 0.82584965 -0.12329235
0001e0 ac cb 83 3d 84 eb f8 3d 60 ab 5a 3c 89 25 04 be
       0.06435332 0.12154296 0.013346523 -0.12904944
0001f0 40 ad a9 bc 0e ad a6 bd 18 6d ca 3d e0 d5 f4 3c
       -0.020712495 -0.08138476 0.09884089 0.02988714
000200 2e 18 5c 3e 60 3f 97 bd 40 ca b6 bd 78 3f b9 bc
       0.21493599 -0.07385135 -0.08925295 -0.022613272
000210 40 90 38 be e0 33 c1 3d ba 62 31 3e 90 ec fd 3c
       -0.18023777 0.094337225 0.17322817 0.03099659
000220 18 ee d3 3c e4 9f fb bd e0 ce 2d be 38 56 55 3e
       0.025870368 -0.12286356 -0.16973448 0.20833671
000230 d4 7c 82 bd 28 d5 5f 3e 56 0a ac bd f6 d3 0f be
       -0.06371465 0.21858656 -0.08400409 -0.140457
000240 ea 59 e3 bd 08 bd 29 be 00 f5 e2 3a 8e 22 44 3e
       -0.11101134 -0.16576016 0.0017315447 0.19153807
000250 4c ec 40 3e 9e 61 1a 3e c7 48 24 be 50 95 2f bc
       0.1884014 0.150763 -0.16043387 -0.010716751
000260 0d 92 06 be 67 cb 50 be e0 aa 42 3d f4 94 be 3d
       -0.13141651 -0.20390092 0.04752624 0.09305754
000270 54 2f 3f 3e 88 40 33 bd 4a fb 1b be f8 71 3a 3d
       0.18670398 -0.043762714 -0.15232578 0.045518845
000280 78 61 e6 bc 9c ae df 3d a2 47 06 be 3f 8b 66 bd
       -0.028122649 0.10921976 -0.13113263 -0.05628514
000290 72 79 85 be ba 67 4f be 75 2c 64 be 74 2e e7 3d
       -0.26069218 -0.20254412 -0.22282584 0.11288157
0002a0 b2 2d 1d 3e 52 e3 5d bd 82 00 12 3e 3b 4b 32 bc
       0.15349463 -0.054171868 0.14258006 -0.010882194
0002b0 50 7b 45 3e f2 4c 26 be 6e a4 43 3e 5e d2 6a 3d
       0.19285321 -0.1624029 0.19105694 0.057329528
0002c0 96 58 96 bd 94 09 50 3e a0 18 ca bd 7e fc b8 bd
       -0.07341115 0.20316154 -0.09867978 -0.09032534
0002d0 ad c5 5e be 0e fc fa bd 56 6d d9 bd 1e cc 54 bc
       -0.21755095 -0.12255107 -0.10616557 -0.012988118
0002e0 11 cd 91 3f 41 9a 9c 3f 5f ed 74 3d 28 44 80 bc
       1.1390706 1.2234575 0.059796687 -0.0156575
0002f0 5a 8b 5d 3e 70 5f 4d 3d f8 98 e9 bc 72 b7 92 bd
       0.2163519 0.050139844 -0.028515324 -0.07163896
000300 22 33 b3 bc b4 83 07 be 5d e7 96 3f 40 6e 78 3f
       -0.021874968 -0.13233835 1.1789356 0.9704323
000310 7d ba 85 3f ec 58 8a 3f 96 74 86 3f ee 12 87 3b
       1.0447537 1.0808387 1.0504329 0.0041221296

hidden4.bias f4 [10]
000000 c8 7f 46 be e0 37 0a be 0a 8a 04 40 dd 06 14 40
       -0.19384682 -0.13497877 2.0709252 2.312919
000010 5f 33 49 be 2b 48 fb 3f 8b 16 34 be 20 d2 ae bc
       -0.19648503 1.9631399 -0.17586724 -0.02134043
000020 bc 11 db 3c 75 fe 0b 40
       0.026741855 2.1874058

regression.weight f4 [1, 10]
000000 75 55 79 be 12 de 77 3e 15 01 88 3f 08 eb 72 3f
       -0.24349006 0.24205807 1.062533 0.9488988
000010 64 b7 de bd 34 fb 5f 3f 42 c9 0c be 88 5b e8 3d
       -0.10874823 0.8749268 -0.13748649 0.11345583
000020 1f 57 07 3d d7 3e a0 3f
       0.03304207 1.2519177
