models/model999.pkl (torch, 23622 bytes, 9 tensors)

hidden1.weight f4 [80, 8]
000000 97 f9 5d be 17 6a e7 40 f5 7d a6 3e 77 45 e4 3d
       -0.21677242 7.2317004 0.32517973 0.11146062
000010 d9 20 10 40 52 d2 71 3e f7 0f a2 3e 30 b4 fa 3d
       2.2520049 0.23615387 0.31652805 0.12241399
000020 5f b7 a3 3f a1 3b 8b 40 cb ac 3a 3f 1c d5 35 be
       1.2790335 4.351029 0.7291991 -0.17757076
000030 cd 40 a1 40 91 c9 3a be cb a3 4a bf ff 5a 9f 3f
       5.0391603 -0.18240954 -0.7915618 1.2449645
000040 65 e4 7e 40 e3 dd 9d c0 af b2 92 3e b2 ba 38 bf
       3.98269 -4.933336 0.2865195 -0.72159874
000050 6e 80 60 bf 3d 8c ff 3f 6e e6 c6 3f a6 52 d3 be
       -0.8769597 1.9964672 1.5539072 -0.41273993
000060 e9 a3 bf 40 7d f9 f4 c0 f9 33 42 3f 5c 0e 33 c0
       5.9887586 -7.655455 0.75860554 -2.7977514
000070 ab db 82 40 a9 6c c0 3c 77 6d 6f bf 29 03 bf c0
       4.089315 0.023489313 -0.93526405 -5.9691358
000080 90 98 b7 40 1b d8 81 bf ba 5d 0b 40 a4 25 73 c0
       5.7373734 -1.0144075 2.1775956 -3.7991724
000090 2a c4 88 3e 15 5e 06 3f 4e 91 35 c0 1a 12 8e c0
       0.2671216 0.5248731 -2.8369937 -4.4397097
0000a0 98 76 bc 3f ef d8 c2 40 58 13 a7 3f df 79 25 3f
       1.4723692 6.088981 1.3052778 0.64639086
0000b0 85 74 8e 40 d4 df 8a 3e 01 fd f9 bf 85 c3 de bf
       4.4517236 0.27123892 -1.9530336 -1.7403418
0000c0 d9 23 36 40 94 72 54 40 0a 87 26 c1 8a 52 f7 3e
       2.845938 3.3194933 -10.4079685 0.4830516
0000d0 88 4c 67 40 b3 2d 91 3d 48 d0 91 bf 32 5b 47 3f
       3.614046 0.070887946 -1.1391687 0.7787353
0000e0 4b 63 8f 40 21 90 ed c0 e9 01 41 40 39 7c 9b bf
       4.4808707 -7.423844 3.0157416 -1.2147285
0000f0 a2 77 5f 40 d6 f1 b0 bf 90 78 f0 bf a4 4b ba bf
       3.4916768 -1.3823802 -1.8786793 -1.4554334
000100 c5 44 c5 40 c9 f5 87 c0 91 34 20 c0 d1 03 cc bf
       6.1646447 -4.248753 -2.5032084 -1.5938665
000110 01 fc a0 3f 1e 30 f0 bf 36 73 9a 3e 5f a0 85 c0
       1.2576905 -1.8764684 0.30166024 -4.1758265
000120 7e 7b c4 3e fe 8a 5b 3e 62 2e 16 3f ef af 71 bd
       0.38375467 0.2143974 0.58664525 -0.059005674
000130 0c 0a a5 3e d2 a3 44 bf 17 aa b3 be 48 a0 84 bf
       0.32234228 -0.7681247 -0.35090706 -1.0361414
000140 b6 1b 5b 3f 22 93 de bf 8d dc 10 40 b2 80 49 3f
       0.8558916 -1.7388651 2.2634614 0.78712
000150 23 8f 56 40 f9 67 16 c0 a9 a4 0e bf 42 d3 c1 3f
       3.3524864 -2.350096 -0.5572 1.5142596
000160 01 2e 1e 40 4e 34 c7 bf d1 45 b5 3f e3 13 ba bf
       2.4715579 -1.5562837 1.4161931 -1.4537319
000170 8f b1 01 c0 ab 2e 56 c0 24 09 36 c0 05 70 ed bf
       -2.0264623 -3.3465984 -2.844308 -1.8549811
000180 99 6e 04 c0 b4 59 d2 40 41 7e a4 40 00 91 12 be
       -2.0692503 6.57345 5.140412 -0.14313126
000190 2f 57 70 bf a1 3b b0 bf 1b 48 4a bf 76 e5 ad be
       -0.9388303 -1.3768197 -0.79016274 -0.33964127
0001a0 dd 59 84 bf 15 50 0d c1 58 9e 80 40 6b 53 56 3f
       -1.0339924 -8.832051 4.019329 0.83721036
0001b0 b4 66 e7 be cc dc b9 3d fc 9a a7 3f 86 ff fb 3e
       -0.45195544 0.09075317 1.3094172 0.49218386
0001c0 0d 7c 73 40 28 60 15 3f 61 d7 64 bf 77 66 ab bf
       3.8044465 0.5834985 -0.8939114 -1.3390645
0001d0 33 da 14 3f 66 b7 6a bf ec db c2 bf 64 0a 55 3f
       0.58145446 -0.91686094 -1.5223365 0.8321898
0001e0 cc 04 04 40 7e 12 aa c0 04 4d c0 40 84 1f 7d bf
       2.0627928 -5.3147573 6.0094013 -0.98876214
0001f0 08 73 16 40 21 df 37 3d d7 9a 14 40 dc 5d 0d 3e
       2.350771 0.044890527 2.3219507 0.13805336
000200 1f 0d 93 c0 83 3f 6e c0 7b 8e b6 bd d3 6f d4 bf
       -4.5953517 -3.7226264 -0.08913895 -1.6596626
000210 bb 58 65 40 21 de 0e c0 db 4b 17 3e 83 8e ea bf
       3.5835407 -2.2323077 0.1477503 -1.8324741
000220 38 c1 41 c1 b6 17 9b c0 0a c5 5e c0 fc d9 91 3d
       -12.109673 -4.8466444 -3.4807763 0.07121655
000230 85 c1 b8 40 39 68 85 be 44 93 0c 3f 01 41 9f 3f
       5.773623 -0.26056078 0.5491221 1.2441713
000240 bf e8 96 be c5 de 2f be 7c 84 98 be b8 c5 79 be
       -0.29474446 -0.17174824 -0.29788578 -0.2439183
000250 cc 9b ab bd 88 a2 2e bd 57 3d 2b be 00 a2 64 bd
       -0.08379325 -0.04263547 -0.16722618 -0.055818558
000260 fb 3c 8a c0 6b 3f 7d 40 c1 e9 90 bf 54 9b e6 3d
       -4.319944 3.9569957 -1.1321336 0.11260095
000270 08 2f 92 40 69 72 d9 3e a6 5b c4 3f 03 34 b9 3f
       4.568241 0.424701 1.5340469 1.4468998
000280 72 de bf be c8 89 e6 40 13 4f 8f 3e fa 79 49 3e
       -0.374744 7.204319 0.27990016 0.19675437
000290 60 d0 0d 40 f7 30 58 3d f9 b3 a5 3e e1 53 b7 bd
       2.2158432 0.05278107 0.3236387 -0.089515455
0002a0 58 44 67 bf c5 5a b5 c0 5d ce d6 40 ca 51 b7 3f
       -0.9033866 -5.6673303 6.712691 1.4321835
0002b0 df 1e 44 bd 17 54 20 c0 9f ca 82 bf 48 51 b1 bf
       -0.047881003 -2.5051324 -1.0218085 -1.385293
0002c0 18 0f a5 3f a1 9f 4f c1 ca 7b 44 40 8c c1 7e 3f
       1.2895231 -12.976472 3.0700555 0.9951408
0002d0 1b 0a 77 40 ec 06 f7 bf 72 56 09 c0 82 fd 1a 3f
       3.8599918 -1.9298987 -2.1459012 0.6054307
0002e0 7c e7 03 40 aa 7c 95 c0 bb 89 8d 40 0e 3e 1a 3d
       2.0610037 -4.671468 4.423063 0.037656836
0002f0 03 ae f4 3e 0f e3 c3 3e ae 02 e0 3f b5 45 4c bf
       0.4778901 0.3825917 1.7500818 -0.79793864
000300 4f a5 dc 3f a8 ff 9b 40 e3 3c 34 40 f6 0b 70 c0
       1.7237948 4.874958 2.8162162 -3.75073
000310 6b 09 2c 40 17 78 d0 3f 62 38 79 3f ed ce bf bf
       2.6880748 1.6286649 0.9735166 -1.4985024
000320 c9 da 47 40 83 36 22 c1 2e 7a 62 c1 bd f6 61 c0
       3.1227286 -10.138309 -14.154829 -3.5306847
000330 78 83 20 bf b1 3e 44 c0 e9 4d 90 3f 6f f3 21 c0
       -0.62700605 -3.0663264 1.1273776 -2.530483
000340 f1 8a 85 c0 8b 63 b3 c0 dd 4e 2f 3f b6 ef bc 3f
       -4.1732106 -5.6059012 0.6847971 1.4760654
000350 b1 d8 58 bf 9c 52 c8 3e a8 19 26 bf ad bf 10 3f
       -0.84705645 0.39125526 -0.648829 0.56542474
000360 2c b2 fc c0 10 c9 ca 40 13 4b 8e be 23 a7 c6 3e
       -7.8967495 6.337044 -0.27791652 0.3879939
000370 62 15 7a 40 e6 8e 00 c0 78 ed 6f bf 93 14 23 bf
       3.907555 -2.0087218 -0.93721724 -0.6370327
000380 1f 38 66 be 8c 9e 3b be a8 2e 61 3d 82 42 ab be
       -0.22482346 -0.183222 0.054976135 -0.3344918
000390 14 31 50 be 9e 5f f8 bd f0 43 8a bc 88 b6 20 3d
       -0.20331222 -0.121276125 -0.016878098 0.039236575
0003a0 20 b9 54 bd 18 c4 4d be f0 52 f2 3d 5c 40 19 be
       -0.05193436 -0.20094335 0.11832225 -0.14965957
0003b0 d3 1c b3 be c0 7a 0d bc 84 03 13 3e a0 c4 24 3c
       -0.3498293 -0.008635223 0.1435681 0.010056645
0003c0 95 6d 6c be 27 cb d9 40 a6 91 2e 3d 14 87 07 be
       -0.23088677 6.806049 0.04261937 -0.13235122
0003d0 65 5a 1d 40 03 ef 92 3e 79 cd d3 3c f9 30 4d be
       2.4586422 0.28697976 0.025854813 -0.20038213
0003e0 e2 ed d5 40 27 1d 98 c0 0e cf f2 bf 02 0d 0f bf
       6.6852884 -4.7535586 -1.8969438 -0.55879223
0003f0 2c 01 58 3f 74 e5 01 40 10 16 5a 3f 4f 3f cb bd
       0.8437679 2.0296297 0.85189915 -0.099241845

hidden1.bias f4 [80]
000000 b2 60 99 c0 0e dd 8b c0 e6 39 9a bf db 30 f7 bf
       -4.7930536 -4.370734 -1.2048919 -1.9311785
000010 bc 2b 1e c0 08 37 9a c0 5e dc b0 c0 8f 5b 79 3f
       -2.4714193 -4.8192177 -5.5269003 0.9740533
000020 1e d7 a8 be bb d7 a9 bf c0 92 80 3f d4 69 89 be
       -0.3297662 -1.3268961 1.0044785 -0.26838553
000030 d0 08 57 c0 2a 42 ae be c3 1e c4 bf 34 71 99 3f
       -3.3599129 -0.34034854 -1.5321888 1.1987672
000040 f7 d7 3a 40 b7 42 e3 3f f8 93 80 be 7c f5 80 c0
       2.9194314 1.7754735 -0.2511289 -4.0299664
000050 52 a2 94 c0 f0 53 13 40 88 89 d5 3f d6 6d 60 be
       -4.6448145 2.3019981 1.6682596 -0.21916899
000060 16 57 97 c0 2a 56 b5 3f bc be d2 3f 6b f5 44 c0
       -4.7293806 1.416692 1.6464458 -3.0774791
000070 00 6d 5b bd 33 e4 86 be 46 5e 8f c0 67 4a b9 bf
       -0.053570747 -0.26345977 -4.480258 -1.4475831
000080 12 f0 33 c0 77 9e 13 40 bf b0 a6 c0 d9 cc 6f c0
       -2.8115277 2.306547 -5.2090755 -3.746878
000090 09 b3 30 bf e7 11 f3 bf 54 5d af c0 35 f0 b6 c0
       -0.69023186 -1.8989838 -5.4801426 -5.716822
0000a0 af 86 1c 3f 7f f3 98 c0 39 3f 96 c0 89 47 c0 bf
       0.6114301 -4.7797236 -4.6952176 -1.5021831
0000b0 db 92 bd bf 61 44 7b be 64 28 a5 bf 7a 41 14 c0
       -1.4810442 -0.24537803 -1.2902951 -2.3164964
0000c0 7a 43 b0 c0 1c ec 97 c0 e6 af 90 be 8e 90 b0 3f
       -5.508237 -4.747572 -0.282592 1.3794115
0000d0 95 3c ab be 98 fc 07 be 54 6b 83 bf f5 a1 6f bf
       -0.33444658 -0.1327995 -1.0267129 -0.936065
0000e0 9e 0c 29 3f bd 78 ae c0 7a 19 e2 3e 99 8b 74 be
       0.6603488 -5.4522386 0.44160062 -0.23881377
0000f0 0f 36 90 3f 04 9e 44 bf df 93 a5 be 1b d9 1d be
       1.1266497 -0.7680361 -0.3233938 -0.1541485
000100 68 93 b3 bf f5 45 5f c0 5a 37 b5 bd 9a 80 00 40
       -1.402936 -3.4886448 -0.08848448 2.0078492
000110 d2 79 a6 c0 db d2 08 c0 82 3c 70 c0 15 c7 9f be
       -5.2023706 -2.1378696 -3.753693 -0.31206575
000120 2e d6 3a 3f 82 8f bd be 72 82 0c c0 f9 9f 9f c0
       0.7298306 -0.3702355 -2.1954618 -4.988278
000130 52 83 9d be 26 4c 05 3f 38 2c 36 c0 17 03 90 c0
       -0.30764252 0.5206932 -2.846449 -4.500377

hidden2.weight f4 [40, 80]
000000 10 86 f7 3c 96 9f 85 3d 56 62 3b bd aa f8 b6 be
       0.030215293 0.06524579 -0.045748077 -0.3573659
000010 be 29 a3 be 00 00 b6 b7 90 5c 50 bc 1b 79 9d be
       -0.31867784 -2.169609e-05 -0.012717381 -0.3075646
000020 ee bf bd be aa 06 87 be 5a 32 76 be 80 3d 63 be
       -0.37060493 -0.26372272 -0.24042645 -0.22191429
000030 7d c9 c5 be 9a 44 77 be 75 c7 91 bd 75 a3 b6 be
       -0.38630286 -0.24147263 -0.071181215 -0.35671583
000040 ee e4 bc be d1 e7 b6 be 38 ae db 3c 48 16 4c bc
       -0.3689341 -0.35723737 0.026816472 -0.012456484
000050 f4 1e be bd d7 03 a4 be 83 5b 45 be c1 43 84 be
       -0.092832476 -0.3203418 -0.1927319 -0.25832942
000060 5b 73 91 be 9a b6 a2 be 00 8d 91 be 08 2c 67 3d
       -0.28408322 -0.3177994 -0.28427887 0.056438476
000070 a4 5e ac bd 18 c8 34 bd 1e dd 65 bd 91 0e a8 be
       -0.08416489 -0.044136137 -0.056119077 -0.32823613
000080 60 79 65 3c 46 8a 9f be 4e 74 c7 bd 7c 25 aa be
       0.014005989 -0.31160182 -0.0973898 -0.33231723
000090 e8 51 ed bc 1c 61 3d 3d 78 bc 72 bd 01 44 b4 bd
       -0.02896972 0.04623519 -0.05926177 -0.08802033
0000a0 fb 9e b4 be 20 3d 83 bb 80 90 69 bb 5e 17 d9 3d
       -0.35277542 -0.0040050894 -0.0035639107 0.1060016
0000b0 3d a6 93 be 46 e3 c5 3d e8 5b 7f be 54 3c aa be
       -0.28837767 0.096624896 -0.24937403 -0.33249152
0000c0 fb f9 df bd 94 66 9a 3d b8 cb 20 3d ed 70 4d be
       -0.10936352 0.075390965 0.03925678 -0.20062609
0000d0 00 e8 8e be 58 38 8e be e2 d9 8d bd 53 d2 41 be
       -0.27911377 -0.27777362 -0.069263235 -0.18927889
0000e0 d0 0d b9 bb 86 56 47 bd fb bd 6d bd 78 07 58 be
       -0.0056473985 -0.0486665 -0.058042508 -0.21096599
0000f0 76 ca 4e be 73 01 a5 be e4 14 6e be 97 b1 48 be
       -0.2019442 -0.32227668 -0.23250157 -0.19598995
000100 84 5b 8f bd 6e 41 29 be f8 eb 48 be d4 1a 3e be
       -0.06999877 -0.16528866 -0.19621265 -0.18564922
000110 60 f1 be bc a0 be b5 be 9c ec 92 3d 8e 2b 9a bd
       -0.023308456 -0.35496998 0.07174036 -0.07527839
000120 e1 f4 4c be 2a 3c c3 be 9a 55 8e be f4 58 80 bc
       -0.20015289 -0.3813184 -0.27799684 -0.015667416
000130 11 cd 30 be 1f 54 9d be 20 6a 9b 3c 24 7a 1d bd
       -0.17265727 -0.30728242 0.018971503 -0.03844656
000140 a4 c1 c0 3f 87 55 64 be 72 0b 0c c0 70 b0 7d c1
       1.5059094 -0.22298251 -2.1881986 -15.855576
000150 46 d0 a2 3c 4b 6c 90 3f 26 77 34 bf 0f 82 82 3f
       0.019874703 1.1283048 -0.70494306 1.0195941
000160 36 34 45 40 f5 4b 3e 3c 7e 3c 90 3f fb 0a 0d 3f
       3.0813117 0.011614789 1.1268461 0.5509488
000170 d5 10 b5 c0 50 15 0b 41 3e a0 39 bf 6e 94 e9 be
       -5.6583047 8.692703 -0.72510135 -0.45621055
000180 cf 66 61 3f 58 eb 3e c1 98 d7 6d 3d 3a 66 1b 40
       0.880475 -11.932457 0.058066934 2.4281144
000190 e7 58 83 3f 46 8e 14 bf fc 7f c0 c0 94 c8 53 c0
       1.0261506 -0.5802959 -6.015623 -3.3091173
0001a0 5e bd e9 bf 43 0d 65 41 d6 14 75 be da 2d 8e c0
       -1.8260915 14.315738 -0.2393373 -4.443097
0001b0 dd 38 74 bd 00 f7 bf bd 05 51 8c 3e c0 5e 4b bf
       -0.05962454 -0.093732834 0.27405563 -0.7944145
0001c0 c8 a8 de 3f 42 51 99 3f 33 36 86 3e f1 a5 5a 3f
       1.7395258 1.1977923 0.26213226 0.85409456
0001d0 02 61 bc c0 76 52 a9 3d 89 7e 6d 40 99 31 a0 40
       -5.886842 0.08267681 3.710848 5.0060544
0001e0 49 8f 1e 3f 16 70 97 bb 67 49 87 3f 95 d7 e0 bf
       0.61937386 -0.004621516 1.0569276 -1.756579
0001f0 c8 f8 73 c0 04 d5 d6 bd 42 46 7f 40 78 4f 55 c0
       -3.8120594 -0.10489848 3.9886632 -3.3329754
000200 92 44 b6 c0 d0 b6 33 c0 89 9f 15 3e e1 c3 cd bf
       -5.6958704 -2.808033 0.14611639 -1.6075402
000210 09 b2 52 bd c7 7c a9 bc ef 1e 1a c0 1c ba 00 bf
       -0.05143932 -0.020689381 -2.408138 -0.5028398
000220 61 38 80 3f 0d a7 dd 3e 81 f3 4c 40 58 43 02 41
       1.0017205 0.43291512 3.2023623 8.141441
000230 a2 31 f1 40 99 77 02 c0 9c 2d e5 3f 21 78 e6 c0
       7.5373087 -2.0385497 1.7904544 -7.202164
000240 ce 10 f5 bf 83 60 bc 3d 9f 58 81 3f d0 33 a6 c0
       -1.9145753 0.09198096 1.010517 -5.193825
000250 ae 61 9c 40 60 59 c0 c0 02 1c 81 3f 54 15 aa 3d
       4.886924 -6.01091 1.0086672 0.08304849
000260 28 23 cb 40 27 16 2f 3e 72 59 e3 c0 4a dd 08 40
       6.3480415 0.17098294 -7.1046686 2.1385064
000270 30 54 14 3e b1 3a 85 bf 8f 7d 93 c0 f5 a0 09 3f
       0.1448524 -1.0408536 -4.609077 0.53761226
000280 6b 2f 1f bd 2c 55 a0 3d a5 6b 98 be 69 f4 db bd
       -0.03886358 0.07828745 -0.29769626 -0.10739977
000290 ac 28 88 bd d2 94 d4 bd 05 30 cf bd aa 15 c3 bd
       -0.066483825 -0.10379948 -0.10116581 -0.095256165
0002a0 b8 65 46 bd 98 f1 a6 bc dd 59 71 bd 35 16 9a bd
       -0.04843685 -0.020378873 -0.05892359 -0.07523767
0002b0 f5 73 b9 3c 0f 91 1c bd ef 9d 1b 3d 07 7f 9c be
       0.0226383 -0.038224276 0.037992414 -0.30565664
0002c0 37 6c 54 bc dd 8c 95 bc 30 ce c0 3c 08 e9 6f bc
       -0.012965254 -0.018255645 0.023535818 -0.014642961
0002d0 ff a9 e4 bd 35 39 26 be 41 a2 0e bd f4 dd d9 be
       -0.11165237 -0.1623276 -0.034822706 -0.4255215
0002e0 5a c1 24 bd d9 a3 2a bc 90 e3 8e be 17 25 0d bd
       -0.040223457 -0.010415041 -0.2790799 -0.0344592
0002f0 d8 96 9c 3d 93 16 76 bd 2b 3f ce 3c a4 99 88 bd
       0.07645959 -0.060080122 0.025176605 -0.066699296
000300 09 6e 02 be fb 39 8f 3b 75 64 33 be c8 a0 dd 39
       -0.12737288 0.0043709255 -0.1751879 0.00042272196
000310 67 ea b3 bc 48 d7 9a bc 02 47 9e bd 7d 48 d9 bc
       -0.021962358 -0.018901482 -0.077283874 -0.026523823
000320 0e 37 4d bc 40 d6 15 be ca 08 a4 3d 96 84 d1 bd
       -0.012525333 -0.14632511 0.08009489 -0.10230367
000330 e0 a8 1b be c8 3c 2f bc bf d4 ac bd 92 3b 65 bd
       -0.1520114 -0.010695644 -0.084390156 -0.055965014
000340 05 61 a3 3c bd 9d b9 bd 76 00 5f bd 1f 9f ce be
       0.019943723 -0.09063289 -0.0544438 -0.40355775
000350 e5 28 ff bd 36 ff 32 be eb cc 93 bd 9a 27 ab be
       -0.12458972 -0.17480168 -0.072168194 -0.3342865
000360 5f f6 94 be ed 55 89 3c 52 3c da be 44 20 02 be
       -0.29094216 0.016764605 -0.42624146 -0.12707621
000370 e3 84 07 be 4f c0 58 bd 13 26 64 bd 6f 6d 32 be
       -0.13234286 -0.052917775 -0.055700373 -0.17424558
000380 00 43 ed bd df 83 06 be 33 cd 6a bd 3c bd 80 bd
       -0.11585045 -0.13136242 -0.0573246 -0.062860936
000390 1a 08 00 be e4 20 f9 bd cc 4f e0 bd 4e 09 b7 bd
       -0.1250309 -0.121644765 -0.1095272 -0.089373216
0003a0 94 08 06 be ff 41 0f bc ad dc 31 be 64 04 da 3d
       -0.1308921 -0.008743762 -0.17369337 0.10645369
0003b0 3c 92 24 bd 64 a3 a5 bd 06 bc 7a 3c 31 9c f0 3c
       -0.040178522 -0.08087805 0.015303617 0.029371353
0003c0 dc 3a e2 be 43 42 0a bf 3c 37 35 bf 53 f2 a5 be
       -0.4418553 -0.5400736 -0.70787406 -0.3241144
0003d0 1c 4a e1 be 6a b0 a6 be bb 9e de bd e9 a0 8b be
       -0.44001853 -0.32556468 -0.10870119 -0.27271202
0003e0 c0 eb 80 be 08 9b 5d 3d e3 3e 96 be b4 25 43 be
       -0.25179863 0.054102927 -0.29344854 -0.19057351
0003f0 e0 5b e5 bc d4 cd 14 be ac 67 e9 be ba ce dc be
       -0.027997911 -0.14531642 -0.45586908 -0.4312647

hidden2.bias f4 [40]
000000 6c 80 b4 be b1 98 27 be f3 70 b6 be f9 a8 a3 be
       -0.35254228 -0.16366841 -0.35633048 -0.31964853
000010 1d 37 e8 be 58 07 c2 3c c4 00 40 3f 2a b6 b6 be
       -0.45354548 0.023685142 0.7500117 -0.35685855
000020 41 dc bc be 30 79 d1 be 82 8b 4b 40 2d 94 95 3f
       -0.3688679 -0.4091277 3.18039 1.1685845
000030 c3 31 c4 3e c3 d4 b2 be d5 80 00 be a8 27 84 3f
       0.38319215 -0.3492795 -0.12549146 1.0324602
000040 be 6e ae be 5e c7 c2 be 97 02 d1 be 38 08 04 be
       -0.34068865 -0.3804273 -0.40822288 -0.1289376
000050 9b 0c 14 40 4c 90 11 bf 27 c4 d5 3f 72 73 93 be
       2.3132694 -0.56860805 1.6700486 -0.28799015
000060 aa 53 9c be a1 4e 47 be 2c f9 9e 3f 18 b8 0a bf
       -0.3053258 -0.19463588 1.2419791 -0.54187155
000070 f0 36 97 3f d4 2b a2 3f cd 15 40 3f 25 ba 81 bf
       1.181364 1.2669625 0.75033265 -1.0134932
000080 b5 05 81 3b 24 b7 86 3f 19 4f a7 bd 40 dd 26 be
       0.003937448 1.052464 -0.081693836 -0.16295338
000090 10 cd ca 3f 7a e9 e7 3c b8 16 00 be 5a 89 2e be
       1.584383 0.028309572 -0.12508667 -0.17044583

hidden3.weight f4 [20, 40]
000000 a3 ac 04 be 88 09 b7 bd 0b 27 84 bd 16 8a b9 3d
       -0.1295648 -0.08937365 -0.06452759 0.09059541
000010 09 4b 18 be 2e 18 0f be 26 0c cf 3d fc 41 89 bd
       -0.14872374 -0.13974068 0.10109739 -0.06702039
000020 30 33 0b be 44 4d 75 3d b1 de ed be 9c ca 05 be
       -0.13593745 0.05988814 -0.46458963 -0.1306557
000030 e4 44 49 3d d4 bc 2a 3d 61 99 0c be 22 4e 0b be
       0.049137965 0.041683987 -0.13730384 -0.13604024
000040 e2 37 ed 3d 70 33 14 3c 89 fe f8 bd 9d d1 0d 3e
       0.115829244 0.009045467 -0.12157924 0.13849492
000050 ce 4e ab 3d fa b1 7b bd ba e7 9e 3d bc b1 41 3d
       0.0836464 -0.06144903 0.07759042 0.04728864
000060 a4 40 49 3d 76 a9 c8 bd d5 c6 0c be 84 09 4f 3d
       0.04913391 -0.09797947 -0.13747723 0.050546184
000070 d8 34 b9 3c 97 a9 04 3e 0c 6c 14 be eb 50 64 be
       0.022608206 0.12955318 -0.14494342 -0.22296493
000080 bf 5b 18 be 4f 19 01 be 25 ed b3 bd f8 8e 7d 3d
       -0.14878748 -0.1260731 -0.08785466 0.061903924
000090 50 05 25 3c 38 7f 9d bd a8 bb 64 3d 80 30 8a 3b
       0.010072067 -0.07690281 0.055843025 0.0042172074
0000a0 a8 ec 3a bd c4 1c af be 00 77 72 bc 89 6e 2f bb
       -0.04563585 -0.34201634 -0.01479888 -0.0026768765
0000b0 48 57 06 be 62 72 7a be b4 d0 00 bf ca 3e 16 be
       -0.13119233 -0.24457696 -0.50318456 -0.1467239
0000c0 08 4c 78 3d 70 f0 59 bd b1 41 87 be 43 fd 65 be
       0.060619384 -0.053207815 -0.26417306 -0.22459893
0000d0 4f f5 a0 be 82 2a 9d bd 10 37 2b bc 65 a0 69 be
       -0.31437156 -0.07674123 -0.01045014 -0.22815092
0000e0 52 ab ec 3d 84 6b 68 3d 70 b7 38 3d 84 02 a7 bd
       0.11556114 0.05674316 0.045096815 -0.08154777
0000f0 06 ba 89 be 5e 37 87 be e7 1e 07 bf 98 11 ac bc
       -0.26899737 -0.2640943 -0.5278153 -0.021004483
000100 03 42 10 3e 61 96 9e be dc 8d 05 bf c0 dd ff bc
       0.14087681 -0.30974105 -0.52169585 -0.031233668
000110 e8 3a 85 be 2b b8 8c be ba 7e fa be ac cb a4 3d
       -0.26021504 -0.2748426 -0.4892481 0.0804666
000120 02 36 83 3d 68 4e 28 be 9e b8 2b bd ec 12 5d 3d
       0.064067855 -0.1643616 -0.04192411 0.053973123
000130 35 4b c2 be c2 cc 97 3c f3 92 09 3e 19 bb 82 bd
       -0.37948003 0.018530253 0.13434963 -0.06383342
000140 c8 70 e2 3c 71 84 5a 3f 62 18 64 bd b8 fb fa bc
       0.027641669 0.8535834 -0.055687316 -0.030637607
000150 fe 32 bd 3d ea a5 bb be 94 6d 95 3f 22 02 9a 3d
       0.092382416 -0.3665002 1.1674066 0.07519938
000160 dc 89 37 3d c7 af c0 bd 53 4c c3 be 17 4a 80 3f
       0.044809207 -0.09408527 -0.38144168 1.002261
000170 5d 55 67 bf c0 ab 7c 3c 88 51 b4 3c f5 09 02 bf
       -0.9036463 0.015421808 0.022011533 -0.50796443
000180 40 25 a3 3d 2e bb d5 3d f8 49 c5 bc 1c 53 03 be
       0.07966089 0.10436092 -0.024083123 -0.12824672
000190 17 81 a4 bf c4 f4 b5 3f 63 02 26 be 37 6c e7 bd
       -1.2851895 1.4215322 -0.16211848 -0.11299937
0001a0 20 6f 2a bc 46 3a 6b bf 61 ac 21 bc b8 39 05 3d
       -0.010402471 -0.91885793 -0.0098677585 0.032525748
0001b0 29 2d 72 3f 03 85 81 3e 1b c9 e3 bd 4b 89 b3 40
       0.9460016 0.25296792 -0.11122342 5.6105094
0001c0 bc f3 5e bd c7 75 dd bf d2 1c cc 3d a1 9c 9a bd
       -0.054431662 -1.7301568 0.099664345 -0.07549406
0001d0 42 72 f1 be 2e 65 a7 3d b0 79 8f 3d c0 ea 4d bb
       -0.47157484 0.08173595 0.07005632 -0.003142044
0001e0 d6 1d ce 3d e9 a4 8d c0 fb 8b af 3e 13 0d aa bd
       0.100642845 -4.4263806 0.34286484 -0.08303275
0001f0 db 59 d1 bd 8d d9 47 3f c5 5e e5 c0 31 dd ba be
       -0.10222217 0.7806633 -7.1678185 -0.3649688
000200 65 d0 19 3e 52 16 d4 be a8 aa 3c 40 99 4b 87 c0
       0.15020902 -0.4142328 2.947916 -4.227978
000210 43 11 39 c0 47 cb 7c bd c8 b8 0b be 5e 6c 4e bf
       -2.8916786 -0.061717298 -0.13644707 -0.80634105
000220 ce d2 16 bc c4 b2 2f 3e 1a bc 47 be 0b d7 43 be
       -0.009205533 0.17158037 -0.19505349 -0.19125001
000230 a5 2e 5f c0 84 49 31 bf 29 9e 03 be d8 ca 41 3f
       -3.487222 -0.692528 -0.12853302 0.7570014
000240 3a af 62 bd 91 a3 42 c0 76 02 8e c0 00 82 bf 3a
       -0.05534289 -3.0412333 -4.4378004 0.0014610887
000250 d5 4c 07 3f 27 2e 30 c0 e6 5e c3 bf cf ee f0 bf
       0.5285161 -2.752817 -1.5263336 -1.8822879
000260 f7 7c 2d 3d 87 72 10 41 99 53 02 3d 60 8d 2e 3c
       0.042355504 9.027961 0.031818006 0.010653824
000270 20 f1 17 c0 d5 6b 8a bd e9 0d 15 bd a8 03 3c bc
       -2.374092 -0.067588486 -0.03639022 -0.011475481
000280 dd 30 ce be dd 23 4b c0 1e f7 99 3e 54 0a 3e be
       -0.40271655 -3.174064 0.30071348 -0.18558627
000290 32 d0 4d 3e 70 f3 f4 3f 21 6b b4 bf d0 27 ae 3e
       0.20098951 1.9136791 -1.4095193 0.3401475
0002a0 97 ca a6 be ab 11 83 3e 33 70 ca bd 49 0a 25 c0
       -0.3257644 0.25599417 -0.098846816 -2.5787528
0002b0 cd c3 92 40 b6 0e 53 be 63 75 7e bd 30 fc 05 40
       4.5864015 -0.2061108 -0.062123667 2.0935173
0002c0 85 50 67 3e ac b7 92 3e f7 43 59 be a2 29 b6 3d
       0.2258931 0.28655756 -0.21217333 0.088946596
0002d0 b3 d3 aa 40 af 38 c9 c0 cd e2 19 40 35 7e e1 bc
       5.338342 -6.2881694 2.4044678 -0.027526
0002e0 db 8a ae 3e cb f7 06 c0 51 2e 0f bf 8c ac e2 3d
       0.34090313 -2.108874 -0.5593005 0.11068067
0002f0 70 30 0d bf cc 55 4f c0 59 3e e6 3f 85 85 01 c0
       -0.55152035 -3.2396116 1.7987777 -2.0237744
000300 6c cc b4 bc c4 b0 3a c1 13 9f 36 3e bc ac 4b bd
       -0.022070132 -11.668156 0.1783412 -0.04972528
000310 e0 fe 1c 41 2a 9f 13 bc 63 23 0e bd 28 66 ab 3d
       9.812225 -0.009010116 -0.034701716 0.08369094
000320 f2 1e a1 be 80 07 c1 3f 97 66 95 3e ce cb 83 be
       -0.31468922 1.5080414 0.29179832 -0.25741428
000330 fa 2a 52 3e d7 7b f0 3f b2 07 bc 3e dc 86 c4 3e
       0.20524207 1.8787793 0.3672462 0.3838414
000340 0c 76 b0 be 35 35 9e 3e 91 bc d3 3f 61 30 e6 3d
       -0.34465063 0.3089997 1.6541921 0.11239696
000350 be 1a 94 40 42 4d ea bd 91 1e 2c 3e ba 80 fb 3f
       4.6282644 -0.11440517 0.16808535 1.9648659
000360 12 5a a9 3e 42 27 7e 3e 9c b2 a1 be 4d a5 9a 3c
       0.3307653 0.24819663 -0.3158158 0.01887765
000370 20 64 d2 40 58 3b 01 40 78 3b 79 3f ed 5b 98 bd
       6.5747223 2.019247 0.9735637 -0.074394085
000380 68 43 05 3f 91 75 04 40 82 e1 dd 3f 3b 60 9b 3e
       0.5205598 2.0696757 1.7334445 0.30346856
000390 93 0c 70 3f a2 b5 ca 3f 26 31 a9 3d c7 72 18 c0
       0.93769187 1.583668 0.082613274 -2.3820055
0003a0 77 4a 04 3e e4 ee 2a c1 e8 13 37 bd 11 a9 3e 3e
       0.12919031 -10.683323 -0.04469672 0.18619181
0003b0 60 c0 e2 40 ea 81 80 3c 83 27 11 ba 21 ee 0a bc
       7.0859833 0.015686948 -0.0005537199 -0.008479626
0003c0 18 8a 5e bd 81 18 2f bd d3 df bd 3d 6d a2 9f 3d
       -0.054330915 -0.042747978 0.09271207 0.07794652
0003d0 f4 12 5b 3e ae 96 b2 bd 43 b4 ac ba 72 55 41 3e
       0.21393949 -0.08720146 -0.0013176281 0.18880251
0003e0 a8 2f 9a 3c 7f 33 d3 bd 3c f8 d4 be 70 b7 87 bd
       0.018821552 -0.103125565 -0.41595638 -0.06626785
0003f0 86 2c b5 bd 8c 43 7d 3d a3 9c 02 3e de 75 07 bd
       -0.08846383 0.061831996 0.12755065 -0.03307139

hidden3.bias f4 [20]
000000 d6 67 ce be 26 b8 02 bf 6d 6b 66 3e 2f be 03 41
       -0.40313596 -0.5106224 0.22501917 8.233932
000010 d9 09 48 40 6e 27 68 40 0d 52 06 bf f8 e2 a1 be
       3.125601 3.6274066 -0.5246895 -0.31618476
000020 ed d7 c2 40 a4 5f da 3f 11 05 c6 bf e4 18 96 be
       6.088858 1.7060437 -1.5470296 -0.29315865
000030 47 9f 35 be 34 6d be be 28 6a 45 40 34 e7 c2 3f
       -0.1773654 -0.3719269 3.0846043 1.5226808
000040 7c e2 01 c0 41 b5 65 40 17 4e a4 3f 08 c3 6a be
       -2.0294485 3.5891879 1.2836331 -0.22925961

hidden4.weight f4 [10, 20]
000000 b4 e4 96 3d da 69 c2 bd 70 ab ee bd 28 ca ed bc
       0.073678404 -0.09492846 -0.11653793 -0.02902706
000010 ae 86 ef bf d1 d2 b0 3d 12 c9 ac bd e0 26 15 bd
       -1.8712976 0.0863396 -0.084367886 -0.036414027
000020 4c 3a b5 3d 84 f3 ed 3d 98 a7 1f 3d c8 93 3b 3d
       0.0884901 0.116187125 0.03897819 0.045795232
000030 32 77 2d 3e 09 57 39 be 89 f3 a3 bf ae 01 02 c0
       0.1694 -0.18099608 -1.2808696 -2.0313525
000040 61 a1 f7 bf be 2b d1 bd 03 48 b4 bf a4 1b fb 3d
       -1.9346124 -0.10213421 -1.4084476 0.122611314
000050 bc 44 ee 3d 6c 6c 20 be 18 69 24 bd b2 09 9e 3a
       0.11634204 -0.1566636 -0.040139288 0.0012057333
000060 2b 0e 67 bf af aa 88 be e0 00 0b bc 3a c1 2c 3e
       -0.90255994 -0.2669272 -0.008484095 0.16870585
000070 40 18 6c 3c e9 04 ff bd 54 ee 6b be d1 91 1f be
       0.0144100785 -0.124521084 -0.23040134 -0.15582968
000080 4b 3b 0f be c6 69 17 3e 6a f4 78 bf 4c d9 21 bf
       -0.13987462 0.14786443 -0.97247946 -0.63222194
000090 7f 49 36 bf d7 02 a9 bd b1 20 ca be e4 03 b9 bd
       -0.71205896 -0.08252495 -0.39478067 -0.09033945
0000a0 b5 f1 78 3e 97 30 83 3e 10 00 c0 be 13 24 c4 40
       0.24310954 0.2562301 -0.37500048 6.1294036
0000b0 39 14 5a 40 a5 d9 dd 3f 17 22 9d be 83 fb c5 3d
       3.4074843 1.7332045 -0.3069007 0.09667113
0000c0 3d d6 00 41 9f db 93 40 3d f6 94 be 3c c6 43 3e
       8.052304 4.620559 -0.29094115 0.19118589
0000d0 9c 8c b9 3d 3e 16 c3 3d e4 b5 e7 3f 06 05 fd 3f
       0.09060022 0.09525727 1.8102384 1.9767158
0000e0 cb 00 de 40 e1 7f f4 3f 16 26 a6 3f 1c 43 46 3e
       6.937597 1.9101526 1.2980373 0.19361538
0000f0 c4 8f 03 3f 30 c4 54 3e 79 39 23 bf 53 06 bd 40
       0.51391244 0.20777965 -0.6375957 5.907022
000100 dd 41 41 40 34 f8 b8 3f 54 ef b5 be fc 1e 51 3e
       3.019645 1.4450746 -0.35534155 0.20421976
000110 80 28 02 41 c5 ea 8a 40 cc 55 ee 3c 3e d8 97 3e
       8.134888 4.3411584 0.029093646 0.29657167
000120 94 f5 39 3e df 66 de 3e 77 95 82 3f e5 d3 c4 3f
       0.18160087 0.4343786 1.0201863 1.5377165
000130 f7 c8 c7 40 64 3c c2 3f 7a c8 de 3e c9 d2 17 3c
       6.243282 1.517468 0.43512326 0.009266564
000140 f8 df 05 3f 5c 03 fc 3d 64 7d 1e 40 3b b4 f8 be
       0.52294874 0.12305328 2.4764032 -0.48575005
000150 27 52 4a 3f 91 dd 8a bf ac d3 56 3e 00 51 55 3c
       0.79031605 -1.0848867 0.20979184 0.0130198
000160 f5 eb 34 40 fd 07 16 40 96 fe 48 be f0 ea c9 3d
       2.8269017 2.3442376 -0.19628367 0.09859264
000170 90 0c bf 3d 0d 23 ec bd f3 a5 2a bf 10 79 90 3f
       0.09328568 -0.11530123 -0.6665947 1.1286945
000180 30 93 56 bf dc de 3d bf 11 50 82 bf 8a 23 3e be
       -0.8381834 -0.7416818 -1.0180684 -0.18568245
000190 99 26 ce 3e 3d 3b 26 3e 7c 4f 20 be f7 d5 90 40
       0.40263823 0.16233535 -0.15655321 4.5261188
0001a0 5f 32 07 40 10 d8 61 be 63 3a 99 be 56 b4 fc 3e
       2.1124494 -0.22055078 -0.29927358 0.49356335
0001b0 1d 6d 00 41 dd 6e 8f 40 82 2b 0b 3d be 30 d7 3d
       8.026639 4.482283 0.03397704 0.10507344
0001c0 98 32 19 be ca a5 fc 3e 2d 2f 40 be 1b 46 20 3f
       -0.14960706 0.49345237 -0.18767996 0.6260697
0001d0 47 61 b3 40 64 03 6e 3e f6 b6 06 bf b3 80 fc bd
       5.6056247 0.23243481 -0.52622926 -0.12329235
0001e0 ac cb 83 3d 84 eb f8 3d 60 ab 5a 3c 89 25 04 be
       0.06435332 0.12154296 0.013346523 -0.12904944
0001f0 40 ad a9 bc 61 4f cc be 18 6d ca 3d e0 d5 f4 3c
       -0.020712495 -0.3990431 0.09884089 0.02988714
000200 0d 60 d2 bd f7 73 c8 be 40 ca b6 bd 78 3f b9 bc
       -0.102722265 -0.39150974 -0.08925295 -0.022613272
000210 40 90 38 be e0 33 c1 3d 79 e5 13 be 90 ec fd 3c
       -0.18023777 0.094337225 -0.14443006 0.03099659
000220 18 ee d3 3c 19 8c e1 be e0 ce 2d be 38 56 55 3e
       0.025870368 -0.440522 -0.16973448 0.20833671
000230 53 43 c3 be 28 d5 5f 3e 0c ae ad be 42 92 6b bf
       -0.38137302 0.21858656 -0.3392185 -0.92020047
000240 48 7a 4a bf 6c ea 3d be 00 f5 e2 3a 8e 22 44 3e
       -0.79092836 -0.18546456 0.0017315447 0.19153807
000250 90 ae b6 bf 91 19 1a 40 c7 48 24 be 50 95 2f bc
       -1.4272022 2.4078104 -0.16043387 -0.010716751
000260 0d 92 06 be 67 cb 50 be 0d 20 24 3c dd 43 15 bf
       -0.13141651 -0.20390092 0.010017407 -0.58306676
000270 79 a1 11 be 0d 9a 8e bd 43 9f de be f8 71 3a 3d
       -0.14221753 -0.069629766 -0.43480882 0.045518845
000280 78 61 e6 bc 9c ae df 3d a2 47 06 be 3f 8b 66 bd
       -0.028122649 0.10921976 -0.13113263 -0.05628514
000290 c4 0e 14 bf f9 2b 05 bf 75 2c 64 be 74 2e e7 3d
       -0.5783503 -0.5202022 -0.22282584 0.11288157
0002a0 b2 2d 1d 3e 52 e3 5d bd 82 00 12 3e 3b 4b 32 bc
       0.15349463 -0.054171868 0.14258006 -0.010882194
0002b0 50 7b 45 3e f2 4c 26 be c1 a3 01 be 5e d2 6a 3d
       0.19285321 -0.1624029 -0.12660123 0.057329528
0002c0 96 58 96 bd 3c 7d ea bd 47 2a d5 be 7e fc b8 bd
       -0.07341115 -0.11449668 -0.41633818 -0.09032534
0002d0 14 05 cd 3d 26 ca 47 3e 61 a0 0d bf f9 e5 ca 40
       0.10010734 0.19510707 -0.55322844 6.340573
0002e0 0a f1 80 40 78 1c 1b 40 6f 06 84 be da 9f 9a 3e
       4.0294237 2.4236126 -0.25786158 0.30200082
0002f0 f4 95 05 41 46 32 90 40 b3 a3 f7 bd 46 33 0b 3e
       8.34911 4.506137 -0.1209177 0.13593778
000300 22 33 b3 bc 1e c8 ff 3d e6 a1 11 40 10 06 1b 40
       -0.021874968 0.12489341 2.2755065 2.422245
000310 cb de e7 40 5f eb 16 40 a6 a9 cb 3f ee 12 87 3b
       7.2459464 2.358116 1.5911148 0.0041221296

hidden4.bias f4 [10]
000000 df cc c8 bf e5 ec ba bf ff 88 2c 40 6b 60 1e 40
       -1.5687522 -1.4603544 2.6958616 2.474635
000010 95 53 0e 40 d5 ce 7f 3f 65 af fc be 93 11 92 3d
       2.2238514 0.99924976 -0.49352565 0.07132258
000020 01 f3 94 be 39 4d 4b 40
       -0.29091647 3.1765883

regression.weight f4 [1, 10]
000000 05 e7 96 bf 32 ef 55 be ca 16 0b 40 5f 63 d1 3f
       -1.1789252 -0.20892027 2.173266 1.6358451
000010 fc a4 21 40 b4 ee 3f 3f ec 7e 38 3e 1f 93 45 be
       2.5256948 0.7497361 0.18017167 -0.19294403
000020 39 b9 91 be 61 1a 2b 40
       -0.28461626 2.673485
