models/model331.pkl (torch, 23622 bytes, 9 tensors)

hidden1.weight f4 [80, 8]
0	0xbcd6caf2	-0.026219819
1	0x40a2ad4d	5.083655
2	0xbc8df43c	-0.017328374
3	0xbdf1c89f	-0.118058436
4	0x3fd7242b	1.6807913
5	0x3e23c887	0.15994464
6	0x3e25a862	0.16177514
7	0xbd0fd554	-0.035115555
8	0xbea669c6	-0.32502574
9	0x4061adb8	3.526228
10	0xbf5c24e4	-0.8599379
11	0x3ef2e3c3	0.47439393
12	0x40398b65	2.899133
13	0xbf2314d4	-0.63703656
14	0xbe4e9a48	-0.20176041
15	0x3f07e6b3	0.53086394
16	0x4061ada8	3.5262241
17	0xbfed7432	-1.8551085
18	0xbfadbb95	-1.357287
19	0xbf9f8a7f	-1.2464141
20	0x3fd23dda	1.6425126
21	0x3fa544b4	1.2911592
22	0x3f848803	1.0354007
23	0xbecf33b5	-0.40469137
24	0x405db68d	3.464267
25	0xc07e9d10	-3.9783363
26	0xbbe1bada	-0.0068887295
27	0xc00549cb	-2.082629
28	0x4027c4c1	2.621384
29	0x3dcf03a0	0.10108113
30	0xbe7ef7bf	-0.24899195
31	0xc055c5ab	-3.3401897
32	0x404036ae	3.0033374
33	0x3eb73e9d	0.35789958
34	0x3f8fd658	1.1237288
35	0xc02c29da	-2.6900544
36	0x3f365270	0.7121954
37	0xbbad17ed	-0.005282393
38	0xc0065040	-2.098648
39	0xc0263f56	-2.5976157
40	0x3f252d63	0.6452238
41	0x40540246	3.3126388
42	0xbd0cdfc6	-0.034393094
43	0x3e889161	0.26673415
44	0x401dc748	2.4652882
45	0x3f03d99e	0.5150393
46	0x3d615d02	0.05502034
47	0xbf48138a	-0.78154814
48	0x3efa7e6a	0.4892457
49	0x40905966	4.510913
50	0xbf88a63c	-1.0675731
51	0xbd0dd9b7	-0.034631457
52	0x3fe145d2	1.7599432
53	0x3ec0a12c	0.37622964
54	0x3e61f882	0.22067454
55	0x3eb15ea9	0.34642532
56	0x40385822	2.8803792
57	0xbfeb4fc9	-1.8383723
58	0x4032021e	2.7813792
59	0xbf17771c	-0.5916612
60	0x40256f54	2.58492
61	0xbfc6d5ff	-1.5534056
62	0xbff6f957	-1.9294842
63	0xbfe3fc3f	-1.7811354
64	0x403cd846	2.9507003
65	0xbfe78f34	-1.8090577
66	0xbee70197	-0.451184
67	0xbf8516c9	-1.0397578
68	0x3f8eb203	1.1148075
69	0xbe5f47b0	-0.2180469
70	0x3efb097f	0.49030682
71	0xc0014c86	-2.0202956
72	0x3ec47b7e	0.38375467
73	0x3e5b8afe	0.2143974
74	0x3f162e62	0.58664525
75	0xbd71afef	-0.059005674
76	0x3ea50a0c	0.32234228
77	0xbf44a3d2	-0.7681247
78	0xbeb3aa17	-0.35090706
79	0xbf84a048	-1.0361414
80	0x3fd1e1ab	1.6396993
81	0xbf319dcd	-0.6938141
82	0x3fe27852	1.7692969
83	0x3ed43fad	0.4145483
84	0x40208217	2.50794
85	0xbf826af9	-1.0188895
86	0xbf42b03f	-0.7605018
87	0x3f3caf8c	0.73705363
88	0x3ff428f0	1.9074993
89	0xbfe64703	-1.7990421
90	0x3fe1e99d	1.7649418
91	0xc038e87c	-2.8891897
92	0x3f30d745	0.69078475
93	0xc0372db9	-2.8621657
94	0xc00229d0	-2.033802
95	0xc01885ba	-2.383162
96	0xbf85d6a8	-1.0456133
97	0x407a5380	3.9113464
98	0x406b1301	3.673035
99	0xbe1c4d49	-0.15263857
100	0xbf00e4d9	-0.50349194
101	0xbf349fd6	-0.7055639
102	0xbed3cd45	-0.41367546
103	0xbea41190	-0.3204465
104	0x3f6b4687	0.9190449
105	0xbeab68dd	-0.33478442
106	0x3fab413f	1.3379287
107	0x3ea36e3c	0.3192004
108	0x400079aa	2.0074258
109	0xbf61cec7	-0.8820614
110	0xbf4cfece	-0.800763
111	0x3df71ce1	0.12066055
112	0x40606a7a	3.5064988
113	0xbf9cae1d	-1.2240635
114	0xbcb9563c	-0.022624128
115	0x3e661686	0.2246953
116	0x3fd3721d	1.65192
117	0xbe46a866	-0.19400176
118	0x3e571f9e	0.21008155
119	0x3f149329	0.5803705
120	0x3f93915d	1.1528736
121	0xbfead341	-1.834572
122	0x40191111	2.3916667
123	0xbf0fe52b	-0.5620906
124	0x40154adb	2.3326938
125	0xbe4f19d8	-0.20224702
126	0x3f99333b	1.1968759
127	0x3e73ec86	0.23820695
128	0xbdfc4ee5	-0.123197354
129	0xc003aec0	-2.057541
130	0xbdbbec26	-0.09175901
131	0xbf8d48e4	-1.103787
132	0x4007bce0	2.120903
133	0xbff1446f	-1.8849009
134	0xbd8e42ea	-0.069463566
135	0xbfc5af39	-1.5444099
136	0xc066ff8a	-3.6093469
137	0xbfb1cc95	-1.3890558
138	0xbf947c0f	-1.160036
139	0xbd2b08dd	-0.0417565
140	0x3fe4f2e1	1.7886621
141	0xbe3ed2ba	-0.18635073
142	0xbd156c5b	-0.03648029
143	0x3d1c055a	0.03809104
144	0xbe96e8bf	-0.29474446
145	0xbe2fdec5	-0.17174824
146	0xbe98847c	-0.29788578
147	0xbe79c5b8	-0.2439183
148	0xbdab9bcc	-0.08379325
149	0xbd2ea288	-0.04263547
150	0xbe2b3d57	-0.16722618
151	0xbd64a200	-0.055818558
152	0xbf3749bf	-0.715969
153	0x4071949d	3.7746956
154	0xbf2e43d1	-0.6807223
155	0x3e251218	0.16120183
156	0x40361e04	2.845582
157	0x3e33d85c	0.17563003
158	0x3f15904f	0.5842332
159	0x3f945fca	1.1591733
160	0xbde082f9	-0.10962481
161	0x40a15598	5.0416985
162	0x3d208214	0.039186552
163	0xbdc2e7ea	-0.0951689
164	0x3fd6a4a3	1.6768993
165	0x3e1383ac	0.14405698
166	0x3e1e9f45	0.15490444
167	0xbd411c50	-0.04714614
168	0xbe94fbe2	-0.2909842
169	0xbfeffc93	-1.8748955
170	0x401d5b0d	2.4586823
171	0x3f273253	0.65311164
172	0x3f23ddb0	0.64010143
173	0xbf96d2e6	-1.1783111
174	0xbee8bfbb	-0.4545878
175	0xbf1728b9	-0.5904651
176	0x3eff7800	0.4989624
177	0xc0cdc737	-6.430568
178	0x40098353	2.1486404
179	0x3f7f5a83	0.99747485
180	0x4010c30b	2.2619045
181	0xbf83b216	-1.0288723
182	0xbfd59ec6	-1.6689079
183	0x3df349c4	0.11879304
184	0x3f56153c	0.8362615
185	0xbfbf33dc	-1.4937701
186	0x3feca988	1.8489237
187	0xbf313916	-0.6922773
188	0x3fc5e3e6	1.5460174
189	0x3d304283	0.04303218
190	0x3f3e67ce	0.74377143
191	0x3d973bf8	0.07384485
192	0xbd8c794e	-0.068590745
193	0x40342dc7	2.815294
194	0xbdee1b7b	-0.11626335
195	0x3eec75f3	0.46183738
196	0x3fb3cea1	1.4047433
197	0x3ed3ed8a	0.41392165
198	0xbf81409d	-1.0097843
199	0xbf767263	-0.9626829
200	0x3fa7afb5	1.3100497
201	0xc0822db2	-4.068078
202	0xc0bb7689	-5.8582196
203	0xbfef0dca	-1.8676083
204	0xbf8d9b4e	-1.106302
205	0xbf84066a	-1.0314457
206	0x3f4e2f31	0.8054076
207	0xbfa154c9	-1.2603999
208	0x3ebccdaa	0.3687566
209	0xbf6f7ee7	-0.9355301
210	0x3f9ed2a1	1.2408029
211	0x3e953bfc	0.29147327
212	0x3ff24d0b	1.8929762
213	0xbfaba8c3	-1.3410877
214	0xbed81a2d	-0.4220747
215	0x3ed50607	0.4160616
216	0xbd4f5b15	-0.050623972
217	0x4091215a	4.535321
218	0xbe2270f4	-0.158634
219	0x3c0a68c5	0.008447831
220	0x3ff90029	1.9453174
221	0xbdc33aaf	-0.095326774
222	0xbe3c2f9d	-0.18377538
223	0xbe3f9b14	-0.18711501
224	0xbe66381f	-0.22482346
225	0xbe3b9e8c	-0.183222
226	0x3d612ea8	0.054976135
227	0xbeab4282	-0.3344918
228	0xbe503114	-0.20331222
229	0xbdf85f9e	-0.121276125
230	0xbc8a43f0	-0.016878098
231	0x3d20b688	0.039236575
232	0xbd54b920	-0.05193436
233	0xbe4dc418	-0.20094335
234	0x3df252f0	0.11832225
235	0xbe19405c	-0.14965957
236	0xbeb31cd3	-0.3498293
237	0xbc0d7ac0	-0.008635223
238	0x3e130384	0.1435681
239	0x3c24c4a0	0.010056645
240	0xbe3c0929	-0.1836287
241	0x409c3cf2	4.8824396
242	0x3da094cc	0.07840881
243	0xbde85e38	-0.11346096
244	0x3fce3c14	1.6112084
245	0x3e09b070	0.13446212
246	0x3da00736	0.078138754
247	0xbd416d62	-0.047223456
248	0x407f34ac	3.9875898
249	0xbf90bf63	-1.1308407
250	0xbf2b9119	-0.67018276
251	0xbf8924d9	-1.071437
252	0x3fcc51d6	1.5962474
253	0x3f80227c	1.0010524
254	0x3efd394a	0.4945777
255	0x3f30efb5	0.69115764

hidden1.bias f4 [80]
0	0xc05f648e	-3.4905124
1	0xc050b692	-3.2611432
2	0xbf4b4705	-0.7940524
3	0xbf9eaeb3	-1.2397064
4	0xbfeb2b2a	-1.8372548
5	0xc03308a5	-2.7974026
6	0xc0633df2	-3.5506558
7	0x3e95a7f3	0.29229698
8	0xbf226ccc	-0.6344726
9	0xbfa9d7bb	-1.3268961
10	0x3f734bce	0.95037544
11	0x3e287710	0.16451669
12	0xc00e4dff	-2.2235105
13	0x3f387cd6	0.72065485
14	0xbf9e384c	-1.236093
15	0x3f6eb3d8	0.9324317
16	0x3fd7e320	1.6866188
17	0x3f2c0e4d	0.6720932
18	0xbe8093f8	-0.2511289
19	0xc06db6a4	-3.7142725
20	0xc05bcd5c	-3.4344091
21	0x3f496d26	0.7868217
22	0x3f0d8389	0.5527883
23	0x3f34a7ec	0.7056873
24	0xbfffd4c9	-1.9986812
25	0x3f52b2ad	0.8230389
26	0x3f38c38f	0.721734
27	0xc0521169	-3.2823126
28	0xbd5b6d00	-0.053570747
29	0xbe86e433	-0.26345977
30	0xc052c2e0	-3.2931442
31	0xbfbd1b61	-1.477398
32	0xc0410aab	-3.0162761
33	0x3f29225d	0.6606806
34	0xc038bdb4	-2.8865786
35	0xc0334820	-2.8012772
36	0xbf3ae612	-0.7300731
37	0xbff311e7	-1.8989838
38	0xc0516532	-3.2718015
39	0xc04ed5d9	-3.2318022
40	0x3f0109e6	0.5040573
41	0xc06bd77f	-3.6850278
42	0xc05ea445	-3.4787762
43	0xbfcaf7b6	-1.5856845
44	0x3e8e2d70	0.2776904
45	0xbe7b4461	-0.24537803
46	0x3e22f698	0.1591438
47	0xbf17ec63	-0.5934507
48	0xc05561df	-3.3340986
49	0xc0467350	-3.100788
50	0xbe90afe6	-0.282592
51	0x3f34b56a	0.70589316
52	0xbeab3c95	-0.33444658
53	0xbe07fc98	-0.1327995
54	0xbf9a2ab3	-1.2044281
55	0x3d0f4855	0.03498109
56	0xbcfee08c	-0.031112932
57	0xc05cd4e5	-3.450494
58	0xbd4fdc22	-0.050747044
59	0x3e110d6a	0.14165273
60	0x3d17aff7	0.037033048
61	0xbfd2d395	-1.647082
62	0xbe353eab	-0.17699687
63	0x3de4ef52	0.11178459
64	0xbf3dfab8	-0.7421069
65	0xbfafeb83	-1.3743747
66	0xbdfaa6dd	-0.12238858
67	0x3e688fb6	0.22711071
68	0xc04bd807	-3.1850603
69	0x3e506e2d	0.20354529
70	0xc014df55	-2.326131
71	0xbe9fc715	-0.31206575
72	0x3f03e61d	0.51523
73	0xbebd8f82	-0.3702355
74	0xbe8eacd8	-0.27866244
75	0xc0597587	-3.3977983
76	0xbe9d8352	-0.30764252
77	0x3ea7f235	0.32801977
78	0xc0594d75	-3.3953526
79	0xc04a6410	-3.1623573

hidden2.weight f4 [40, 80]
0	0x3cf78610	0.030215293
1	0x3d859f96	0.06524579
2	0xbd3b6256	-0.045748077
3	0xbeb6f8aa	-0.3573659
4	0xbea329be	-0.31867784
5	0xb7b60000	-2.169609e-05
6	0xbc505c90	-0.012717381
7	0xbe9d791b	-0.3075646
8	0xbebdbfee	-0.37060493
9	0xbe8706aa	-0.26372272
10	0xbe76325a	-0.24042645
11	0xbe633d80	-0.22191429
12	0xbec5c97d	-0.38630286
13	0xbe77449a	-0.24147263
14	0xbd91c775	-0.071181215
15	0xbeb6a375	-0.35671583
16	0xbebce4ee	-0.3689341
17	0xbeb6e7d1	-0.35723737
18	0x3cdbae38	0.026816472
19	0xbc4c1648	-0.012456484
20	0xbdbe1ef4	-0.092832476
21	0xbea403d7	-0.3203418
22	0xbe455b83	-0.1927319
23	0xbe8443c1	-0.25832942
24	0xbe91735b	-0.28408322
25	0xbea2b69a	-0.3177994
26	0xbe918d00	-0.28427887
27	0x3d672c08	0.056438476
28	0xbdac5ea4	-0.08416489
29	0xbd34c818	-0.044136137
30	0xbd65dd1e	-0.056119077
31	0xbea80e91	-0.32823613
32	0x3c657960	0.014005989
33	0xbe9f8a46	-0.31160182
34	0xbdc7744e	-0.0973898
35	0xbeaa257c	-0.33231723
36	0xbced51e8	-0.02896972
37	0x3d3d611c	0.04623519
38	0xbd72bc78	-0.05926177
39	0xbdb44401	-0.08802033
40	0xbeb49efb	-0.35277542
41	0xbb833d20	-0.0040050894
42	0xbb699080	-0.0035639107
43	0x3dd9175e	0.1060016
44	0xbe93a63d	-0.28837767
45	0x3dc5e346	0.096624896
46	0xbe7f5be8	-0.24937403
47	0xbeaa3c54	-0.33249152
48	0xbddff9fb	-0.10936352
49	0x3d9a6694	0.075390965
50	0x3d20cbb8	0.03925678
51	0xbe4d70ed	-0.20062609
52	0xbe8ee800	-0.27911377
53	0xbe8e3858	-0.27777362
54	0xbd8dd9e2	-0.069263235
55	0xbe41d253	-0.18927889
56	0xbbb90dd0	-0.0056473985
57	0xbd475686	-0.0486665
58	0xbd6dbdfb	-0.058042508
59	0xbe580778	-0.21096599
60	0xbe4eca76	-0.2019442
61	0xbea50173	-0.32227668
62	0xbe6e14e4	-0.23250157
63	0xbe48b197	-0.19598995
64	0xbd8f5b84	-0.06999877
65	0xbe29416e	-0.16528866
66	0xbe48ebf8	-0.19621265
67	0xbe3e1ad4	-0.18564922
68	0xbcbef160	-0.023308456
69	0xbeb5bea0	-0.35496998
70	0x3d92ec9c	0.07174036
71	0xbd9a2b8e	-0.07527839
72	0xbe4cf4e1	-0.20015289
73	0xbec33c2a	-0.3813184
74	0xbe8e559a	-0.27799684
75	0xbc8058f4	-0.015667416
76	0xbe30cd11	-0.17265727
77	0xbe9d541f	-0.30728242
78	0x3c9b6a20	0.018971503
79	0xbd1d7a24	-0.03844656
80	0x405ab479	3.4172652
81	0x40233a69	2.55044
82	0x3fa61b6f	1.2977122
83	0xc08e9569	-4.4557385
84	0xbf2504ab	-0.6446025
85	0x3fcfe597	1.624194
86	0x402d6039	2.708998
87	0x3fe8427f	1.8145293
88	0x3f32383e	0.6961707
89	0x3c3e4bf5	0.011614789
90	0x3f1fd53a	0.6243473
91	0x3e608f4c	0.21929663
92	0xc04ca084	-3.197297
93	0x3e39074f	0.18069194
94	0x3f2972e8	0.6619096
95	0x3e9c07b2	0.3047462
96	0x3fc817a8	1.5632219
97	0xbea584b0	-0.32327795
98	0x3d6dd798	0.058066934
99	0x4098a02d	4.7695527
100	0x403565c7	2.834337
101	0xbe78e890	-0.24307466
102	0xc042e60c	-3.045291
103	0x3d9dc7ce	0.07704125
104	0x3dcc05a3	0.099620126
105	0x403b11bb	2.9229572
106	0x3eb1aa11	0.34700063
107	0x3ffd2856	1.9777935
108	0xbd7438dd	-0.05962454
109	0xbdbff700	-0.093732834
110	0x40215117	2.5205743
111	0x3fab9b02	1.340668
112	0x403068fb	2.7564075
113	0x3e9c072c	0.30474222
114	0x3ff8e0b7	1.9443578
115	0x400aaa74	2.1666536
116	0xc08da10f	-4.4259105
117	0x3da95276	0.08267681
118	0x401703d5	2.359609
119	0x40258e10	2.5867958
120	0xbf5243db	-0.8213479
121	0x404a4647	3.1605394
122	0x4039fdd5	2.9061177
123	0x3f830b63	1.023785
124	0x3f884ab8	1.0647802
125	0xbdd6d504	-0.10489848
126	0x3bc81b27	0.0061067524
127	0x3f04a810	0.51818943
128	0xc063521e	-3.551887
129	0x3fdf50b3	1.7446502
130	0x3e159f89	0.14611639
131	0xbcdea888	-0.027179971
132	0xbd52b209	-0.05143932
133	0xbca97cc7	-0.020689381
134	0x403a7a3c	2.9137106
135	0x3e575de4	0.2103191
136	0x3faa9cdc	1.332912
137	0x400ed96b	2.2320201
138	0x3f8a5d8f	1.0809802
139	0x40c6d635	6.2136483
140	0x3e47ad86	0.19499788
141	0x3f695188	0.9114003
142	0x3fee8c28	1.8636522
143	0xbf161535	-0.5862611
144	0x3f4c9fdd	0.7993143
145	0xc08cac3d	-4.396025
146	0x3fa7a3f0	1.3096905
147	0x3c92aadc	0.017903738
148	0x406d89a1	3.7115252
149	0x3ee9938b	0.4562038
150	0x3fbd71f2	1.4800398
151	0x3daa1554	0.08304849
152	0x3f880482	1.0626376
153	0x3e2f1627	0.17098294
154	0x3dfc431d	0.12317488
155	0x4046fe0f	3.1092565
156	0x3e145430	0.1448524
157	0xbf46014e	-0.7734574
158	0x40230e84	2.547761
159	0x401e5aaa	2.4742837
160	0xbd1f2f6b	-0.03886358
161	0x3da0552c	0.07828745
162	0x3ca3877c	0.019962065
163	0xbddbf469	-0.10739977
164	0xbd8828ac	-0.066483825
165	0xbdd494d2	-0.10379948
166	0xbdcf3005	-0.10116581
167	0xbdc315aa	-0.095256165
168	0xbd4665b8	-0.04843685
169	0xbca6f198	-0.020378873
170	0xbd7159dd	-0.05892359
171	0xbd9a1635	-0.07523767
172	0x3cb973f5	0.0226383
173	0xbd1c910f	-0.038224276
174	0x3d1b9def	0.037992414
175	0x3c44a2ba	0.012001688
176	0xbc546c37	-0.012965254
177	0xbc958cdd	-0.018255645
178	0x3cc0ce30	0.023535818
179	0xbc6fe908	-0.014642961
180	0xbde4a9ff	-0.11165237
181	0xbe263935	-0.1623276
182	0xbd0ea241	-0.034822706
183	0xbddce780	-0.107863426
184	0xbd24c15a	-0.040223457
185	0xbc2aa3d9	-0.010415041
186	0x3d1e045e	0.038578384
187	0xbd0d2517	-0.0344592
188	0x3d9c96d8	0.07645959
189	0xbd761693	-0.060080122
190	0x3cce3f2b	0.025176605
191	0xbd8899a4	-0.066699296
192	0xbe026e09	-0.12737288
193	0x3b8f39fb	0.0043709255
194	0xbe336475	-0.1751879
195	0x39dda0c8	0.00042272196
196	0xbcb3ea67	-0.021962358
197	0xbc9ad748	-0.018901482
198	0xbd9e4702	-0.077283874
199	0xbcd9487d	-0.026523823
200	0xbc4d370e	-0.012525333
201	0xbe15d640	-0.14632511
202	0x3da408ca	0.08009489
203	0xbdd18496	-0.10230367
204	0xbe1ba8e0	-0.1520114
205	0xbc2f3cc8	-0.010695644
206	0xbdacd4bf	-0.084390156
207	0xbd653b92	-0.055965014
208	0x3ca36105	0.019943723
209	0xbdb99dbd	-0.09063289
210	0xbd5f0076	-0.0544438
211	0xbdafec10	-0.08589947
212	0xbdff28e5	-0.12458972
213	0xbe32ff36	-0.17480168
214	0xbd93cceb	-0.072168194
215	0xbc8837e7	-0.016628219
216	0x3cdadbea	0.026716191
217	0x3c8955ed	0.016764605
218	0xbdde60db	-0.108583175
219	0xbe022044	-0.12707621
220	0xbe0784e3	-0.13234286
221	0xbd58c04f	-0.052917775
222	0xbd642613	-0.055700373
223	0xbe326d6f	-0.17424558
224	0xbded4300	-0.11585045
225	0xbe0683df	-0.13136242
226	0xbd6acd33	-0.0573246
227	0xbd80bd3c	-0.062860936
228	0xbe00081a	-0.1250309
229	0xbdf920e4	-0.121644765
230	0xbde04fcc	-0.1095272
231	0xbdb7094e	-0.089373216
232	0xbe060894	-0.1308921
233	0xbc0f41ff	-0.008743762
234	0xbe31dcad	-0.17369337
235	0x3dda0464	0.10645369
236	0xbd24923c	-0.040178522
237	0xbda5a364	-0.08087805
238	0x3c7abc06	0.015303617
239	0x3cf09c31	0.029371353
240	0xbdfe5af5	-0.124196924
241	0xbdc58a33	-0.096455
242	0xbe2668b7	-0.16250883
243	0xbd801cfd	-0.06255529
244	0x3c69c774	0.014268745
245	0xbd25d0c1	-0.040482286
246	0xbdde9ebb	-0.10870119
247	0x3cec5641	0.028849723
248	0xbb6b7fe2	-0.0035934378
249	0x3d5d9b08	0.054102927
250	0xbd734699	-0.0593935
251	0xbe10e8bb	-0.1415128
252	0x3c9d01fa	0.019165982
253	0xbdd7081e	-0.10499595
254	0xbbf3118d	-0.0074178637
255	0xbde1135e	-0.10990022

hidden2.bias f4 [40]
0	0xbeb4806c	-0.35254228
1	0x403d0fc8	2.9540882
2	0xbd1e66a6	-0.038672112
3	0xbda73ac9	-0.08165509
4	0xbee8371d	-0.45354548
5	0x403b6628	2.9281101
6	0x404000b8	3.0000439
7	0xbd3f94e2	-0.046772845
8	0xbebcdc41	-0.3688679
9	0xbd3d8032	-0.046264835
10	0x404bd106	3.1846328
11	0x403ac66f	2.9183614
12	0x403bc23e	2.9337306
13	0xbd018530	-0.031621158
14	0xbe0080d5	-0.12549146
15	0x4039d40f	2.903568
16	0xbcbcaa23	-0.023030346
17	0xbd808d00	-0.062768936
18	0xbed10297	-0.40822288
19	0xbe040838	-0.1289376
20	0x4011c1c3	2.2774513
21	0x40463765	3.097131
22	0x4045706a	3.0849862
23	0xbe232daa	-0.15935388
24	0xbde1e80e	-0.11030589
25	0x403bdc3f	2.9353178
26	0x4037f1bd	2.8741295
27	0xbf0ab818	-0.54187155
28	0x4043c2a9	3.058756
29	0x403f3185	2.9873974
30	0x404612ae	3.09489
31	0xbe116f26	-0.14202556
32	0x3b8105b5	0.003937448
33	0x40138b53	2.3053787
34	0xbda74f19	-0.081693836
35	0xbe26dd40	-0.16295338
36	0x403e949b	2.9778202
37	0x3ce7e97a	0.028309572
38	0xbe0016b8	-0.12508667
39	0xbe2e895a	-0.17044583

hidden3.weight f4 [20, 40]
0	0xbe04aca3	-0.1295648
1	0xbdb70988	-0.08937365
2	0xbd84270b	-0.06452759
3	0x3db98a16	0.09059541
4	0xbe184b09	-0.14872374
5	0xbe0f182e	-0.13974068
6	0x3dcf0c26	0.10109739
7	0xbd8941fc	-0.06702039
8	0xbe0b3330	-0.13593745
9	0x3d754d44	0.05988814
10	0xbe167522	-0.1469312
11	0xbe05ca9c	-0.1306557
12	0x3d4944e4	0.049137965
13	0x3d2abcd4	0.041683987
14	0xbe0c9961	-0.13730384
15	0xbe0b4e22	-0.13604024
16	0x3ded37e2	0.115829244
17	0x3c143370	0.009045467
18	0xbdf8fe89	-0.12157924
19	0x3e0dd19d	0.13849492
20	0x3dab4ece	0.0836464
21	0xbd7bb1fa	-0.06144903
22	0x3d9ee7ba	0.07759042
23	0x3d41b1bc	0.04728864
24	0x3d4940a4	0.04913391
25	0xbdc8a976	-0.09797947
26	0xbe0cc6d5	-0.13747723
27	0x3d4f0984	0.050546184
28	0x3cb934d8	0.022608206
29	0x3e04a997	0.12955318
30	0xbe146c0c	-0.14494342
31	0x3dc1ee8a	0.09469326
32	0xbe185bbf	-0.14878748
33	0xbe01194f	-0.1260731
34	0xbdb3ed25	-0.08785466
35	0x3d7d8ef8	0.061903924
36	0x3c250550	0.010072067
37	0xbd9d7f38	-0.07690281
38	0x3d64bba8	0.055843025
39	0x3b8a3080	0.0042172074
40	0xbd3aeca8	-0.04563585
41	0xbcc78a81	-0.024358036
42	0xbc727700	-0.01479888
43	0xbb2f6e89	-0.0026768765
44	0xbe065748	-0.13119233
45	0x3d95ab96	0.07308118
46	0xbe3dfa98	-0.18552625
47	0xbe163eca	-0.1467239
48	0x3d784c08	0.060619384
49	0xbd59f070	-0.053207815
50	0x3d5b1350	0.053485215
51	0x3dbe95d6	0.09305923
52	0x3b576793	0.0032868132
53	0xbd9d2a82	-0.07674123
54	0xbc2b3710	-0.01045014
55	0x3db74f96	0.08950727
56	0x3decab52	0.11556114
57	0x3d686b84	0.05674316
58	0x3d38b770	0.045096815
59	0xbda70284	-0.08154777
60	0x3d4750b2	0.04866094
61	0x3d5b65f8	0.05356404
62	0xbe57336f	-0.21015714
63	0xbcac1198	-0.021004483
64	0x3e104203	0.14087681
65	0x3c01b793	0.007917303
66	0xbe50ef45	-0.20403774
67	0xbcffddc0	-0.031233668
68	0x3d6b499e	0.057443254
69	0x3d2f5f8c	0.04281573
70	0xbe2fb535	-0.17158969
71	0x3da4cbac	0.0804666
72	0x3d833602	0.064067855
73	0x3e1cf9c7	0.15329657
74	0xbd2bb89e	-0.04192411
75	0x3d5d12ec	0.053973123
76	0xbd7d38b4	-0.061821654
77	0x3c97ccc2	0.018530253
78	0x3e0992f3	0.13434963
79	0xbd82bb19	-0.06383342
80	0x3ce270c8	0.027641669
81	0x3daf1fa8	0.0855096
82	0xbd641862	-0.055687316
83	0xbcfafbb8	-0.030637607
84	0x3dbd32fe	0.092382416
85	0xbc980600	-0.018557549
86	0xbe0c48fb	-0.13699715
87	0x3d9a0222	0.07519938
88	0x3d3789dc	0.044809207
89	0xbdc0afc7	-0.09408527
90	0xbdd70360	-0.104986906
91	0xbb750ec0	-0.0037392825
92	0xbdab154c	-0.083536714
93	0x3c7cabc0	0.015421808
94	0x3cb45188	0.022011533
95	0x3dea718e	0.1144744
96	0x3da32540	0.07966089
97	0x3dd5bb2e	0.10436092
98	0xbcc549f8	-0.024083123
99	0xbe03531c	-0.12824672
100	0xbdf37762	-0.11888005
101	0x3d424f38	0.04743883
102	0xbe13ecde	-0.14445826
103	0xbde76c37	-0.11299937
104	0xbc2a6f20	-0.010402471
105	0xbddf9e30	-0.10918844
106	0x3d1880f4	0.037232354
107	0x3d0539b8	0.032525748
108	0x3ccb7910	0.024838
109	0xbdf37432	-0.11887397
110	0x3e0d479f	0.13796853
111	0x3dc25d86	0.094904944
112	0xbd5ef3bc	-0.054431662
113	0xbddba2a2	-0.10724379
114	0x3dcc1cd2	0.099664345
115	0xbd9a9ca1	-0.07549406
116	0x3c318420	0.010834724
117	0x3da7652e	0.08173595
118	0x3d8f79b0	0.07005632
119	0xbb4deac0	-0.003142044
120	0x3dce1dd6	0.100642845
121	0xbe10a20d	-0.14124317
122	0x3cce7df9	0.025206553
123	0xbe4d73fe	-0.20063779
124	0xbdd159db	-0.10222217
125	0x3da0f48c	0.078591436
126	0xbd0f4bec	-0.034984514
127	0xbdc1767e	-0.09446429
128	0x3e19d065	0.15020902
129	0x3cbd5a68	0.023114398
130	0xbd9e7977	-0.07738011
131	0xbe627241	-0.22113897
132	0x3db149f1	0.08656681
133	0xbd7ccb47	-0.061717298
134	0xbe0bb8c8	-0.13644707
135	0xbde5fd4d	-0.11229954
136	0xbc16d2ce	-0.009205533
137	0xbe15956b	-0.1460778
138	0xbe47bc1a	-0.19505349
139	0xbe43d70b	-0.19125001
140	0x3d8b3350	0.067968965
141	0xbe04d90d	-0.12973423
142	0xbe3cf04f	-0.18451045
143	0x3d752104	0.05984594
144	0xbd62af3a	-0.05534289
145	0xbce82e5a	-0.028342415
146	0xbd9dde47	-0.07708412
147	0x3abf8200	0.0014610887
148	0xbe0d6473	-0.1380785
149	0xbe0a8c14	-0.13529998
150	0xbdfb3bfe	-0.12267302
151	0xbd90bac9	-0.070668764
152	0x3d2d7cf7	0.042355504
153	0x3d4a5f3c	0.04940723
154	0x3d025399	0.031818006
155	0x3c2e8d60	0.010653824
156	0xbe163e26	-0.14672145
157	0xbd8a6bd5	-0.067588486
158	0xbd150de9	-0.03639022
159	0xbc3c03a8	-0.011475481
160	0xbece30dd	-0.40271655
161	0x3f7b456a	0.9815279
162	0xbc8acfbb	-0.016944757
163	0x3e0f3572	0.13985232
164	0x3e4dd032	0.20098951
165	0x3f8229a9	1.0168964
166	0x3f8cb5c0	1.0992966
167	0xbceeab95	-0.029134551
168	0xbea6ca97	-0.3257644
169	0xbd3f0794	-0.046638086
170	0x3f881dad	1.0634056
171	0x3f845d90	1.0341053
172	0x3f5e5ab0	0.8685713
173	0x3de472ea	0.111547306
174	0xbd7e7563	-0.062123667
175	0x3f841e61	1.0321771
176	0xbdbbef59	-0.09176511
177	0xbcfec716	-0.031100791
178	0xbe5943f7	-0.21217333
179	0x3db629a2	0.088946596
180	0x401ad4fe	2.41925
181	0x3f861402	1.0474856
182	0x3f807a2f	1.0037287
183	0x3d999f0f	0.07501041
184	0xbb46c943	-0.0030332364
185	0x3f44ef35	0.769275
186	0x3f403b38	0.7509036
187	0x3de2ac8c	0.11068067
188	0x3f690d9b	0.91036385
189	0x3f839bf4	1.0281968
190	0x3f8566cb	1.0421995
191	0xbd5907fa	-0.052986123
192	0xbcb4cc6c	-0.022070132
193	0xc1258bab	-10.346599
194	0x3e369f13	0.1783412
195	0xbd4bacbc	-0.04972528
196	0x3f8390a9	1.0278522
197	0xbc139f2a	-0.009010116
198	0xbd0e2363	-0.034701716
199	0x3dab6628	0.08369094
200	0xbea11ef2	-0.31468922
201	0x3f936d6e	1.151777
202	0xbcd3d800	-0.025859833
203	0x3d8b45b6	0.06800406
204	0x3e522afa	0.20524207
205	0x3f8868ac	1.0656943
206	0x3f84e1dd	1.0381428
207	0x3b9f5318	0.0048622005
208	0xbeb0760c	-0.34465063
209	0x3bd0aac0	0.0063680112
210	0x3f951533	1.1647094
211	0x3f4eb263	0.80740947
212	0x3f919710	1.1374226
213	0x3e502191	0.20325305
214	0x3e2c1e91	0.16808535
215	0x3f8c06c3	1.0939564
216	0x3c56bea4	0.013106976
217	0xbd8e41d8	-0.069461524
218	0xbea1b29c	-0.3158158
219	0x3c9aa54d	0.01887765
220	0x4023f256	2.561666
221	0x3f8c3043	1.0952228
222	0x3f8b10fb	1.0864557
223	0x3ce58f60	0.028022468
224	0x3e34dd64	0.17662579
225	0x3f849227	1.0357102
226	0x3f876b92	1.0579703
227	0x3e9b603b	0.30346856
228	0x3f98aca9	1.1927692
229	0x3f8e46f0	1.1115398
230	0x3f7e0ed7	0.99241394
231	0xbb99a666	-0.0046890257
232	0x3e044a77	0.12919031
233	0xc125c4ac	-10.360516
234	0xbd3713e8	-0.04469672
235	0x3e3ea911	0.18619181
236	0x3f75bdee	0.95992935
237	0x3c8081ea	0.015686948
238	0xba112783	-0.0005537199
239	0xbc0aee21	-0.008479626
240	0xbd5e8a18	-0.054330915
241	0xbd2f1881	-0.042747978
242	0x3dbddfd3	0.09271207
243	0x3d9fa26d	0.07794652
244	0x3e5b12f4	0.21393949
245	0xbdb296ae	-0.08720146
246	0xbaacb443	-0.0013176281
247	0x3e415572	0.18880251
248	0x3c9a2fa8	0.018821552
249	0xbdd3337f	-0.103125565
250	0xbdc95073	-0.098297976
251	0xbd87b770	-0.06626785
252	0xbdb52c86	-0.08846383
253	0x3d7d438c	0.061831996
254	0x3e029ca3	0.12755065
255	0xbd0775de	-0.03307139

hidden3.bias f4 [20]
0	0xbdaf0eda	-0.085477546
1	0xbe459867	-0.19296418
2	0xbd3d100a	-0.046157874
3	0x3d22067e	0.039556973
4	0x4089ec0f	4.3100657
5	0x408ac278	4.336239
6	0xbe540007	-0.20703135
7	0x3ac1268c	0.0014736219
8	0xbcfa1830	-0.030529112
9	0x3c2a30df	0.010387628
10	0x3c8e43a0	0.01736623
11	0xbdb63e1f	-0.088985674
12	0xbe359f47	-0.1773654
13	0xbdf8f629	-0.12156326
14	0x4083e91c	4.1222057
15	0x4080ce98	4.025219
16	0x408394f9	4.111935
17	0x4085c4d0	4.180275
18	0x408288f8	4.07922
19	0xbe6ac308	-0.22925961

hidden4.weight f4 [10, 20]
0	0x3d96e4b4	0.073678404
1	0xbdc269da	-0.09492846
2	0xbdeeab70	-0.11653793
3	0x3e52c192	0.20581654
4	0xbd7e81d8	-0.062135547
5	0x3ca24140	0.019806504
6	0xbdacc912	-0.084367886
7	0xbd1526e0	-0.036414027
8	0x3db53a4c	0.0884901
9	0x3dedf384	0.116187125
10	0x3d1fa798	0.03897819
11	0x3d3b93c8	0.045795232
12	0x3e2d7732	0.1694
13	0xbe395709	-0.18099608
14	0xbbe12140	-0.006870419
15	0xbe423ec7	-0.1896926
16	0xbe41e1c5	-0.1893378
17	0xbe5ce923	-0.2157331
18	0x3e465eea	0.19372144
19	0x3dfb1ba4	0.122611314
20	0x3dee44bc	0.11634204
21	0xbe206c6c	-0.1566636
22	0xbd246918	-0.040139288
23	0x3e31ff92	0.17382649
24	0x3c5b7c80	0.013396382
25	0xbe14c158	-0.1452688
26	0xbc0b00e0	-0.008484095
27	0x3e2cc13a	0.16870585
28	0x3c6c1840	0.0144100785
29	0xbdff04e9	-0.124521084
30	0x3db2b3b4	0.08725682
31	0xbe1f91d1	-0.15582968
32	0xbe0f3b4b	-0.13987462
33	0x3e1769c6	0.14786443
34	0xbdb19cee	-0.0867251
35	0xbd077da8	-0.03307882
36	0xbe08af8e	-0.13348219
37	0x3cf8a570	0.030352324
38	0x3e1fb356	0.15595755
39	0xbdb903e4	-0.09033945
40	0xbd98acf2	-0.07454862
41	0xbd7b9c24	-0.061428204
42	0x3d9661b8	0.07342857
43	0xbcbb6c28	-0.022878721
44	0x3f899f07	1.0751656
45	0x3f96b115	1.1772791
46	0x3c3040f9	0.010757678
47	0xbe624a73	-0.22098713
48	0xbd98a36a	-0.07453044
49	0x3e31ac6a	0.17350927
50	0xbe4004ee	-0.1875188
51	0xbc8646f8	-0.016391262
52	0x3db98c9c	0.09060022
53	0xbe25dca8	-0.16197455
54	0x3faa8316	1.3321254
55	0x3f82da26	1.0222824
56	0x3f9b99e6	1.2156341
57	0x3fa3a4d3	1.2784675
58	0x3fab7d1e	1.3397558
59	0x3e46431c	0.19361538
60	0x3e48f6e0	0.19625425
61	0xbde107fa	-0.109878495
62	0xbe3f3d85	-0.18675812
63	0x3dcc10c3	0.099641345
64	0x3f7cd3cd	0.9876068
65	0x3fa18643	1.2619098
66	0xbd1a59a8	-0.03768316
67	0xbde8525c	-0.11343834
68	0x3ca49557	0.020090742
69	0xbdb8fd86	-0.09032731
70	0x3e174418	0.1477207
71	0x3db64269	0.088993855
72	0x3e39f594	0.18160087
73	0x3e3565fb	0.17714684
74	0x3f69fc8b	0.91400975
75	0x3f67e121	0.90577894
76	0x3f498e4d	0.7873276
77	0x3fa15ca7	1.26064
78	0x3f521956	0.8206991
79	0x3c17d2c9	0.009266564
80	0x3e5237b6	0.20529065
81	0x3dfc035c	0.12305328
82	0x3e342de8	0.17595637
83	0xbe5fd000	-0.2185669
84	0xbe309e60	-0.17247915
85	0xbe5b10cb	-0.21393125
86	0x3e56d3ac	0.20979184
87	0x3c555100	0.0130198
88	0xbd5fc458	-0.054630607
89	0x3e1215d8	0.14266145
90	0xbe48fe96	-0.19628367
91	0x3dc9eaf0	0.09859264
92	0x3dbf0c90	0.09328568
93	0xbdec230d	-0.11530123
94	0xbd858196	-0.06518857
95	0x3e2c4df2	0.16826609
96	0x3d15a5f8	0.036535233
97	0x3dc5dd80	0.096613884
98	0xbe550be4	-0.20805317
99	0xbe3e238a	-0.18568245
100	0x3dae09e8	0.08497983
101	0xbe1f0cf6	-0.15532288
102	0x3e199d16	0.1500133
103	0xbc550720	-0.013002187
104	0x3f5c972f	0.8616819
105	0x3f2252a5	0.63407356
106	0x3c969bc0	0.018384814
107	0x3e34206e	0.17590496
108	0xbd40d7e8	-0.047080904
109	0x3da84590	0.08216393
110	0x3e375d56	0.17906699
111	0xbdd1eefc	-0.10250661
112	0xbe193298	-0.14960706
113	0x3e71e3b1	0.23622014
114	0x3f3d73d3	0.7400486
115	0x3f576215	0.84134036
116	0x3f53f435	0.82794505
117	0x3f82e5a9	1.0226337
118	0x3f434bdb	0.7628762
119	0xbdfc80b3	-0.12329235
120	0x3d83cbac	0.06435332
121	0x3df8eb84	0.12154296
122	0x3c5aab60	0.013346523
123	0xbe042589	-0.12904944
124	0xbca9ad40	-0.020712495
125	0xbda6ad0e	-0.08138476
126	0x3dca6d18	0.09884089
127	0x3cf4d5e0	0.02988714
128	0x3e5c182e	0.21493599
129	0xbd973f60	-0.07385135
130	0xbdb6ca40	-0.08925295
131	0xbcb93f78	-0.022613272
132	0xbe389040	-0.18023777
133	0x3dc133e0	0.094337225
134	0x3e3162ba	0.17322817
135	0x3cfdec90	0.03099659
136	0x3cd3ee18	0.025870368
137	0xbdfb9fe4	-0.12286356
138	0xbe2dcee0	-0.16973448
139	0x3e555638	0.20833671
140	0xbd827cd4	-0.06371465
141	0x3e5fd528	0.21858656
142	0xbdac0a56	-0.08400409
143	0xbe0fd3f6	-0.140457
144	0xbde359ea	-0.11101134
145	0xbe29bd08	-0.16576016
146	0x3ae2f500	0.0017315447
147	0x3e44228e	0.19153807
148	0x3e40ec4c	0.1884014
149	0x3e1a619e	0.150763
150	0xbe2448c7	-0.16043387
151	0xbc2f9550	-0.010716751
152	0xbe06920d	-0.13141651
153	0xbe50cb67	-0.20390092
154	0x3d42aae0	0.04752624
155	0x3dbe94f4	0.09305754
156	0x3e3f2f54	0.18670398
157	0xbd334088	-0.043762714
158	0xbe1bfb4a	-0.15232578
159	0x3d3a71f8	0.045518845
160	0xbce66178	-0.028122649
161	0x3ddfae9c	0.10921976
162	0xbe0647a2	-0.13113263
163	0xbd668b3f	-0.05628514
164	0xbf140ec4	-0.5783503
165	0xbf052bf9	-0.5202022
166	0xbe642c75	-0.22282584
167	0x3de72e74	0.11288157
168	0x3e1d2db2	0.15349463
169	0xbd5de352	-0.054171868
170	0x3e120082	0.14258006
171	0xbc324b3b	-0.010882194
172	0x3e457b50	0.19285321
173	0xbe264cf2	-0.1624029
174	0xbe01a3c1	-0.12660123
175	0x3d6ad25e	0.057329528
176	0xbd965896	-0.07341115
177	0xbdea7d3c	-0.11449668
178	0xbed52a47	-0.41633818
179	0xbdb8fc7e	-0.09032534
180	0xbe5ec5ad	-0.21755095
181	0xbdfafc0e	-0.12255107
182	0xbdd96d56	-0.10616557
183	0xbc54cc1e	-0.012988118
184	0x3fbdbf44	1.4823995
185	0x3fce71f9	1.6128532
186	0x3d74ed5f	0.059796687
187	0xbc804428	-0.0156575
188	0x3e5d8b5a	0.2163519
189	0x3d4d5f70	0.050139844
190	0xbce998f8	-0.028515324
191	0xbd92b772	-0.07163896
192	0xbcb33322	-0.021874968
193	0xbe0783b4	-0.13233835
194	0x3fc57d6d	1.5428902
195	0x3f9eb7f2	1.2399886
196	0x3faa6a38	1.3313665
197	0x3fbc3f71	1.4706861
198	0x3fb2490d	1.3928543
199	0x3b8712ee	0.0041221296

hidden4.bias f4 [10]
0	0xbe467fc8	-0.19384682
1	0xbe0a37e0	-0.13497877
2	0x40a64162	5.1954813
3	0x40a9e604	5.309328
4	0xbe49335f	-0.19648503
5	0x409a7a46	4.827426
6	0xbe34168b	-0.17586724
7	0xbcaed220	-0.02134043
8	0xbe94f301	-0.29091647
9	0x40ae344e	5.443885

regression.weight f4 [1, 10]
0	0xbe795575	-0.24349006
1	0x3e77de12	0.24205807
2	0x3f9ea019	1.2392608
3	0x3f81acdb	1.0130876
4	0xbddeb764	-0.10874823
5	0x3f50404b	0.81348103
6	0xbe0cc942	-0.13748649
7	0x3de85b88	0.11345583
8	0xbe91b939	-0.28461626
9	0x3fc4ef09	1.5385448
