models/model404.pkl (torch, 23622 bytes, 9 tensors)

hidden1.weight f4 [80, 8]
00000000: f2fc d7bd 4157 b240 c11c 2f3e 4dd0 47bd
00000010: 87db e73f e615 6d3e 5393 fc3c b9b2 dc3d
00000020: 4dbf b4be 5c36 6140 707b 45bf daf9 eb3e
00000030: d950 4a40 e1c6 34bf fafe 05bf 632d 1a3f
00000040: e398 6d40 4dda 1ac0 3f8f b6bf 8b66 96bf
00000050: ddfc c23f 52d6 b33f d477 743f 8590 90be
00000060: 219e 8140 a834 95c0 6f7c 853d 869c efbf
00000070: c364 2840 4d1f 10be 18f3 f7be 1b04 7ec0
00000080: 67f1 5c40 c690 9e3e dfe8 893f cd7c 40c0
00000090: 0508 313f b500 06be 5e1b 05c0 1686 41c0
000000a0: 3028 373f 6bc3 6440 687b 873e e54c c33e
000000b0: ae58 2640 6742 f13e 4432 cfbd a4aa 2abf
000000c0: 0687 883f 6f19 8b40 fb61 babf 6355 d0bd
000000d0: 7ee9 0640 a09f f93e a801 cc3d f4b1 f03e
000000e0: dc27 3540 b374 19c0 5332 4d40 65a7 efbe
000000f0: 9ef2 2c40 135b c9bf 1eb5 16c0 17c1 d3bf
00000100: b4dd 5c40 e4d0 19c0 4039 4abf a599 b0bf
00000110: 2915 953f 3d71 b1be 7ad0 403f 6abd 29c0
00000120: 7e7b c43e fe8a 5b3e 622e 163f efaf 71bd
00000130: 0c0a a53e d2a3 44bf 17aa b3be 48a0 84bf
00000140: 9b84 c73f 2ce9 38bf 6e88 0b40 2afd d93e
00000150: d962 2840 8a8c a2bf 4b35 51bf a568 973f
00000160: b154 0440 65f3 04c0 2caf cb3f ff18 06c0
00000170: dc92 773f 9249 1ac0 5af2 e7bf 06f2 1ec0
00000180: 2ca9 99bf b31c 8140 39c0 8540 e0aa 65be
00000190: a332 1cbf fe77 42bf da61 0dbf 9540 afbe
000001a0: 6336 cf3e 9b09 25bf ee23 d53f 2d99 b63e
000001b0: dc28 e63f a1aa bdbf 672f bfbe 5275 163e
000001c0: 07e8 6540 01b4 a1bf eb97 d03e 06ac 7f3c
000001d0: ed61 b03f 957d 72be ea0a cdbe 351a 763f
000001e0: 39c0 873f 1a0e 0ec0 4de3 4440 df70 11bf
000001f0: 22a2 1540 b4d2 72be 3c60 a23f 6792 003f
00000200: 0518 61bf e0d9 2ac0 8db7 c2be e17a 62bf
00000210: 47ce 2240 8569 febf 1221 123d 32f1 bbbf
00000220: 8987 b7c0 64bf 17c0 8f03 69c0 c58f 8d3e
00000230: c292 2e40 3474 06bf dcaa be3e 8b93 43be
00000240: bfe8 96be c5de 2fbe 7c84 98be b8c5 79be
00000250: cc9b abbd 88a2 2ebd 573d 2bbe 00a2 64bd
00000260: 3b70 8ebf 1ceb 6740 49b0 88bf 5ab4 783e
00000270: d8b7 4240 6ddf f73e c64e 553f c517 aa3f
00000280: c7cb 25bd 40b8 af40 d66b 9a3d 964f 9dbd
00000290: 3cf4 e33f 9b75 693e f23a 613d 35cb df3d
000002a0: 44ba bdbe 4140 1dc0 6387 8140 9b56 7e3f
000002b0: 2f05 eb3e f59a dabf ed27 08bf 17b8 5ebf
000002c0: cf9d 583f 6f64 ecc0 1e30 0640 7946 6e3f
000002d0: 5a46 2340 576a a3bf de6b debf 5819 f03d
000002e0: dc00 4d3f db39 d3bf eeab 2340 c6f0 55bf
000002f0: be2f 833f 8320 ad3d 6013 813f e856 733e
00000300: 8fce 0a3f b320 3940 10ab 003d 3459 a4bf
00000310: bef6 633f 68d7 0f3f 6f21 fabe a3a0 a8bf
00000320: e8f2 b33f 5b2a a5c0 a3f9 25c1 27a3 0bc0
00000330: 6e33 95bf cbbb 54bf c59c 323f 51f9 c9bf
00000340: 8acd 013e 1ad5 90bf e2c9 bb3f 7832 f73e
00000350: d779 e43f 525f ecbf 4ea8 85be 15c5 083f
00000360: a620 d9be 18b2 aa40 0288 2f3e a792 1bbe
00000370: 5f58 f83f 71ae 02bd 3ea2 c4be 121d adbe
00000380: 1f38 66be 8c9e 3bbe a82e 613d 8242 abbe
00000390: 1431 50be 9e5f f8bd f043 8abc 88b6 203d
000003a0: 20b9 54bd 18c4 4dbe f052 f23d 5c40 19be
000003b0: d31c b3be c07a 0dbc 8403 133e a0c4 243c
000003c0: a9f0 2cbe 1143 ac40 527c 133e b43c ccbd
000003d0: 0b70 e13f 38ee 4d3e 600c 9b3a 76d0 743d
000003e0: 4c4c 8b40 dc99 c3bf 336e 4ebf 266a 81bf
000003f0: 612a a23f 2857 873f 7c94 ff3e 6667 1b3f
-0.10546292 5.573151 0.17100812 -0.048782635 1.811387 0.23152885 0.030831968 0.10776276
-0.353022 3.5189428 -0.77141476 0.4608906 3.1611845 -0.70615965 -0.5234219 0.60225505
3.7124565 -2.419574 -1.4262465 -1.1750044 1.5233418 1.404978 0.95495343 -0.2823526
4.050553 -4.662678 0.065178744 -1.8719642 2.63115 -0.1407444 -0.48427653 -3.9690006
3.452234 0.30969828 1.0774192 -3.0076172 0.6915286 -0.13086207 -2.0797954 -3.023809
0.71545696 3.5744274 0.2646134 0.38144603 2.5991626 0.47120973 -0.10117009 -0.66666627
1.0666206 4.3468547 -1.4561151 -0.10172536 2.1080012 0.48754597 0.099612534 0.47010767
2.8305578 -2.3977478 3.2061965 -0.468074 2.7023082 -1.5730919 -2.3548045 -1.6543301
3.4510317 -2.4033747 -0.78993607 -1.3796889 1.1647083 -0.34656706 0.7531811 -2.652186
0.38375467 0.2143974 0.58664525 -0.059005674 0.32234228 -0.7681247 -0.35090706 -1.0361414
1.5587343 -0.7223079 2.180202 0.4257596 2.6310332 -1.2699139 -0.81721944 1.182881
2.0676692 -2.0773556 1.5912833 -2.0952756 0.96708465 -2.4107404 -1.8120835 -2.483522
-1.2004752 4.0347533 4.1797147 -0.22428465 -0.61014766 -0.75964344 -0.55227435 -0.3422896
0.4047118 -0.6446778 1.665159 0.3566374 1.7981219 -1.4817697 -0.37340853 0.14693192
3.5922868 -1.2633058 0.40740904 0.015604978 1.3779885 -0.23680718 -0.4004739 0.9613374
1.0605537 -2.2196107 3.0763733 -0.5681285 2.3380208 -0.2371319 1.2685618 0.5022339
-0.87927276 -2.669548 -0.38030663 -0.8846875 2.5438402 -1.9875952 0.03567607 -1.4682982
-5.735295 -2.3710566 -3.6408422 0.2764875 2.7277074 -0.5252106 0.3723973 -0.19099252
-0.29474446 -0.17174824 -0.29788578 -0.2439183 -0.08379325 -0.04263547 -0.16722618 -0.055818558
-1.1128 3.623725 -1.0678798 0.24287549 3.042471 0.48412648 0.83323324 1.3288504
-0.04047754 5.4912415 0.07540099 -0.076811954 1.780891 0.22798769 0.054987855 0.109274305
-0.37056172 -2.4570467 4.0477767 0.993509 0.45902392 -1.7078539 -0.5318592 -0.8699965
0.84615797 -7.38726 2.0966868 0.9307628 2.551169 -1.2766827 -1.7376668 0.11723584
0.80079436 -1.6502031 2.5573688 -0.83570516 1.0248945 0.08453467 1.0084038 0.23763621
0.54221433 2.8926208 0.031413138 -1.2839723 0.89048374 0.5618806 -0.48853633 -1.3174022
1.4058504 -5.1614203 -10.373446 -2.181833 -1.165632 -0.8309905 0.6977046 -1.577921
0.12676063 -1.1315033 1.4670985 0.48280692 1.7849683 -1.846659 -0.2610497 0.53425723
-0.4240772 5.33424 0.17141727 -0.15192662 1.9401969 -0.03190464 -0.3840503 -0.3381124
-0.22482346 -0.183222 0.054976135 -0.3344918 -0.20331222 -0.121276125 -0.016878098 0.039236575
-0.05193436 -0.20094335 0.11832225 -0.14965957 -0.3498293 -0.008635223 0.1435681 0.010056645
-0.1688868 5.383187 0.14402893 -0.09972516 1.7612318 0.20110404 0.001182925 0.059769116
4.3530636 -1.5281329 -0.806369 -1.0110519 1.2669183 1.0573473 0.49917972 0.6070465

hidden1.bias f4 [80]
00000000: c492 6fc0 863b 51c0 adca 22bf fd78 a3bf
00000010: c07b efbf ebe0 3ec0 837a 7ec0 c302 7b3e
00000020: 4418 e4be bbd7 a9bf cbf0 863f a8fc 413e
00000030: 6fa6 1ac0 13a4 1e3f 89ea 97bf 7572 823f
00000040: a3ef ce3f acc0 653f f893 80be 0a5a 71c0
00000050: bcd0 6ec0 4773 8e3f e27d 2d3f e670 313f
00000060: 0e0a 1dc0 9b46 693f 248a 333f 8b24 55c0
00000070: 006d 5bbd 33e4 86be 5a2e 62c0 438b babf
00000080: bed8 39c0 8a88 2f3f 70a2 4bc0 3613 38c0
00000090: f146 3cbf e711 f3bf 35ed 64c0 2d3c 69c0
000000a0: 7111 233f 1d3a 76c0 ed15 6fc0 dcc9 cdbf
000000b0: d313 a93c 6144 7bbe 2cfc 6cbe f5be 38bf
000000c0: e44c 6ac0 9798 5ac0 e6af 90be 28ed 203f
000000d0: 953c abbe 98fc 07be 675d 84bf ab27 75be
000000e0: 08db 0d3e 0dd6 76c0 8d1c 0dbe cdb5 84be
000000f0: 3add 923e 2d5a d1bf 23a9 71bc 43ff c0bc
00000100: e612 21bf f409 bbbf e82d 82bd 55b9 8dbc
00000110: d187 66c0 8e87 d6bd 5e49 1bc0 15c7 9fbe
00000120: 0d66 353f 828f bdbe 4a79 4dbf c56d 6ac0
00000130: 5283 9dbe 50bd 403f 0af3 5bc0 eb72 4cc0
-3.7433329 -3.269258 -0.6359051 -1.2771298 -1.870964 -2.982478 -3.9762275 0.24512772
-0.44549763 -1.3268961 1.0542234 0.18944037 -2.4164083 0.6196911 -1.186845 1.019118
1.6166881 0.8974712 -0.2511289 -3.7711205 -3.7314901 1.112893 0.67770207 0.69312894
-2.4537387 0.9112336 0.7013266 -3.3303554 -0.053570747 -0.26345977 -3.534079 -1.4573749
-2.903854 0.6856772 -3.1817894 -2.8761725 -0.7354575 -1.8989838 -3.576978 -3.6442978
0.6369849 -3.847297 -3.7357132 -1.6077228 0.020639336 -0.24537803 -0.23143071 -0.7216638
-3.660943 -3.4155633 -0.282592 0.6286187 -0.33444658 -0.1327995 -1.0341004 -0.23940913
0.13853085 -3.8568146 -0.13780423 -0.25919953 0.28684407 -1.6355644 -0.014749798 -0.023559218
-0.6291946 -1.4612412 -0.06356412 -0.017300287 -3.6020396 -0.10475074 -2.426353 -0.31206575
0.7085884 -0.3702355 -0.802632 -3.6629498 -0.30764252 0.7528887 -3.436709 -3.194514

hidden2.weight f4 [40, 80]
00000000: 1086 f73c 969f 853d 5662 3bbd aaf8 b6be
00000010: be29 a3be 0000 b6b7 905c 50bc 1b79 9dbe
00000020: eebf bdbe aa06 87be 5a32 76be 803d 63be
00000030: 7dc9 c5be 9a44 77be 75c7 91bd 75a3 b6be
00000040: eee4 bcbe d1e7 b6be 38ae db3c 4816 4cbc
00000050: f41e bebd d703 a4be 835b 45be c143 84be
00000060: 5b73 91be 9ab6 a2be 008d 91be 082c 673d
00000070: a45e acbd 18c8 34bd 1edd 65bd 910e a8be
00000080: 6079 653c 468a 9fbe 4e74 c7bd 7c25 aabe
00000090: e851 edbc 1c61 3d3d 78bc 72bd 0144 b4bd
000000a0: fb9e b4be 203d 83bb 8090 69bb 5e17 d93d
000000b0: 3da6 93be 46e3 c53d e85b 7fbe 543c aabe
000000c0: fbf9 dfbd 9466 9a3d b8cb 203d ed70 4dbe
000000d0: 00e8 8ebe 5838 8ebe e2d9 8dbd 53d2 41be
000000e0: d00d b9bb 8656 47bd fbbd 6dbd 7807 58be
000000f0: 76ca 4ebe 7301 a5be e414 6ebe 97b1 48be
00000100: 845b 8fbd 6e41 29be f8eb 48be d41a 3ebe
00000110: 60f1 bebc a0be b5be 9cec 923d 8e2b 9abd
00000120: e1f4 4cbe 2a3c c3be 9a55 8ebe f458 80bc
00000130: 11cd 30be 1f54 9dbe 206a 9b3c 247a 1dbd
00000140: 813b 6340 430e 0540 a67d 953f 582d a0c0
00000150: 4abd c23e 5397 b83f 82f7 2d40 5566 dd3f
00000160: 8acd 853f f54b 3e3c 91bd 443f 55f9 713e
00000170: dd72 5ac0 fc00 893e 3adf 023f c693 d23e
00000180: 4397 e73f ec6a 11c0 98d7 6d3d 54fc 8440
00000190: dc6a 3f40 b196 32bf 80f8 20c0 aee1 8b3e
000001a0: 8630 453e 15b1 6a40 d18e f23e 5e43 e53f
000001b0: dd38 74bd 00f7 bfbd a630 2540 fe96 953f
000001c0: c77b 2b40 02bd 763e 294a eb3f 5100 1640
000001d0: 146b 83c0 7652 a93d 8d7d 1a40 c3e9 5340
000001e0: c729 99bf 8fd7 4940 804f 3e40 fbf2 fa3e
000001f0: af72 573f 04d5 d6bd 281f f43d bd5c 223f
00000200: f9d0 7ac0 051d e23f 899f 153e a5bd acbe
00000210: 09b2 52bd c77c a9bc 3892 f33f 648c 133e
00000220: 590c aa3f 3f46 0e40 244b 0440 0a41 de40
00000230: 1f0c 2d3f 7379 9a3f 48e3 d43f 051e 96bf
00000240: 5f56 473f 49e4 4ac0 f651 a33f d200 693e
00000250: 6da2 9740 1940 fd3e 9d64 9c3f 5415 aa3d
00000260: 2c8b 1c40 2716 2f3e 72d2 3fbc f24d 4e40
00000270: 3054 143e 3069 5bbf 9475 0340 6efd 0340
00000280: 6b2f 1fbd 2c55 a03d 7c87 a33c 69f4 dbbd
00000290: ac28 88bd d294 d4bd 0530 cfbd aa15 c3bd
000002a0: b865 46bd 98f1 a6bc dd59 71bd 3516 9abd
000002b0: f573 b93c 0f91 1cbd ef9d 1b3d baa2 443c
000002c0: 376c 54bc dd8c 95bc 30ce c03c 08e9 6fbc
000002d0: ffa9 e4bd 3539 26be 41a2 0ebd 80e7 dcbd
000002e0: 5ac1 24bd d9a3 2abc 5e04 1e3d 1725 0dbd
000002f0: d896 9c3d 9316 76bd 2b3f ce3c a499 88bd
00000300: 096e 02be fb39 8f3b 7564 33be c8a0 dd39
00000310: 67ea b3bc 48d7 9abc 0247 9ebd 7d48 d9bc
00000320: 0e37 4dbc 40d6 15be ca08 a43d 9684 d1bd
00000330: e0a8 1bbe c83c 2fbc bfd4 acbd 923b 65bd
00000340: 0561 a33c bd9d b9bd 7600 5fbd 10ec afbd
00000350: e528 ffbd 36ff 32be ebcc 93bd e737 88bc
00000360: eadb da3c ed55 893c db60 debd 4420 02be
00000370: e384 07be 4fc0 58bd 1326 64bd 6f6d 32be
00000380: 0043 edbd df83 06be 33cd 6abd 3cbd 80bd
00000390: 1a08 00be e420 f9bd cc4f e0bd 4e09 b7bd
000003a0: 9408 06be ff41 0fbc addc 31be 6404 da3d
000003b0: 3c92 24bd 64a3 a5bd 06bc 7a3c 319c f03c
000003c0: f55a febd 338a c5bd b768 26be fd1c 80bd
000003d0: 74c7 693c c1d0 25bd bb9e debd 4156 ec3c
000003e0: e27f 6bbb 089b 5d3d 9946 73bd bbe8 10be
000003f0: fa01 9d3c 1e08 d7bd 8d11 f3bb 5e13 e1bd
0.030215293 0.06524579 -0.045748077 -0.3573659 -0.31867784 -2.169609e-05 -0.012717381 -0.3075646
-0.37060493 -0.26372272 -0.24042645 -0.22191429 -0.38630286 -0.24147263 -0.071181215 -0.35671583
-0.3689341 -0.35723737 0.026816472 -0.012456484 -0.092832476 -0.3203418 -0.1927319 -0.25832942
-0.28408322 -0.3177994 -0.28427887 0.056438476 -0.08416489 -0.044136137 -0.056119077 -0.32823613
0.014005989 -0.31160182 -0.0973898 -0.33231723 -0.02896972 0.04623519 -0.05926177 -0.08802033
-0.35277542 -0.0040050894 -0.0035639107 0.1060016 -0.28837767 0.096624896 -0.24937403 -0.33249152
-0.10936352 0.075390965 0.03925678 -0.20062609 -0.27911377 -0.27777362 -0.069263235 -0.18927889
-0.0056473985 -0.0486665 -0.058042508 -0.21096599 -0.2019442 -0.32227668 -0.23250157 -0.19598995
-0.06999877 -0.16528866 -0.19621265 -0.18564922 -0.023308456 -0.35496998 0.07174036 -0.07527839
-0.20015289 -0.3813184 -0.27799684 -0.015667416 -0.17265727 -0.30728242 0.018971503 -0.03844656
3.5505068 2.0789955 1.167897 -5.005535 0.3803504 1.442118 2.7182317 1.7296854
1.045335 0.011614789 0.76851755 0.23630269 -3.4132607 0.26758564 0.51121867 0.41128367
1.8093036 -2.272151 0.058066934 4.155802 2.9908972 -0.69761187 -2.5151672 0.27320617
0.19256791 3.6670582 0.47374585 1.7911184 -0.05962454 -0.093732834 2.5810943 1.1686704
2.6794298 0.24095538 1.8382007 2.3437693 -4.106821 0.08267681 2.413913 3.3111427
-1.1965874 3.1537817 2.9736023 0.49013504 0.8415937 -0.10489848 0.11920005 0.6342276
-3.9190047 1.7665106 0.14611639 -0.33738437 -0.05143932 -0.020689381 1.9028997 0.14409024
1.3285018 2.2230375 2.0670862 6.9454393 0.6759662 1.2068313 1.6631861 -1.1727911
0.77866167 -3.1701834 1.2759387 0.22754219 4.7385774 0.49462965 1.2218205 0.08304849
2.4459944 0.17098294 -0.011707889 3.2235074 0.1448524 -0.8570738 2.0540514 2.0623431
-0.03886358 0.07828745 0.019962065 -0.10739977 -0.066483825 -0.10379948 -0.10116581 -0.095256165
-0.04843685 -0.020378873 -0.05892359 -0.07523767 0.0226383 -0.038224276 0.037992414 0.012001688
-0.012965254 -0.018255645 0.023535818 -0.014642961 -0.11165237 -0.1623276 -0.034822706 -0.107863426
-0.040223457 -0.010415041 0.038578384 -0.0344592 0.07645959 -0.060080122 0.025176605 -0.066699296
-0.12737288 0.0043709255 -0.1751879 0.00042272196 -0.021962358 -0.018901482 -0.077283874 -0.026523823
-0.012525333 -0.14632511 0.08009489 -0.10230367 -0.1520114 -0.010695644 -0.084390156 -0.055965014
0.019943723 -0.09063289 -0.0544438 -0.08589947 -0.12458972 -0.17480168 -0.072168194 -0.016628219
0.026716191 0.016764605 -0.108583175 -0.12707621 -0.13234286 -0.052917775 -0.055700373 -0.17424558
-0.11585045 -0.13136242 -0.0573246 -0.062860936 -0.1250309 -0.121644765 -0.1095272 -0.089373216
-0.1308921 -0.008743762 -0.17369337 0.10645369 -0.040178522 -0.08087805 0.015303617 0.029371353
-0.124196924 -0.096455 -0.16250883 -0.06255529 0.014268745 -0.040482286 -0.10870119 0.028849723
-0.0035934378 0.054102927 -0.0593935 -0.1415128 0.019165982 -0.10499595 -0.0074178637 -0.10990022

hidden2.bias f4 [40]
00000000: 6c80 b4be c08b 2f40 a666 1ebd c93a a7bd
00000010: 1d37 e8be bf30 2d40 a405 3340 e294 3fbd
00000020: 41dc bcbe 3280 3dbd c7cb 4140 75a3 2840
00000030: 74cb 2a40 3085 01bd d580 00be 6358 2a40
00000040: 23aa bcbc 008d 80bd 9702 d1be 3808 04be
00000050: 7a6f 2f40 1b52 3940 0c81 3740 7273 93be
00000060: aa53 9cbe dc47 2540 23bf 2640 18b8 0abf
00000070: a8f7 3740 f1b4 2d40 d328 3740 266f 11be
00000080: b505 813b 58e4 0740 194f a7bd 40dd 26be
00000090: 1832 2f40 7ae9 e73c b816 00be 5a89 2ebe
-0.35254228 2.7429047 -0.038672112 -0.08165509 -0.45354548 2.7061002 2.7972193 -0.046772845
-0.3688679 -0.046264835 3.0280626 2.6349766 2.6686678 -0.031621158 -0.12549146 2.6616447
-0.023030346 -0.062768936 -0.40822288 -0.1289376 2.741179 2.8956363 2.8672514 -0.28799015
-0.3053258 2.582511 2.605416 -0.54187155 2.8744907 2.7141688 2.8618667 -0.14202556
0.003937448 2.123312 -0.081693836 -0.16295338 2.7374325 0.028309572 -0.12508667 -0.17044583

hidden3.weight f4 [20, 40]
00000000: a3ac 04be 8809 b7bd 0b27 84bd 168a b93d
00000010: 094b 18be 2e18 0fbe 260c cf3d fc41 89bd
00000020: 3033 0bbe 444d 753d 2275 16be 9cca 05be
00000030: e444 493d d4bc 2a3d 6199 0cbe 224e 0bbe
00000040: e237 ed3d 7033 143c 89fe f8bd 9dd1 0d3e
00000050: ce4e ab3d fab1 7bbd bae7 9e3d bcb1 413d
00000060: a440 493d 76a9 c8bd d5c6 0cbe 8409 4f3d
00000070: d834 b93c 97a9 043e 0c6c 14be 8aee c13d
00000080: bf5b 18be 4f19 01be 25ed b3bd f88e 7d3d
00000090: 5005 253c 387f 9dbd a8bb 643d 8030 8a3b
000000a0: a8ec 3abd 818a c7bc 0077 72bc 896e 2fbb
000000b0: 4857 06be 96ab 953d 98fa 3dbe ca3e 16be
000000c0: 084c 783d 70f0 59bd 5013 5b3d d695 be3d
000000d0: 9367 573b 822a 9dbd 1037 2bbc 964f b73d
000000e0: 52ab ec3d 846b 683d 70b7 383d 8402 a7bd
000000f0: b250 473d f865 5b3d 6f33 57be 9811 acbc
00000100: 0342 103e 93b7 013c 45ef 50be c0dd ffbc
00000110: 9e49 6b3d 8c5f 2f3d 35b5 2fbe accb a43d
00000120: 0236 833d c7f9 1c3e 9eb8 2bbd ec12 5d3d
00000130: b438 7dbd c2cc 973c f392 093e 19bb 82bd
00000140: c870 e23c a81f af3d 6218 64bd b8fb fabc
00000150: fe32 bd3d 0006 98bc fb48 0cbe 2202 9a3d
00000160: dc89 373d c7af c0bd 6003 d7bd c00e 75bb
00000170: 4c15 abbd c0ab 7c3c 8851 b43c 8e71 ea3d
00000180: 4025 a33d 2ebb d53d f849 c5bc 1c53 03be
00000190: 6277 f3bd 384f 423d deec 13be 376c e7bd
000001a0: 206f 2abc 309e dfbd f480 183d b839 053d
000001b0: 1079 cb3c 3274 f3bd 9f47 0d3e 865d c23d
000001c0: bcf3 5ebd a2a2 dbbd d21c cc3d a19c 9abd
000001d0: 2084 313c 2e65 a73d b079 8f3d c0ea 4dbb
000001e0: d61d ce3d 85d3 2b3e f97d ce3c fe73 4dbe
000001f0: db59 d1bd e88b 733e eeaa 003f 7e76 c1bd
00000200: 65d0 193e 685a bd3c 42ee c73f f8f1 d9bf
00000210: 6a81 4abf 47cb 7cbd c8b8 0bbe 79b7 b5be
00000220: ced2 16bc 6b95 15be 1abc 47be 0bd7 43be
00000230: d860 03c0 3ce5 c43e 1086 5c3e d8ca 413f
00000240: 3aaf 62bd 8f64 edbf 4197 a9bf 0082 bf3a
00000250: 3a3d 2e3f 0052 a3bf 6532 0cbf c9ba 90bd
00000260: f77c 2d3d d041 b93f 9953 023d 608d 2e3c
00000270: 4a94 12bf d56b 8abd e90d 15bd a803 3cbc
00000280: dd30 cebe bc73 583f bbcf 8abc 7235 0f3e
00000290: 32d0 4d3e b6d4 603f c352 773f 95ab eebc
000002a0: 97ca a6be 9407 3fbd 4371 783f 4b15 573f
000002b0: 1587 303f ea72 e43d 6375 7ebd 989c 603f
000002c0: 59ef bbbd 16c7 febc f743 59be a229 b63d
000002d0: 41b3 8140 bca6 6b3f a306 5f3f 357e e1bc
000002e0: db8a ae3e 5121 123f 42bb 103f 8cac e23d
000002f0: 7f1e 4b3f dcb0 563f 9f01 653f fa07 59bd
00000300: 6ccc b4bc daca 2dc1 139f 363e bcac 4bbd
00000310: 1442 5c3f 2a9f 13bc 6323 0ebd 2866 ab3d
00000320: f21e a1be c29b 873f 00d8 d3bc b645 8b3d
00000330: fa2a 523e 4885 783f b7d7 723f 1853 9f3b
00000340: 0c76 b0be c0aa d03b fec2 8e3f a2a3 283f
00000350: 5565 803f 9121 503e 911e 2c3e aaa4 7b3f
00000360: a4be 563c d841 8ebd 9cb2 a1be 4da5 9a3c
00000370: df26 8840 0e87 813f ce6c 7f3f ed5b 98bd
00000380: 6843 053f 80ed 613f 14cb 6a3f 3b60 9b3e
00000390: e541 8f3f f552 773f 489d 633f 66a6 99bb
000003a0: 774a 043e 2349 2cc1 e813 37bd 11a9 3e3e
000003b0: 944d 563f ea81 803c 8327 11ba 21ee 0abc
000003c0: 188a 5ebd 8118 2fbd d3df bd3d 6da2 9f3d
000003d0: f412 5b3e ae96 b2bd 43b4 acba 7255 413e
000003e0: a82f 9a3c 7f33 d3bd 7350 c9bd 70b7 87bd
000003f0: 862c b5bd 8c43 7d3d a39c 023e de75 07bd
-0.1295648 -0.08937365 -0.06452759 0.09059541 -0.14872374 -0.13974068 0.10109739 -0.06702039
-0.13593745 0.05988814 -0.1469312 -0.1306557 0.049137965 0.041683987 -0.13730384 -0.13604024
0.115829244 0.009045467 -0.12157924 0.13849492 0.0836464 -0.06144903 0.07759042 0.04728864
0.04913391 -0.09797947 -0.13747723 0.050546184 0.022608206 0.12955318 -0.14494342 0.09469326
-0.14878748 -0.1260731 -0.08785466 0.061903924 0.010072067 -0.07690281 0.055843025 0.0042172074
-0.04563585 -0.024358036 -0.01479888 -0.0026768765 -0.13119233 0.07308118 -0.18552625 -0.1467239
0.060619384 -0.053207815 0.053485215 0.09305923 0.0032868132 -0.07674123 -0.01045014 0.08950727
0.11556114 0.05674316 0.045096815 -0.08154777 0.04866094 0.05356404 -0.21015714 -0.021004483
0.14087681 0.007917303 -0.20403774 -0.031233668 0.057443254 0.04281573 -0.17158969 0.0804666
0.064067855 0.15329657 -0.04192411 0.053973123 -0.061821654 0.018530253 0.13434963 -0.06383342
0.027641669 0.0855096 -0.055687316 -0.030637607 0.092382416 -0.018557549 -0.13699715 0.07519938
0.044809207 -0.09408527 -0.104986906 -0.0037392825 -0.083536714 0.015421808 0.022011533 0.1144744
0.07966089 0.10436092 -0.024083123 -0.12824672 -0.11888005 0.04743883 -0.14445826 -0.11299937
-0.010402471 -0.10918844 0.037232354 0.032525748 0.024838 -0.11887397 0.13796853 0.094904944
-0.054431662 -0.10724379 0.099664345 -0.07549406 0.010834724 0.08173595 0.07005632 -0.003142044
0.100642845 0.16779907 0.025206553 -0.20063779 -0.10222217 0.23783839 0.5026082 -0.09446429
0.15020902 0.023114398 1.5619586 -1.7026968 -0.7910372 -0.061717298 -0.13644707 -0.3549154
-0.009205533 -0.1460778 -0.19505349 -0.19125001 -2.0527859 0.38456142 0.21535516 0.7570014
-0.05534289 -1.8546313 -1.3249284 0.0014610887 0.68062174 -1.27594 -0.54764396 -0.070668764
0.042355504 1.4473209 0.031818006 0.010653824 -0.5725752 -0.067588486 -0.03639022 -0.011475481
-0.40271655 0.84551597 -0.016944757 0.13985232 0.20098951 0.8782457 0.9661066 -0.029134551
-0.3257644 -0.046638086 0.97047824 0.84016865 0.6895612 0.111547306 -0.062123667 0.87738943
-0.09176511 -0.031100791 -0.21217333 0.088946596 4.0531316 0.9205129 0.871195 -0.027526
0.34090313 0.57082087 0.5653573 0.11068067 0.7934341 0.83863616 0.894556 -0.052986123
-0.022070132 -10.862024 0.1783412 -0.04972528 0.8603833 -0.009010116 -0.034701716 0.08369094
-0.31468922 1.0594409 -0.025859833 0.06800406 0.20524207 0.9707837 0.94860405 0.0048622005
-0.34465063 0.0063680112 1.1153257 0.65874684 1.0030924 0.20325305 0.16808535 0.9829813
0.013106976 -0.069461524 -0.3158158 0.01887765 4.254745 1.011934 0.997754 -0.074394085
0.5205598 0.8825302 0.9171612 0.30346856 1.1191984 0.9661096 0.8891187 -0.0046890257
0.12919031 -10.767856 -0.04469672 0.18619181 0.83712125 0.015686948 -0.0005537199 -0.008479626
-0.054330915 -0.042747978 0.09271207 0.07794652 0.21393949 -0.08720146 -0.0013176281 0.18880251
0.018821552 -0.103125565 -0.098297976 -0.06626785 -0.08846383 0.061831996 0.12755065 -0.03307139

hidden3.bias f4 [20]
00000000: da0e afbd 6798 45be 0a10 3dbd e9b2 4240
00000010: cbed 8a40 7b0f 8d40 0700 54be f8e2 a1be
00000020: 3018 fabc df30 2a3c 1ecb 373f 1f3e b6bd
00000030: 479f 35be 29f6 f8bd faf6 8540 dbed 8140
00000040: b2da 8440 861b 8840 7283 8340 08c3 6abe
-0.085477546 -0.19296418 -0.046157874 3.0421698 4.3415275 4.4081397 -0.20703135 -0.31618476
-0.030529112 0.010387628 0.7179431 -0.088985674 -0.1773654 -0.12156326 4.1863985 4.060285
4.151696 4.25336 4.1097956 -0.22925961

hidden4.weight f4 [10, 20]
00000000: b4e4 963d da69 c2bd 70ab eebd 92c1 523e
00000010: d881 7ebd 4041 a23c 12c9 acbd e026 15bd
00000020: 4c3a b53d 84f3 ed3d 98a7 1f3d c893 3b3d
00000030: 3277 2d3e 0957 39be 4021 e1bb c73e 42be
00000040: c5e1 41be 23e9 5cbe ea5e 463e a41b fb3d
00000050: bc44 ee3d 6c6c 20be 1869 24bd 92ff 313e
00000060: 3ac8 9bbe cc04 edbe e000 0bbc 3ac1 2c3e
00000070: 4018 6c3c e904 ffbd 54ee 6bbe d191 1fbe
00000080: 4b3b 0fbe c669 173e 5b0b cfbe a87d 07bd
00000090: 8eaf 08be c719 93be 56b3 1f3e e403 b9bd
000000a0: f2ac 98bd 249c 7bbd b861 963d e4d9 8c40
000000b0: 695d 9b3f 7e93 a93f f940 303c 83fb c53d
000000c0: 6aa3 98bd 6aac 313e eb9c dabd f846 86bc
000000d0: 9c8c b93d a8dc 25be aa89 be3f 95e7 973f
000000e0: 1ae4 ac3f a6d9 b83f 8b44 c03f 1c43 463e
000000f0: e0f6 483e fa07 e1bd 853d 3fbe 2292 9040
00000100: 8740 8a3f 0a6d ae3f a859 1abd fc1e 513e
00000110: 5795 a43c 86fd b8bd 1343 5e3e 6942 b63d
00000120: 94f5 393e fb65 353e 9c0e 833f 7716 833f
00000130: 6557 603f ff93 b03f 46dd 6f3f c9d2 173c
00000140: b637 523e 5c03 fc3d e82d 343e 00d0 5fbe
00000150: 609e 30be cb10 5bbe acd3 563e 0051 553c
00000160: 58c4 5fbd d815 123e 96fe 48be f0ea c93d
00000170: 900c bf3d 0d23 ecbd 9681 85bd f24d 2c3e
00000180: f8a5 153d 80dd c53d e40b 55be 8a23 3ebe
00000190: e809 ae3d f60c 1fbe 169d 193e 068f 8c40
000001a0: 569e 633f 9c42 2b3f c09b 963c 56b4 fc3e
000001b0: e8d7 40bd 9045 a83d ae9b 6e3e fcee d1bd
000001c0: 9832 19be b1e3 713e dcc1 483f 7cfd 643f
000001d0: 9319 5a3f f2a9 893f 0069 503f b380 fcbd
000001e0: accb 833d 84eb f83d 60ab 5a3c 8925 04be
000001f0: 40ad a9bc 0ead a6bd 186d ca3d e0d5 f43c
00000200: 2e18 5c3e 603f 97bd 40ca b6bd 783f b9bc
00000210: 4090 38be e033 c13d ba62 313e 90ec fd3c
00000220: 18ee d33c e49f fbbd e0ce 2dbe 3856 553e
00000230: d47c 82bd 28d5 5f3e 560a acbd f6d3 0fbe
00000240: ea59 e3bd 08bd 29be 00f5 e23a 8e22 443e
00000250: 4cec 403e 9e61 1a3e c748 24be 5095 2fbc
00000260: 0d92 06be 67cb 50be e0aa 423d f494 be3d
00000270: 542f 3f3e 8840 33bd 4afb 1bbe f871 3a3d
00000280: 7861 e6bc 9cae df3d a247 06be 3f8b 66bd
00000290: c40e 14bf f92b 05bf 752c 64be 742e e73d
000002a0: b22d 1d3e 52e3 5dbd 8200 123e 3b4b 32bc
000002b0: 507b 453e f24c 26be c1a3 01be 5ed2 6a3d
000002c0: 9658 96bd 3c7d eabd 472a d5be 7efc b8bd
000002d0: adc5 5ebe 0efc fabd 566d d9bd 303e 8d40
000002e0: db60 d43f cb46 e63f 5fed 743d da9f 9a3e
000002f0: 5a8b 5d3e 705f 4d3d fe39 7f3d 72b7 92bd
00000300: 2233 b3bc b483 07be b171 de3f 30a7 b83f
00000310: bd96 c03f b866 d63f dcef cb3f ee12 873b
0.073678404 -0.09492846 -0.11653793 0.20581654 -0.062135547 0.019806504 -0.084367886 -0.036414027
0.0884901 0.116187125 0.03897819 0.045795232 0.1694 -0.18099608 -0.006870419 -0.1896926
-0.1893378 -0.2157331 0.19372144 0.122611314 0.11634204 -0.1566636 -0.040139288 0.17382649
-0.30426198 -0.46292722 -0.008484095 0.16870585 0.0144100785 -0.124521084 -0.23040134 -0.15582968
-0.13987462 0.14786443 -0.4043835 -0.03307882 -0.13348219 -0.28730604 0.15595755 -0.09033945
-0.07454862 -0.061428204 0.07342857 4.401598 1.2137882 1.3248136 0.010757678 0.09667113
-0.07453044 0.17350927 -0.10674461 -0.016391262 0.09060022 -0.16197455 1.4885762 1.1867548
1.3507111 1.4441421 1.5020918 0.19361538 0.19625425 -0.109878495 -0.18675812 4.5178385
1.0800942 1.3627026 -0.03768316 0.20421976 0.020090742 -0.09032731 0.21705274 0.088993855
0.18160087 0.17714684 1.0238833 1.0241231 0.87633353 1.3795165 0.9369701 0.009266564
0.20529065 0.12305328 0.17595637 -0.2185669 -0.17247915 -0.21393125 0.20979184 0.0130198
-0.054630607 0.14266145 -0.19628367 0.09859264 0.09328568 -0.11530123 -0.06518857 0.16826609
0.036535233 0.096613884 -0.20805317 -0.18568245 0.08497983 -0.15532288 0.1500133 4.392459
0.88913476 0.6689851 0.018384814 0.49356335 -0.047080904 0.08216393 0.23301575 -0.10250661
-0.14960706 0.23622014 0.78420806 0.89449286 0.85195273 1.0754988 0.8141022 -0.12329235
0.06435332 0.12154296 0.013346523 -0.12904944 -0.020712495 -0.08138476 0.09884089 0.02988714
0.21493599 -0.07385135 -0.08925295 -0.022613272 -0.18023777 0.094337225 0.17322817 0.03099659
0.025870368 -0.12286356 -0.16973448 0.20833671 -0.06371465 0.21858656 -0.08400409 -0.140457
-0.11101134 -0.16576016 0.0017315447 0.19153807 0.1884014 0.150763 -0.16043387 -0.010716751
-0.13141651 -0.20390092 0.04752624 0.09305754 0.18670398 -0.043762714 -0.15232578 0.045518845
-0.028122649 0.10921976 -0.13113263 -0.05628514 -0.5783503 -0.5202022 -0.22282584 0.11288157
0.15349463 -0.054171868 0.14258006 -0.010882194 0.19285321 -0.1624029 -0.12660123 0.057329528
-0.07341115 -0.11449668 -0.41633818 -0.09032534 -0.21755095 -0.12255107 -0.10616557 4.4138412
1.6592058 1.7990354 0.059796687 0.30200082 0.2163519 0.050139844 0.062311165 -0.07163896
-0.021874968 -0.13233835 1.7378446 1.4426022 1.5046002 1.6750097 1.5932574 0.0041221296

hidden4.bias f4 [10]
00000000: c87f 46be 0fc0 e7be b425 ae40 e87f b040
00000010: 5f33 49be b63c 9f40 8b16 34be 20d2 aebc
00000020: 01f3 94be 6529 b740
-0.19384682 -0.45263717 5.4421024 5.5156136 -0.19648503 4.976161 -0.17586724 -0.02134043
-0.29091647 5.723803

regression.weight f4 [1, 10]
00000000: 7555 79be 46d4 9abd 4e38 b13f 2c39 8e3f
00000010: 64b7 debd 9b95 583f 42c9 0cbe 885b e83d
00000020: 39b9 91be 17c1 db3f
-0.24349006 -0.07560019 1.3845308 1.1111197 -0.10874823 0.8460328 -0.13748649 0.11345583
-0.28461626 1.7168301
